func.func @forward(%input1: tensor<1x3x224x224xf32>) -> tensor<1x1000xf32>  { 
	%1="ufront.conv2d"(%input1){groups=1, kernel=[3, 3], pad=[1, 1], stride=[2, 2]}:(tensor<1x3x224x224xf32>) -> tensor<1x64x112x112xf32>
	%2="ufront.batchnorm"(%1){affine=true, eps=0.001, momentum=0.99, track_running_stats=true}:(tensor<1x64x112x112xf32>) -> tensor<1x64x112x112xf32>
	%3="ufront.gelu"(%2):(tensor<1x64x112x112xf32>) -> tensor<1x64x112x112xf32>
	%4="ufront.conv2d"(%3){groups=1, kernel=[3, 3], pad=[1, 1], stride=[1, 1]}:(tensor<1x64x112x112xf32>) -> tensor<1x64x112x112xf32>
	%5="ufront.pool2d"(%4){kernel=[3, 3], pad=[1, 1], pool_type="POOL_AVG", stride=[2, 2]}:(tensor<1x64x112x112xf32>) -> tensor<1x64x56x56xf32>
	%6="ufront.conv2d"(%5){groups=1, kernel=[1, 1], pad=[0, 0], stride=[1, 1]}:(tensor<1x64x56x56xf32>) -> tensor<1x64x56x56xf32>
	%7="ufront.batchnorm"(%4){affine=true, eps=0.001, momentum=0.99, track_running_stats=true}:(tensor<1x64x112x112xf32>) -> tensor<1x64x112x112xf32>
	%8="ufront.conv2d"(%7){groups=1, kernel=[1, 1], pad=[0, 0], stride=[1, 1]}:(tensor<1x64x112x112xf32>) -> tensor<1x256x112x112xf32>
	%9="ufront.batchnorm"(%8){affine=true, eps=0.001, momentum=0.99, track_running_stats=true}:(tensor<1x256x112x112xf32>) -> tensor<1x256x112x112xf32>
	%10="ufront.gelu"(%9):(tensor<1x256x112x112xf32>) -> tensor<1x256x112x112xf32>
	%11="ufront.conv2d"(%10){groups=256, kernel=[3, 3], pad=[1, 1], stride=[2, 2]}:(tensor<1x256x112x112xf32>) -> tensor<1x256x56x56xf32>
	%12="ufront.batchnorm"(%11){affine=true, eps=0.001, momentum=0.99, track_running_stats=true}:(tensor<1x256x56x56xf32>) -> tensor<1x256x56x56xf32>
	%13="ufront.gelu"(%12):(tensor<1x256x56x56xf32>) -> tensor<1x256x56x56xf32>
	%14="ufront.pool2d"(%13){output_size=[1, 1], pool_type="POOL_ADAPTIVE"}:(tensor<1x256x56x56xf32>) -> tensor<1x256x1x1xf32>
	%15="ufront.conv2d"(%14){groups=1, kernel=[1, 1], pad=[0, 0], stride=[1, 1]}:(tensor<1x256x1x1xf32>) -> tensor<1x16x1x1xf32>
	%16="ufront.silu"(%15):(tensor<1x16x1x1xf32>) -> tensor<1x16x1x1xf32>
	%17="ufront.conv2d"(%16){groups=1, kernel=[1, 1], pad=[0, 0], stride=[1, 1]}:(tensor<1x16x1x1xf32>) -> tensor<1x256x1x1xf32>
	%18="ufront.sigmoid"(%17):(tensor<1x256x1x1xf32>) -> tensor<1x256x1x1xf32>
	%19="ufront.multiply"(%18, %13):(tensor<1x256x1x1xf32>, tensor<1x256x56x56xf32>) -> tensor<1x256x56x56xf32>
	%20="ufront.conv2d"(%19){groups=1, kernel=[1, 1], pad=[0, 0], stride=[1, 1]}:(tensor<1x256x56x56xf32>) -> tensor<1x64x56x56xf32>
	%21="ufront.identity"(%20):(tensor<1x64x56x56xf32>) -> tensor<1x64x56x56xf32>
	%22="ufront.add"(%6, %21):(tensor<1x64x56x56xf32>, tensor<1x64x56x56xf32>) -> tensor<1x64x56x56xf32>
	%23="ufront.reshape"(%22){shape=[1, 64, 8, 7, 8, 7]}:(tensor<1x64x56x56xf32>) -> tensor<1x64x8x7x8x7xf32>
	%24="ufront.transpose"(%23){perms=[0, 2, 4, 3, 5, 1]}:(tensor<1x64x8x7x8x7xf32>) -> tensor<1x8x8x7x7x64xf32>
	%25="ufront.reshape"(%24){shape=[1, 64, 49, 64]}:(tensor<1x8x8x7x7x64xf32>) -> tensor<1x64x49x64xf32>
	%26="ufront.identity"(%25):(tensor<1x64x49x64xf32>) -> tensor<1x64x49x64xf32>
	%27="ufront.layer_norm"(%26){elementwise_affine=true, eps=0.00001, normalized_shape=[64]}:(tensor<1x64x49x64xf32>) -> tensor<1x64x49x64xf32>
	%28="ufront.linear"(%27):(tensor<1x64x49x64xf32>) -> tensor<1x64x49x192xf32>
	(%29, %30, %31)="ufront.chunk"(%28){axis=-1, sizes=3}:(tensor<1x64x49x192xf32>) -> tensor<1x64x49x64xf32>, tensor<1x64x49x64xf32>, tensor<1x64x49x64xf32>
	%32="ufront.reshape"(%29){shape=[1, 64, 49, 2, 32]}:(tensor<1x64x49x64xf32>) -> tensor<1x64x49x2x32xf32>
	%33="ufront.transpose"(%32){perms=[0, 1, 3, 2, 4]}:(tensor<1x64x49x2x32xf32>) -> tensor<1x64x2x49x32xf32>
	%34="ufront.reshape"(%30){shape=[1, 64, 49, 2, 32]}:(tensor<1x64x49x64xf32>) -> tensor<1x64x49x2x32xf32>
	%35="ufront.transpose"(%34){perms=[0, 1, 3, 2, 4]}:(tensor<1x64x49x2x32xf32>) -> tensor<1x64x2x49x32xf32>
	%36="ufront.reshape"(%31){shape=[1, 64, 49, 2, 32]}:(tensor<1x64x49x64xf32>) -> tensor<1x64x49x2x32xf32>
	%37="ufront.transpose"(%36){perms=[0, 1, 3, 2, 4]}:(tensor<1x64x49x2x32xf32>) -> tensor<1x64x2x49x32xf32>
	%38="ufront.smultiply"(%35){scalar=0.125}:(tensor<1x64x2x49x32xf32>) -> tensor<1x64x2x49x32xf32>
	%39="ufront.call"(%33, %38){addargs=[('arg1', 'B G H I D, B G H J D -> B G H I J')], func=einsum}:(tensor<1x64x2x49x32xf32>, tensor<1x64x2x49x32xf32>) -> tensor<1x64x2x49x49xf32>
	%40="ufront.parameter"(%40){dtype="Float", initializer="…", requires_grad=true}:(tensor<169x2xf32>) -> tensor<169x2xf32>
	%41="ufront.tensor"(%41){dtype="Int64", initializer="…", requires_grad=false}:(tensor<2401xf32>) -> tensor<2401xf32>
	%42="ufront.slice"(%40, %41){output_shape=[2401, 2]}:(tensor<169x2xf32>, tensor<2401xf32>) -> tensor<2401x2xf32>
	%43="ufront.reshape"(%42){shape=[49, 49, 2]}:(tensor<2401x2xf32>) -> tensor<49x49x2xf32>
	%44="ufront.transpose"(%43){perms=[2, 0, 1]}:(tensor<49x49x2xf32>) -> tensor<2x49x49xf32>
	%45="ufront.reshape"(%44){shape=[1, 2, 49, 49]}:(tensor<2x49x49xf32>) -> tensor<1x2x49x49xf32>
	%46="ufront.add"(%39, %45):(tensor<1x64x2x49x49xf32>, tensor<1x2x49x49xf32>) -> tensor<1x64x2x49x49xf32>
	%47="ufront.softmax"(%46):(tensor<1x64x2x49x49xf32>) -> tensor<1x64x2x49x49xf32>
	%48="ufront.call"(%47, %37){addargs=[('arg1', 'B G H I J, B G H J D -> B G H I D')], func=einsum}:(tensor<1x64x2x49x49xf32>, tensor<1x64x2x49x32xf32>) -> tensor<1x64x2x49x32xf32>
	%49="ufront.transpose"(%48){perms=[0, 1, 3, 2, 4]}:(tensor<1x64x2x49x32xf32>) -> tensor<1x64x49x2x32xf32>
	%50="ufront.reshape"(%49){shape=[1, 64, 49, 64]}:(tensor<1x64x49x2x32xf32>) -> tensor<1x64x49x64xf32>
	%51="ufront.linear"(%50):(tensor<1x64x49x64xf32>) -> tensor<1x64x49x64xf32>
	%52="ufront.dropout"(%51){rate=0.0, seed=0}:(tensor<1x64x49x64xf32>) -> tensor<1x64x49x64xf32>
	%53="ufront.call"(%52){addargs=[('p', 0.0), ('mode', 'row'), ('training', False)], func=stochastic_depth}:(tensor<1x64x49x64xf32>) -> tensor<1x64x49x64xf32>
	%54="ufront.add"(%26, %53):(tensor<1x64x49x64xf32>, tensor<1x64x49x64xf32>) -> tensor<1x64x49x64xf32>
	%55="ufront.layer_norm"(%54){elementwise_affine=true, eps=0.00001, normalized_shape=[64]}:(tensor<1x64x49x64xf32>) -> tensor<1x64x49x64xf32>
	%56="ufront.linear"(%55):(tensor<1x64x49x64xf32>) -> tensor<1x64x49x256xf32>
	%57="ufront.gelu"(%56):(tensor<1x64x49x256xf32>) -> tensor<1x64x49x256xf32>
	%58="ufront.linear"(%57):(tensor<1x64x49x256xf32>) -> tensor<1x64x49x64xf32>
	%59="ufront.dropout"(%58){rate=0.0, seed=0}:(tensor<1x64x49x64xf32>) -> tensor<1x64x49x64xf32>
	%60="ufront.call"(%59){addargs=[('p', 0.0), ('mode', 'row'), ('training', False)], func=stochastic_depth}:(tensor<1x64x49x64xf32>) -> tensor<1x64x49x64xf32>
	%61="ufront.add"(%54, %60):(tensor<1x64x49x64xf32>, tensor<1x64x49x64xf32>) -> tensor<1x64x49x64xf32>
	%62="ufront.identity"(%61):(tensor<1x64x49x64xf32>) -> tensor<1x64x49x64xf32>
	%63="ufront.reshape"(%62){shape=[1, 8, 8, 7, 7, 64]}:(tensor<1x64x49x64xf32>) -> tensor<1x8x8x7x7x64xf32>
	%64="ufront.transpose"(%63){perms=[0, 5, 1, 3, 2, 4]}:(tensor<1x8x8x7x7x64xf32>) -> tensor<1x64x8x7x8x7xf32>
	%65="ufront.reshape"(%64){shape=[1, 64, 56, 56]}:(tensor<1x64x8x7x8x7xf32>) -> tensor<1x64x56x56xf32>
	%66="ufront.reshape"(%65){shape=[1, 64, 7, 8, 7, 8]}:(tensor<1x64x56x56xf32>) -> tensor<1x64x7x8x7x8xf32>
	%67="ufront.transpose"(%66){perms=[0, 2, 4, 3, 5, 1]}:(tensor<1x64x7x8x7x8xf32>) -> tensor<1x7x7x8x8x64xf32>
	%68="ufront.reshape"(%67){shape=[1, 49, 64, 64]}:(tensor<1x7x7x8x8x64xf32>) -> tensor<1x49x64x64xf32>
	%69="ufront.call"(%68){addargs=[('arg2', -2), ('arg3', -3)], func=swapaxes}:(tensor<1x49x64x64xf32>) -> tensor<1x64x49x64xf32>
	%70="ufront.layer_norm"(%69){elementwise_affine=true, eps=0.00001, normalized_shape=[64]}:(tensor<1x64x49x64xf32>) -> tensor<1x64x49x64xf32>
	%71="ufront.linear"(%70):(tensor<1x64x49x64xf32>) -> tensor<1x64x49x192xf32>
	(%30, %72, %73)="ufront.chunk"(%71){axis=-1, sizes=3}:(tensor<1x64x49x192xf32>) -> tensor<1x64x49x64xf32>, tensor<1x64x49x64xf32>, tensor<1x64x49x64xf32>
	%74="ufront.reshape"(%30){shape=[1, 64, 49, 2, 32]}:(tensor<1x64x49x64xf32>) -> tensor<1x64x49x2x32xf32>
	%75="ufront.transpose"(%74){perms=[0, 1, 3, 2, 4]}:(tensor<1x64x49x2x32xf32>) -> tensor<1x64x2x49x32xf32>
	%76="ufront.reshape"(%72){shape=[1, 64, 49, 2, 32]}:(tensor<1x64x49x64xf32>) -> tensor<1x64x49x2x32xf32>
	%77="ufront.transpose"(%76){perms=[0, 1, 3, 2, 4]}:(tensor<1x64x49x2x32xf32>) -> tensor<1x64x2x49x32xf32>
	%78="ufront.reshape"(%73){shape=[1, 64, 49, 2, 32]}:(tensor<1x64x49x64xf32>) -> tensor<1x64x49x2x32xf32>
	%79="ufront.transpose"(%78){perms=[0, 1, 3, 2, 4]}:(tensor<1x64x49x2x32xf32>) -> tensor<1x64x2x49x32xf32>
	%80="ufront.smultiply"(%77){scalar=0.125}:(tensor<1x64x2x49x32xf32>) -> tensor<1x64x2x49x32xf32>
	%81="ufront.call"(%75, %80){addargs=[('arg1', 'B G H I D, B G H J D -> B G H I J')], func=einsum}:(tensor<1x64x2x49x32xf32>, tensor<1x64x2x49x32xf32>) -> tensor<1x64x2x49x49xf32>
	%82="ufront.parameter"(%82){dtype="Float", initializer="…", requires_grad=true}:(tensor<169x2xf32>) -> tensor<169x2xf32>
	%83="ufront.tensor"(%83){dtype="Int64", initializer="…", requires_grad=false}:(tensor<2401xf32>) -> tensor<2401xf32>
	%84="ufront.slice"(%82, %83){output_shape=[2401, 2]}:(tensor<169x2xf32>, tensor<2401xf32>) -> tensor<2401x2xf32>
	%85="ufront.reshape"(%84){shape=[49, 49, 2]}:(tensor<2401x2xf32>) -> tensor<49x49x2xf32>
	%86="ufront.transpose"(%85){perms=[2, 0, 1]}:(tensor<49x49x2xf32>) -> tensor<2x49x49xf32>
	%87="ufront.reshape"(%86){shape=[1, 2, 49, 49]}:(tensor<2x49x49xf32>) -> tensor<1x2x49x49xf32>
	%88="ufront.add"(%81, %87):(tensor<1x64x2x49x49xf32>, tensor<1x2x49x49xf32>) -> tensor<1x64x2x49x49xf32>
	%89="ufront.softmax"(%88):(tensor<1x64x2x49x49xf32>) -> tensor<1x64x2x49x49xf32>
	%90="ufront.call"(%89, %79){addargs=[('arg1', 'B G H I J, B G H J D -> B G H I D')], func=einsum}:(tensor<1x64x2x49x49xf32>, tensor<1x64x2x49x32xf32>) -> tensor<1x64x2x49x32xf32>
	%91="ufront.transpose"(%90){perms=[0, 1, 3, 2, 4]}:(tensor<1x64x2x49x32xf32>) -> tensor<1x64x49x2x32xf32>
	%92="ufront.reshape"(%91){shape=[1, 64, 49, 64]}:(tensor<1x64x49x2x32xf32>) -> tensor<1x64x49x64xf32>
	%93="ufront.linear"(%92):(tensor<1x64x49x64xf32>) -> tensor<1x64x49x64xf32>
	%94="ufront.dropout"(%93){rate=0.0, seed=0}:(tensor<1x64x49x64xf32>) -> tensor<1x64x49x64xf32>
	%95="ufront.call"(%94){addargs=[('p', 0.0), ('mode', 'row'), ('training', False)], func=stochastic_depth}:(tensor<1x64x49x64xf32>) -> tensor<1x64x49x64xf32>
	%96="ufront.add"(%69, %95):(tensor<1x64x49x64xf32>, tensor<1x64x49x64xf32>) -> tensor<1x64x49x64xf32>
	%97="ufront.layer_norm"(%96){elementwise_affine=true, eps=0.00001, normalized_shape=[64]}:(tensor<1x64x49x64xf32>) -> tensor<1x64x49x64xf32>
	%98="ufront.linear"(%97):(tensor<1x64x49x64xf32>) -> tensor<1x64x49x256xf32>
	%99="ufront.gelu"(%98):(tensor<1x64x49x256xf32>) -> tensor<1x64x49x256xf32>
	%100="ufront.linear"(%99):(tensor<1x64x49x256xf32>) -> tensor<1x64x49x64xf32>
	%101="ufront.dropout"(%100){rate=0.0, seed=0}:(tensor<1x64x49x64xf32>) -> tensor<1x64x49x64xf32>
	%102="ufront.call"(%101){addargs=[('p', 0.0), ('mode', 'row'), ('training', False)], func=stochastic_depth}:(tensor<1x64x49x64xf32>) -> tensor<1x64x49x64xf32>
	%103="ufront.add"(%96, %102):(tensor<1x64x49x64xf32>, tensor<1x64x49x64xf32>) -> tensor<1x64x49x64xf32>
	%104="ufront.call"(%103){addargs=[('arg2', -2), ('arg3', -3)], func=swapaxes}:(tensor<1x64x49x64xf32>) -> tensor<1x49x64x64xf32>
	%105="ufront.reshape"(%104){shape=[1, 7, 7, 8, 8, 64]}:(tensor<1x49x64x64xf32>) -> tensor<1x7x7x8x8x64xf32>
	%106="ufront.transpose"(%105){perms=[0, 5, 1, 3, 2, 4]}:(tensor<1x7x7x8x8x64xf32>) -> tensor<1x64x7x8x7x8xf32>
	%107="ufront.reshape"(%106){shape=[1, 64, 56, 56]}:(tensor<1x64x7x8x7x8xf32>) -> tensor<1x64x56x56xf32>
	%108="ufront.identity"(%107):(tensor<1x64x56x56xf32>) -> tensor<1x64x56x56xf32>
	%109="ufront.batchnorm"(%107){affine=true, eps=0.001, momentum=0.99, track_running_stats=true}:(tensor<1x64x56x56xf32>) -> tensor<1x64x56x56xf32>
	%110="ufront.conv2d"(%109){groups=1, kernel=[1, 1], pad=[0, 0], stride=[1, 1]}:(tensor<1x64x56x56xf32>) -> tensor<1x256x56x56xf32>
	%111="ufront.batchnorm"(%110){affine=true, eps=0.001, momentum=0.99, track_running_stats=true}:(tensor<1x256x56x56xf32>) -> tensor<1x256x56x56xf32>
	%112="ufront.gelu"(%111):(tensor<1x256x56x56xf32>) -> tensor<1x256x56x56xf32>
	%113="ufront.conv2d"(%112){groups=256, kernel=[3, 3], pad=[1, 1], stride=[1, 1]}:(tensor<1x256x56x56xf32>) -> tensor<1x256x56x56xf32>
	%114="ufront.batchnorm"(%113){affine=true, eps=0.001, momentum=0.99, track_running_stats=true}:(tensor<1x256x56x56xf32>) -> tensor<1x256x56x56xf32>
	%115="ufront.gelu"(%114):(tensor<1x256x56x56xf32>) -> tensor<1x256x56x56xf32>
	%116="ufront.pool2d"(%115){output_size=[1, 1], pool_type="POOL_ADAPTIVE"}:(tensor<1x256x56x56xf32>) -> tensor<1x256x1x1xf32>
	%117="ufront.conv2d"(%116){groups=1, kernel=[1, 1], pad=[0, 0], stride=[1, 1]}:(tensor<1x256x1x1xf32>) -> tensor<1x16x1x1xf32>
	%118="ufront.silu"(%117):(tensor<1x16x1x1xf32>) -> tensor<1x16x1x1xf32>
	%119="ufront.conv2d"(%118){groups=1, kernel=[1, 1], pad=[0, 0], stride=[1, 1]}:(tensor<1x16x1x1xf32>) -> tensor<1x256x1x1xf32>
	%120="ufront.sigmoid"(%119):(tensor<1x256x1x1xf32>) -> tensor<1x256x1x1xf32>
	%121="ufront.multiply"(%120, %115):(tensor<1x256x1x1xf32>, tensor<1x256x56x56xf32>) -> tensor<1x256x56x56xf32>
	%122="ufront.conv2d"(%121){groups=1, kernel=[1, 1], pad=[0, 0], stride=[1, 1]}:(tensor<1x256x56x56xf32>) -> tensor<1x64x56x56xf32>
	%123="ufront.call"(%122){addargs=[('p', 0.02), ('mode', 'row'), ('training', False)], func=stochastic_depth}:(tensor<1x64x56x56xf32>) -> tensor<1x64x56x56xf32>
	%124="ufront.add"(%108, %123):(tensor<1x64x56x56xf32>, tensor<1x64x56x56xf32>) -> tensor<1x64x56x56xf32>
	%125="ufront.reshape"(%124){shape=[1, 64, 8, 7, 8, 7]}:(tensor<1x64x56x56xf32>) -> tensor<1x64x8x7x8x7xf32>
	%126="ufront.transpose"(%125){perms=[0, 2, 4, 3, 5, 1]}:(tensor<1x64x8x7x8x7xf32>) -> tensor<1x8x8x7x7x64xf32>
	%127="ufront.reshape"(%126){shape=[1, 64, 49, 64]}:(tensor<1x8x8x7x7x64xf32>) -> tensor<1x64x49x64xf32>
	%128="ufront.identity"(%127):(tensor<1x64x49x64xf32>) -> tensor<1x64x49x64xf32>
	%129="ufront.layer_norm"(%128){elementwise_affine=true, eps=0.00001, normalized_shape=[64]}:(tensor<1x64x49x64xf32>) -> tensor<1x64x49x64xf32>
	%130="ufront.linear"(%129):(tensor<1x64x49x64xf32>) -> tensor<1x64x49x192xf32>
	(%31, %131, %132)="ufront.chunk"(%130){axis=-1, sizes=3}:(tensor<1x64x49x192xf32>) -> tensor<1x64x49x64xf32>, tensor<1x64x49x64xf32>, tensor<1x64x49x64xf32>
	%133="ufront.reshape"(%31){shape=[1, 64, 49, 2, 32]}:(tensor<1x64x49x64xf32>) -> tensor<1x64x49x2x32xf32>
	%134="ufront.transpose"(%133){perms=[0, 1, 3, 2, 4]}:(tensor<1x64x49x2x32xf32>) -> tensor<1x64x2x49x32xf32>
	%135="ufront.reshape"(%131){shape=[1, 64, 49, 2, 32]}:(tensor<1x64x49x64xf32>) -> tensor<1x64x49x2x32xf32>
	%136="ufront.transpose"(%135){perms=[0, 1, 3, 2, 4]}:(tensor<1x64x49x2x32xf32>) -> tensor<1x64x2x49x32xf32>
	%137="ufront.reshape"(%132){shape=[1, 64, 49, 2, 32]}:(tensor<1x64x49x64xf32>) -> tensor<1x64x49x2x32xf32>
	%138="ufront.transpose"(%137){perms=[0, 1, 3, 2, 4]}:(tensor<1x64x49x2x32xf32>) -> tensor<1x64x2x49x32xf32>
	%139="ufront.smultiply"(%136){scalar=0.125}:(tensor<1x64x2x49x32xf32>) -> tensor<1x64x2x49x32xf32>
	%140="ufront.call"(%134, %139){addargs=[('arg1', 'B G H I D, B G H J D -> B G H I J')], func=einsum}:(tensor<1x64x2x49x32xf32>, tensor<1x64x2x49x32xf32>) -> tensor<1x64x2x49x49xf32>
	%141="ufront.parameter"(%141){dtype="Float", initializer="…", requires_grad=true}:(tensor<169x2xf32>) -> tensor<169x2xf32>
	%142="ufront.tensor"(%142){dtype="Int64", initializer="…", requires_grad=false}:(tensor<2401xf32>) -> tensor<2401xf32>
	%143="ufront.slice"(%141, %142){output_shape=[2401, 2]}:(tensor<169x2xf32>, tensor<2401xf32>) -> tensor<2401x2xf32>
	%144="ufront.reshape"(%143){shape=[49, 49, 2]}:(tensor<2401x2xf32>) -> tensor<49x49x2xf32>
	%145="ufront.transpose"(%144){perms=[2, 0, 1]}:(tensor<49x49x2xf32>) -> tensor<2x49x49xf32>
	%146="ufront.reshape"(%145){shape=[1, 2, 49, 49]}:(tensor<2x49x49xf32>) -> tensor<1x2x49x49xf32>
	%147="ufront.add"(%140, %146):(tensor<1x64x2x49x49xf32>, tensor<1x2x49x49xf32>) -> tensor<1x64x2x49x49xf32>
	%148="ufront.softmax"(%147):(tensor<1x64x2x49x49xf32>) -> tensor<1x64x2x49x49xf32>
	%149="ufront.call"(%148, %138){addargs=[('arg1', 'B G H I J, B G H J D -> B G H I D')], func=einsum}:(tensor<1x64x2x49x49xf32>, tensor<1x64x2x49x32xf32>) -> tensor<1x64x2x49x32xf32>
	%150="ufront.transpose"(%149){perms=[0, 1, 3, 2, 4]}:(tensor<1x64x2x49x32xf32>) -> tensor<1x64x49x2x32xf32>
	%151="ufront.reshape"(%150){shape=[1, 64, 49, 64]}:(tensor<1x64x49x2x32xf32>) -> tensor<1x64x49x64xf32>
	%152="ufront.linear"(%151):(tensor<1x64x49x64xf32>) -> tensor<1x64x49x64xf32>
	%153="ufront.dropout"(%152){rate=0.0, seed=0}:(tensor<1x64x49x64xf32>) -> tensor<1x64x49x64xf32>
	%154="ufront.call"(%153){addargs=[('p', 0.02), ('mode', 'row'), ('training', False)], func=stochastic_depth}:(tensor<1x64x49x64xf32>) -> tensor<1x64x49x64xf32>
	%155="ufront.add"(%128, %154):(tensor<1x64x49x64xf32>, tensor<1x64x49x64xf32>) -> tensor<1x64x49x64xf32>
	%156="ufront.layer_norm"(%155){elementwise_affine=true, eps=0.00001, normalized_shape=[64]}:(tensor<1x64x49x64xf32>) -> tensor<1x64x49x64xf32>
	%157="ufront.linear"(%156):(tensor<1x64x49x64xf32>) -> tensor<1x64x49x256xf32>
	%158="ufront.gelu"(%157):(tensor<1x64x49x256xf32>) -> tensor<1x64x49x256xf32>
	%159="ufront.linear"(%158):(tensor<1x64x49x256xf32>) -> tensor<1x64x49x64xf32>
	%160="ufront.dropout"(%159){rate=0.0, seed=0}:(tensor<1x64x49x64xf32>) -> tensor<1x64x49x64xf32>
	%161="ufront.call"(%160){addargs=[('p', 0.02), ('mode', 'row'), ('training', False)], func=stochastic_depth}:(tensor<1x64x49x64xf32>) -> tensor<1x64x49x64xf32>
	%162="ufront.add"(%155, %161):(tensor<1x64x49x64xf32>, tensor<1x64x49x64xf32>) -> tensor<1x64x49x64xf32>
	%163="ufront.identity"(%162):(tensor<1x64x49x64xf32>) -> tensor<1x64x49x64xf32>
	%164="ufront.reshape"(%163){shape=[1, 8, 8, 7, 7, 64]}:(tensor<1x64x49x64xf32>) -> tensor<1x8x8x7x7x64xf32>
	%165="ufront.transpose"(%164){perms=[0, 5, 1, 3, 2, 4]}:(tensor<1x8x8x7x7x64xf32>) -> tensor<1x64x8x7x8x7xf32>
	%166="ufront.reshape"(%165){shape=[1, 64, 56, 56]}:(tensor<1x64x8x7x8x7xf32>) -> tensor<1x64x56x56xf32>
	%167="ufront.reshape"(%166){shape=[1, 64, 7, 8, 7, 8]}:(tensor<1x64x56x56xf32>) -> tensor<1x64x7x8x7x8xf32>
	%168="ufront.transpose"(%167){perms=[0, 2, 4, 3, 5, 1]}:(tensor<1x64x7x8x7x8xf32>) -> tensor<1x7x7x8x8x64xf32>
	%169="ufront.reshape"(%168){shape=[1, 49, 64, 64]}:(tensor<1x7x7x8x8x64xf32>) -> tensor<1x49x64x64xf32>
	%170="ufront.call"(%169){addargs=[('arg2', -2), ('arg3', -3)], func=swapaxes}:(tensor<1x49x64x64xf32>) -> tensor<1x64x49x64xf32>
	%171="ufront.layer_norm"(%170){elementwise_affine=true, eps=0.00001, normalized_shape=[64]}:(tensor<1x64x49x64xf32>) -> tensor<1x64x49x64xf32>
	%172="ufront.linear"(%171):(tensor<1x64x49x64xf32>) -> tensor<1x64x49x192xf32>
	(%173, %174, %175)="ufront.chunk"(%172){axis=-1, sizes=3}:(tensor<1x64x49x192xf32>) -> tensor<1x64x49x64xf32>, tensor<1x64x49x64xf32>, tensor<1x64x49x64xf32>
	%176="ufront.reshape"(%173){shape=[1, 64, 49, 2, 32]}:(tensor<1x64x49x64xf32>) -> tensor<1x64x49x2x32xf32>
	%177="ufront.transpose"(%176){perms=[0, 1, 3, 2, 4]}:(tensor<1x64x49x2x32xf32>) -> tensor<1x64x2x49x32xf32>
	%178="ufront.reshape"(%174){shape=[1, 64, 49, 2, 32]}:(tensor<1x64x49x64xf32>) -> tensor<1x64x49x2x32xf32>
	%179="ufront.transpose"(%178){perms=[0, 1, 3, 2, 4]}:(tensor<1x64x49x2x32xf32>) -> tensor<1x64x2x49x32xf32>
	%180="ufront.reshape"(%175){shape=[1, 64, 49, 2, 32]}:(tensor<1x64x49x64xf32>) -> tensor<1x64x49x2x32xf32>
	%181="ufront.transpose"(%180){perms=[0, 1, 3, 2, 4]}:(tensor<1x64x49x2x32xf32>) -> tensor<1x64x2x49x32xf32>
	%182="ufront.smultiply"(%179){scalar=0.125}:(tensor<1x64x2x49x32xf32>) -> tensor<1x64x2x49x32xf32>
	%183="ufront.call"(%177, %182){addargs=[('arg1', 'B G H I D, B G H J D -> B G H I J')], func=einsum}:(tensor<1x64x2x49x32xf32>, tensor<1x64x2x49x32xf32>) -> tensor<1x64x2x49x49xf32>
	%184="ufront.parameter"(%184){dtype="Float", initializer="…", requires_grad=true}:(tensor<169x2xf32>) -> tensor<169x2xf32>
	%185="ufront.tensor"(%185){dtype="Int64", initializer="…", requires_grad=false}:(tensor<2401xf32>) -> tensor<2401xf32>
	%186="ufront.slice"(%184, %185){output_shape=[2401, 2]}:(tensor<169x2xf32>, tensor<2401xf32>) -> tensor<2401x2xf32>
	%187="ufront.reshape"(%186){shape=[49, 49, 2]}:(tensor<2401x2xf32>) -> tensor<49x49x2xf32>
	%188="ufront.transpose"(%187){perms=[2, 0, 1]}:(tensor<49x49x2xf32>) -> tensor<2x49x49xf32>
	%189="ufront.reshape"(%188){shape=[1, 2, 49, 49]}:(tensor<2x49x49xf32>) -> tensor<1x2x49x49xf32>
	%190="ufront.add"(%183, %189):(tensor<1x64x2x49x49xf32>, tensor<1x2x49x49xf32>) -> tensor<1x64x2x49x49xf32>
	%191="ufront.softmax"(%190):(tensor<1x64x2x49x49xf32>) -> tensor<1x64x2x49x49xf32>
	%192="ufront.call"(%191, %181){addargs=[('arg1', 'B G H I J, B G H J D -> B G H I D')], func=einsum}:(tensor<1x64x2x49x49xf32>, tensor<1x64x2x49x32xf32>) -> tensor<1x64x2x49x32xf32>
	%193="ufront.transpose"(%192){perms=[0, 1, 3, 2, 4]}:(tensor<1x64x2x49x32xf32>) -> tensor<1x64x49x2x32xf32>
	%194="ufront.reshape"(%193){shape=[1, 64, 49, 64]}:(tensor<1x64x49x2x32xf32>) -> tensor<1x64x49x64xf32>
	%195="ufront.linear"(%194):(tensor<1x64x49x64xf32>) -> tensor<1x64x49x64xf32>
	%196="ufront.dropout"(%195){rate=0.0, seed=0}:(tensor<1x64x49x64xf32>) -> tensor<1x64x49x64xf32>
	%197="ufront.call"(%196){addargs=[('p', 0.02), ('mode', 'row'), ('training', False)], func=stochastic_depth}:(tensor<1x64x49x64xf32>) -> tensor<1x64x49x64xf32>
	%198="ufront.add"(%170, %197):(tensor<1x64x49x64xf32>, tensor<1x64x49x64xf32>) -> tensor<1x64x49x64xf32>
	%199="ufront.layer_norm"(%198){elementwise_affine=true, eps=0.00001, normalized_shape=[64]}:(tensor<1x64x49x64xf32>) -> tensor<1x64x49x64xf32>
	%200="ufront.linear"(%199):(tensor<1x64x49x64xf32>) -> tensor<1x64x49x256xf32>
	%201="ufront.gelu"(%200):(tensor<1x64x49x256xf32>) -> tensor<1x64x49x256xf32>
	%202="ufront.linear"(%201):(tensor<1x64x49x256xf32>) -> tensor<1x64x49x64xf32>
	%203="ufront.dropout"(%202){rate=0.0, seed=0}:(tensor<1x64x49x64xf32>) -> tensor<1x64x49x64xf32>
	%204="ufront.call"(%203){addargs=[('p', 0.02), ('mode', 'row'), ('training', False)], func=stochastic_depth}:(tensor<1x64x49x64xf32>) -> tensor<1x64x49x64xf32>
	%205="ufront.add"(%198, %204):(tensor<1x64x49x64xf32>, tensor<1x64x49x64xf32>) -> tensor<1x64x49x64xf32>
	%206="ufront.call"(%205){addargs=[('arg2', -2), ('arg3', -3)], func=swapaxes}:(tensor<1x64x49x64xf32>) -> tensor<1x49x64x64xf32>
	%207="ufront.reshape"(%206){shape=[1, 7, 7, 8, 8, 64]}:(tensor<1x49x64x64xf32>) -> tensor<1x7x7x8x8x64xf32>
	%208="ufront.transpose"(%207){perms=[0, 5, 1, 3, 2, 4]}:(tensor<1x7x7x8x8x64xf32>) -> tensor<1x64x7x8x7x8xf32>
	%209="ufront.reshape"(%208){shape=[1, 64, 56, 56]}:(tensor<1x64x7x8x7x8xf32>) -> tensor<1x64x56x56xf32>
	%210="ufront.pool2d"(%209){kernel=[3, 3], pad=[1, 1], pool_type="POOL_AVG", stride=[2, 2]}:(tensor<1x64x56x56xf32>) -> tensor<1x64x28x28xf32>
	%211="ufront.conv2d"(%210){groups=1, kernel=[1, 1], pad=[0, 0], stride=[1, 1]}:(tensor<1x64x28x28xf32>) -> tensor<1x128x28x28xf32>
	%212="ufront.batchnorm"(%209){affine=true, eps=0.001, momentum=0.99, track_running_stats=true}:(tensor<1x64x56x56xf32>) -> tensor<1x64x56x56xf32>
	%213="ufront.conv2d"(%212){groups=1, kernel=[1, 1], pad=[0, 0], stride=[1, 1]}:(tensor<1x64x56x56xf32>) -> tensor<1x512x56x56xf32>
	%214="ufront.batchnorm"(%213){affine=true, eps=0.001, momentum=0.99, track_running_stats=true}:(tensor<1x512x56x56xf32>) -> tensor<1x512x56x56xf32>
	%215="ufront.gelu"(%214):(tensor<1x512x56x56xf32>) -> tensor<1x512x56x56xf32>
	%216="ufront.conv2d"(%215){groups=512, kernel=[3, 3], pad=[1, 1], stride=[2, 2]}:(tensor<1x512x56x56xf32>) -> tensor<1x512x28x28xf32>
	%217="ufront.batchnorm"(%216){affine=true, eps=0.001, momentum=0.99, track_running_stats=true}:(tensor<1x512x28x28xf32>) -> tensor<1x512x28x28xf32>
	%218="ufront.gelu"(%217):(tensor<1x512x28x28xf32>) -> tensor<1x512x28x28xf32>
	%219="ufront.pool2d"(%218){output_size=[1, 1], pool_type="POOL_ADAPTIVE"}:(tensor<1x512x28x28xf32>) -> tensor<1x512x1x1xf32>
	%220="ufront.conv2d"(%219){groups=1, kernel=[1, 1], pad=[0, 0], stride=[1, 1]}:(tensor<1x512x1x1xf32>) -> tensor<1x32x1x1xf32>
	%221="ufront.silu"(%220):(tensor<1x32x1x1xf32>) -> tensor<1x32x1x1xf32>
	%222="ufront.conv2d"(%221){groups=1, kernel=[1, 1], pad=[0, 0], stride=[1, 1]}:(tensor<1x32x1x1xf32>) -> tensor<1x512x1x1xf32>
	%223="ufront.sigmoid"(%222):(tensor<1x512x1x1xf32>) -> tensor<1x512x1x1xf32>
	%224="ufront.multiply"(%223, %218):(tensor<1x512x1x1xf32>, tensor<1x512x28x28xf32>) -> tensor<1x512x28x28xf32>
	%225="ufront.conv2d"(%224){groups=1, kernel=[1, 1], pad=[0, 0], stride=[1, 1]}:(tensor<1x512x28x28xf32>) -> tensor<1x128x28x28xf32>
	%226="ufront.call"(%225){addargs=[('p', 0.04), ('mode', 'row'), ('training', False)], func=stochastic_depth}:(tensor<1x128x28x28xf32>) -> tensor<1x128x28x28xf32>
	%227="ufront.add"(%211, %226):(tensor<1x128x28x28xf32>, tensor<1x128x28x28xf32>) -> tensor<1x128x28x28xf32>
	%228="ufront.reshape"(%227){shape=[1, 128, 4, 7, 4, 7]}:(tensor<1x128x28x28xf32>) -> tensor<1x128x4x7x4x7xf32>
	%229="ufront.transpose"(%228){perms=[0, 2, 4, 3, 5, 1]}:(tensor<1x128x4x7x4x7xf32>) -> tensor<1x4x4x7x7x128xf32>
	%230="ufront.reshape"(%229){shape=[1, 16, 49, 128]}:(tensor<1x4x4x7x7x128xf32>) -> tensor<1x16x49x128xf32>
	%231="ufront.identity"(%230):(tensor<1x16x49x128xf32>) -> tensor<1x16x49x128xf32>
	%232="ufront.layer_norm"(%231){elementwise_affine=true, eps=0.00001, normalized_shape=[128]}:(tensor<1x16x49x128xf32>) -> tensor<1x16x49x128xf32>
	%233="ufront.linear"(%232):(tensor<1x16x49x128xf32>) -> tensor<1x16x49x384xf32>
	(%234, %235, %236)="ufront.chunk"(%233){axis=-1, sizes=3}:(tensor<1x16x49x384xf32>) -> tensor<1x16x49x128xf32>, tensor<1x16x49x128xf32>, tensor<1x16x49x128xf32>
	%237="ufront.reshape"(%234){shape=[1, 16, 49, 4, 32]}:(tensor<1x16x49x128xf32>) -> tensor<1x16x49x4x32xf32>
	%238="ufront.transpose"(%237){perms=[0, 1, 3, 2, 4]}:(tensor<1x16x49x4x32xf32>) -> tensor<1x16x4x49x32xf32>
	%239="ufront.reshape"(%235){shape=[1, 16, 49, 4, 32]}:(tensor<1x16x49x128xf32>) -> tensor<1x16x49x4x32xf32>
	%240="ufront.transpose"(%239){perms=[0, 1, 3, 2, 4]}:(tensor<1x16x49x4x32xf32>) -> tensor<1x16x4x49x32xf32>
	%241="ufront.reshape"(%236){shape=[1, 16, 49, 4, 32]}:(tensor<1x16x49x128xf32>) -> tensor<1x16x49x4x32xf32>
	%242="ufront.transpose"(%241){perms=[0, 1, 3, 2, 4]}:(tensor<1x16x49x4x32xf32>) -> tensor<1x16x4x49x32xf32>
	%243="ufront.smultiply"(%240){scalar=0.08838834764831845}:(tensor<1x16x4x49x32xf32>) -> tensor<1x16x4x49x32xf32>
	%244="ufront.call"(%238, %243){addargs=[('arg1', 'B G H I D, B G H J D -> B G H I J')], func=einsum}:(tensor<1x16x4x49x32xf32>, tensor<1x16x4x49x32xf32>) -> tensor<1x16x4x49x49xf32>
	%245="ufront.parameter"(%245){dtype="Float", initializer="…", requires_grad=true}:(tensor<169x4xf32>) -> tensor<169x4xf32>
	%246="ufront.tensor"(%246){dtype="Int64", initializer="…", requires_grad=false}:(tensor<2401xf32>) -> tensor<2401xf32>
	%247="ufront.slice"(%245, %246){output_shape=[2401, 4]}:(tensor<169x4xf32>, tensor<2401xf32>) -> tensor<2401x4xf32>
	%248="ufront.reshape"(%247){shape=[49, 49, 4]}:(tensor<2401x4xf32>) -> tensor<49x49x4xf32>
	%249="ufront.transpose"(%248){perms=[2, 0, 1]}:(tensor<49x49x4xf32>) -> tensor<4x49x49xf32>
	%250="ufront.reshape"(%249){shape=[1, 4, 49, 49]}:(tensor<4x49x49xf32>) -> tensor<1x4x49x49xf32>
	%251="ufront.add"(%244, %250):(tensor<1x16x4x49x49xf32>, tensor<1x4x49x49xf32>) -> tensor<1x16x4x49x49xf32>
	%252="ufront.softmax"(%251):(tensor<1x16x4x49x49xf32>) -> tensor<1x16x4x49x49xf32>
	%253="ufront.call"(%252, %242){addargs=[('arg1', 'B G H I J, B G H J D -> B G H I D')], func=einsum}:(tensor<1x16x4x49x49xf32>, tensor<1x16x4x49x32xf32>) -> tensor<1x16x4x49x32xf32>
	%254="ufront.transpose"(%253){perms=[0, 1, 3, 2, 4]}:(tensor<1x16x4x49x32xf32>) -> tensor<1x16x49x4x32xf32>
	%255="ufront.reshape"(%254){shape=[1, 16, 49, 128]}:(tensor<1x16x49x4x32xf32>) -> tensor<1x16x49x128xf32>
	%256="ufront.linear"(%255):(tensor<1x16x49x128xf32>) -> tensor<1x16x49x128xf32>
	%257="ufront.dropout"(%256){rate=0.0, seed=0}:(tensor<1x16x49x128xf32>) -> tensor<1x16x49x128xf32>
	%258="ufront.call"(%257){addargs=[('p', 0.04), ('mode', 'row'), ('training', False)], func=stochastic_depth}:(tensor<1x16x49x128xf32>) -> tensor<1x16x49x128xf32>
	%259="ufront.add"(%231, %258):(tensor<1x16x49x128xf32>, tensor<1x16x49x128xf32>) -> tensor<1x16x49x128xf32>
	%260="ufront.layer_norm"(%259){elementwise_affine=true, eps=0.00001, normalized_shape=[128]}:(tensor<1x16x49x128xf32>) -> tensor<1x16x49x128xf32>
	%261="ufront.linear"(%260):(tensor<1x16x49x128xf32>) -> tensor<1x16x49x512xf32>
	%262="ufront.gelu"(%261):(tensor<1x16x49x512xf32>) -> tensor<1x16x49x512xf32>
	%263="ufront.linear"(%262):(tensor<1x16x49x512xf32>) -> tensor<1x16x49x128xf32>
	%264="ufront.dropout"(%263){rate=0.0, seed=0}:(tensor<1x16x49x128xf32>) -> tensor<1x16x49x128xf32>
	%265="ufront.call"(%264){addargs=[('p', 0.04), ('mode', 'row'), ('training', False)], func=stochastic_depth}:(tensor<1x16x49x128xf32>) -> tensor<1x16x49x128xf32>
	%266="ufront.add"(%259, %265):(tensor<1x16x49x128xf32>, tensor<1x16x49x128xf32>) -> tensor<1x16x49x128xf32>
	%267="ufront.identity"(%266):(tensor<1x16x49x128xf32>) -> tensor<1x16x49x128xf32>
	%268="ufront.reshape"(%267){shape=[1, 4, 4, 7, 7, 128]}:(tensor<1x16x49x128xf32>) -> tensor<1x4x4x7x7x128xf32>
	%269="ufront.transpose"(%268){perms=[0, 5, 1, 3, 2, 4]}:(tensor<1x4x4x7x7x128xf32>) -> tensor<1x128x4x7x4x7xf32>
	%270="ufront.reshape"(%269){shape=[1, 128, 28, 28]}:(tensor<1x128x4x7x4x7xf32>) -> tensor<1x128x28x28xf32>
	%271="ufront.reshape"(%270){shape=[1, 128, 7, 4, 7, 4]}:(tensor<1x128x28x28xf32>) -> tensor<1x128x7x4x7x4xf32>
	%272="ufront.transpose"(%271){perms=[0, 2, 4, 3, 5, 1]}:(tensor<1x128x7x4x7x4xf32>) -> tensor<1x7x7x4x4x128xf32>
	%273="ufront.reshape"(%272){shape=[1, 49, 16, 128]}:(tensor<1x7x7x4x4x128xf32>) -> tensor<1x49x16x128xf32>
	%274="ufront.call"(%273){addargs=[('arg2', -2), ('arg3', -3)], func=swapaxes}:(tensor<1x49x16x128xf32>) -> tensor<1x16x49x128xf32>
	%275="ufront.layer_norm"(%274){elementwise_affine=true, eps=0.00001, normalized_shape=[128]}:(tensor<1x16x49x128xf32>) -> tensor<1x16x49x128xf32>
	%276="ufront.linear"(%275):(tensor<1x16x49x128xf32>) -> tensor<1x16x49x384xf32>
	(%277, %278, %279)="ufront.chunk"(%276){axis=-1, sizes=3}:(tensor<1x16x49x384xf32>) -> tensor<1x16x49x128xf32>, tensor<1x16x49x128xf32>, tensor<1x16x49x128xf32>
	%280="ufront.reshape"(%277){shape=[1, 16, 49, 4, 32]}:(tensor<1x16x49x128xf32>) -> tensor<1x16x49x4x32xf32>
	%281="ufront.transpose"(%280){perms=[0, 1, 3, 2, 4]}:(tensor<1x16x49x4x32xf32>) -> tensor<1x16x4x49x32xf32>
	%282="ufront.reshape"(%278){shape=[1, 16, 49, 4, 32]}:(tensor<1x16x49x128xf32>) -> tensor<1x16x49x4x32xf32>
	%283="ufront.transpose"(%282){perms=[0, 1, 3, 2, 4]}:(tensor<1x16x49x4x32xf32>) -> tensor<1x16x4x49x32xf32>
	%284="ufront.reshape"(%279){shape=[1, 16, 49, 4, 32]}:(tensor<1x16x49x128xf32>) -> tensor<1x16x49x4x32xf32>
	%285="ufront.transpose"(%284){perms=[0, 1, 3, 2, 4]}:(tensor<1x16x49x4x32xf32>) -> tensor<1x16x4x49x32xf32>
	%286="ufront.smultiply"(%283){scalar=0.08838834764831845}:(tensor<1x16x4x49x32xf32>) -> tensor<1x16x4x49x32xf32>
	%287="ufront.call"(%281, %286){addargs=[('arg1', 'B G H I D, B G H J D -> B G H I J')], func=einsum}:(tensor<1x16x4x49x32xf32>, tensor<1x16x4x49x32xf32>) -> tensor<1x16x4x49x49xf32>
	%288="ufront.parameter"(%288){dtype="Float", initializer="…", requires_grad=true}:(tensor<169x4xf32>) -> tensor<169x4xf32>
	%289="ufront.tensor"(%289){dtype="Int64", initializer="…", requires_grad=false}:(tensor<2401xf32>) -> tensor<2401xf32>
	%290="ufront.slice"(%288, %289){output_shape=[2401, 4]}:(tensor<169x4xf32>, tensor<2401xf32>) -> tensor<2401x4xf32>
	%291="ufront.reshape"(%290){shape=[49, 49, 4]}:(tensor<2401x4xf32>) -> tensor<49x49x4xf32>
	%292="ufront.transpose"(%291){perms=[2, 0, 1]}:(tensor<49x49x4xf32>) -> tensor<4x49x49xf32>
	%293="ufront.reshape"(%292){shape=[1, 4, 49, 49]}:(tensor<4x49x49xf32>) -> tensor<1x4x49x49xf32>
	%294="ufront.add"(%287, %293):(tensor<1x16x4x49x49xf32>, tensor<1x4x49x49xf32>) -> tensor<1x16x4x49x49xf32>
	%295="ufront.softmax"(%294):(tensor<1x16x4x49x49xf32>) -> tensor<1x16x4x49x49xf32>
	%296="ufront.call"(%295, %285){addargs=[('arg1', 'B G H I J, B G H J D -> B G H I D')], func=einsum}:(tensor<1x16x4x49x49xf32>, tensor<1x16x4x49x32xf32>) -> tensor<1x16x4x49x32xf32>
	%297="ufront.transpose"(%296){perms=[0, 1, 3, 2, 4]}:(tensor<1x16x4x49x32xf32>) -> tensor<1x16x49x4x32xf32>
	%298="ufront.reshape"(%297){shape=[1, 16, 49, 128]}:(tensor<1x16x49x4x32xf32>) -> tensor<1x16x49x128xf32>
	%299="ufront.linear"(%298):(tensor<1x16x49x128xf32>) -> tensor<1x16x49x128xf32>
	%300="ufront.dropout"(%299){rate=0.0, seed=0}:(tensor<1x16x49x128xf32>) -> tensor<1x16x49x128xf32>
	%301="ufront.call"(%300){addargs=[('p', 0.04), ('mode', 'row'), ('training', False)], func=stochastic_depth}:(tensor<1x16x49x128xf32>) -> tensor<1x16x49x128xf32>
	%302="ufront.add"(%274, %301):(tensor<1x16x49x128xf32>, tensor<1x16x49x128xf32>) -> tensor<1x16x49x128xf32>
	%303="ufront.layer_norm"(%302){elementwise_affine=true, eps=0.00001, normalized_shape=[128]}:(tensor<1x16x49x128xf32>) -> tensor<1x16x49x128xf32>
	%304="ufront.linear"(%303):(tensor<1x16x49x128xf32>) -> tensor<1x16x49x512xf32>
	%305="ufront.gelu"(%304):(tensor<1x16x49x512xf32>) -> tensor<1x16x49x512xf32>
	%306="ufront.linear"(%305):(tensor<1x16x49x512xf32>) -> tensor<1x16x49x128xf32>
	%307="ufront.dropout"(%306){rate=0.0, seed=0}:(tensor<1x16x49x128xf32>) -> tensor<1x16x49x128xf32>
	%308="ufront.call"(%307){addargs=[('p', 0.04), ('mode', 'row'), ('training', False)], func=stochastic_depth}:(tensor<1x16x49x128xf32>) -> tensor<1x16x49x128xf32>
	%309="ufront.add"(%302, %308):(tensor<1x16x49x128xf32>, tensor<1x16x49x128xf32>) -> tensor<1x16x49x128xf32>
	%310="ufront.call"(%309){addargs=[('arg2', -2), ('arg3', -3)], func=swapaxes}:(tensor<1x16x49x128xf32>) -> tensor<1x49x16x128xf32>
	%311="ufront.reshape"(%310){shape=[1, 7, 7, 4, 4, 128]}:(tensor<1x49x16x128xf32>) -> tensor<1x7x7x4x4x128xf32>
	%312="ufront.transpose"(%311){perms=[0, 5, 1, 3, 2, 4]}:(tensor<1x7x7x4x4x128xf32>) -> tensor<1x128x7x4x7x4xf32>
	%313="ufront.reshape"(%312){shape=[1, 128, 28, 28]}:(tensor<1x128x7x4x7x4xf32>) -> tensor<1x128x28x28xf32>
	%314="ufront.identity"(%313):(tensor<1x128x28x28xf32>) -> tensor<1x128x28x28xf32>
	%315="ufront.batchnorm"(%313){affine=true, eps=0.001, momentum=0.99, track_running_stats=true}:(tensor<1x128x28x28xf32>) -> tensor<1x128x28x28xf32>
	%316="ufront.conv2d"(%315){groups=1, kernel=[1, 1], pad=[0, 0], stride=[1, 1]}:(tensor<1x128x28x28xf32>) -> tensor<1x512x28x28xf32>
	%317="ufront.batchnorm"(%316){affine=true, eps=0.001, momentum=0.99, track_running_stats=true}:(tensor<1x512x28x28xf32>) -> tensor<1x512x28x28xf32>
	%318="ufront.gelu"(%317):(tensor<1x512x28x28xf32>) -> tensor<1x512x28x28xf32>
	%319="ufront.conv2d"(%318){groups=512, kernel=[3, 3], pad=[1, 1], stride=[1, 1]}:(tensor<1x512x28x28xf32>) -> tensor<1x512x28x28xf32>
	%320="ufront.batchnorm"(%319){affine=true, eps=0.001, momentum=0.99, track_running_stats=true}:(tensor<1x512x28x28xf32>) -> tensor<1x512x28x28xf32>
	%321="ufront.gelu"(%320):(tensor<1x512x28x28xf32>) -> tensor<1x512x28x28xf32>
	%322="ufront.pool2d"(%321){output_size=[1, 1], pool_type="POOL_ADAPTIVE"}:(tensor<1x512x28x28xf32>) -> tensor<1x512x1x1xf32>
	%323="ufront.conv2d"(%322){groups=1, kernel=[1, 1], pad=[0, 0], stride=[1, 1]}:(tensor<1x512x1x1xf32>) -> tensor<1x32x1x1xf32>
	%324="ufront.silu"(%323):(tensor<1x32x1x1xf32>) -> tensor<1x32x1x1xf32>
	%325="ufront.conv2d"(%324){groups=1, kernel=[1, 1], pad=[0, 0], stride=[1, 1]}:(tensor<1x32x1x1xf32>) -> tensor<1x512x1x1xf32>
	%326="ufront.sigmoid"(%325):(tensor<1x512x1x1xf32>) -> tensor<1x512x1x1xf32>
	%327="ufront.multiply"(%326, %321):(tensor<1x512x1x1xf32>, tensor<1x512x28x28xf32>) -> tensor<1x512x28x28xf32>
	%328="ufront.conv2d"(%327){groups=1, kernel=[1, 1], pad=[0, 0], stride=[1, 1]}:(tensor<1x512x28x28xf32>) -> tensor<1x128x28x28xf32>
	%329="ufront.call"(%328){addargs=[('p', 0.06), ('mode', 'row'), ('training', False)], func=stochastic_depth}:(tensor<1x128x28x28xf32>) -> tensor<1x128x28x28xf32>
	%330="ufront.add"(%314, %329):(tensor<1x128x28x28xf32>, tensor<1x128x28x28xf32>) -> tensor<1x128x28x28xf32>
	%331="ufront.reshape"(%330){shape=[1, 128, 4, 7, 4, 7]}:(tensor<1x128x28x28xf32>) -> tensor<1x128x4x7x4x7xf32>
	%332="ufront.transpose"(%331){perms=[0, 2, 4, 3, 5, 1]}:(tensor<1x128x4x7x4x7xf32>) -> tensor<1x4x4x7x7x128xf32>
	%333="ufront.reshape"(%332){shape=[1, 16, 49, 128]}:(tensor<1x4x4x7x7x128xf32>) -> tensor<1x16x49x128xf32>
	%334="ufront.identity"(%333):(tensor<1x16x49x128xf32>) -> tensor<1x16x49x128xf32>
	%335="ufront.layer_norm"(%334){elementwise_affine=true, eps=0.00001, normalized_shape=[128]}:(tensor<1x16x49x128xf32>) -> tensor<1x16x49x128xf32>
	%336="ufront.linear"(%335):(tensor<1x16x49x128xf32>) -> tensor<1x16x49x384xf32>
	(%337, %338, %339)="ufront.chunk"(%336){axis=-1, sizes=3}:(tensor<1x16x49x384xf32>) -> tensor<1x16x49x128xf32>, tensor<1x16x49x128xf32>, tensor<1x16x49x128xf32>
	%340="ufront.reshape"(%337){shape=[1, 16, 49, 4, 32]}:(tensor<1x16x49x128xf32>) -> tensor<1x16x49x4x32xf32>
	%341="ufront.transpose"(%340){perms=[0, 1, 3, 2, 4]}:(tensor<1x16x49x4x32xf32>) -> tensor<1x16x4x49x32xf32>
	%342="ufront.reshape"(%338){shape=[1, 16, 49, 4, 32]}:(tensor<1x16x49x128xf32>) -> tensor<1x16x49x4x32xf32>
	%343="ufront.transpose"(%342){perms=[0, 1, 3, 2, 4]}:(tensor<1x16x49x4x32xf32>) -> tensor<1x16x4x49x32xf32>
	%344="ufront.reshape"(%339){shape=[1, 16, 49, 4, 32]}:(tensor<1x16x49x128xf32>) -> tensor<1x16x49x4x32xf32>
	%345="ufront.transpose"(%344){perms=[0, 1, 3, 2, 4]}:(tensor<1x16x49x4x32xf32>) -> tensor<1x16x4x49x32xf32>
	%346="ufront.smultiply"(%343){scalar=0.08838834764831845}:(tensor<1x16x4x49x32xf32>) -> tensor<1x16x4x49x32xf32>
	%347="ufront.call"(%341, %346){addargs=[('arg1', 'B G H I D, B G H J D -> B G H I J')], func=einsum}:(tensor<1x16x4x49x32xf32>, tensor<1x16x4x49x32xf32>) -> tensor<1x16x4x49x49xf32>
	%348="ufront.parameter"(%348){dtype="Float", initializer="…", requires_grad=true}:(tensor<169x4xf32>) -> tensor<169x4xf32>
	%349="ufront.tensor"(%349){dtype="Int64", initializer="…", requires_grad=false}:(tensor<2401xf32>) -> tensor<2401xf32>
	%350="ufront.slice"(%348, %349){output_shape=[2401, 4]}:(tensor<169x4xf32>, tensor<2401xf32>) -> tensor<2401x4xf32>
	%351="ufront.reshape"(%350){shape=[49, 49, 4]}:(tensor<2401x4xf32>) -> tensor<49x49x4xf32>
	%352="ufront.transpose"(%351){perms=[2, 0, 1]}:(tensor<49x49x4xf32>) -> tensor<4x49x49xf32>
	%353="ufront.reshape"(%352){shape=[1, 4, 49, 49]}:(tensor<4x49x49xf32>) -> tensor<1x4x49x49xf32>
	%354="ufront.add"(%347, %353):(tensor<1x16x4x49x49xf32>, tensor<1x4x49x49xf32>) -> tensor<1x16x4x49x49xf32>
	%355="ufront.softmax"(%354):(tensor<1x16x4x49x49xf32>) -> tensor<1x16x4x49x49xf32>
	%356="ufront.call"(%355, %345){addargs=[('arg1', 'B G H I J, B G H J D -> B G H I D')], func=einsum}:(tensor<1x16x4x49x49xf32>, tensor<1x16x4x49x32xf32>) -> tensor<1x16x4x49x32xf32>
	%357="ufront.transpose"(%356){perms=[0, 1, 3, 2, 4]}:(tensor<1x16x4x49x32xf32>) -> tensor<1x16x49x4x32xf32>
	%358="ufront.reshape"(%357){shape=[1, 16, 49, 128]}:(tensor<1x16x49x4x32xf32>) -> tensor<1x16x49x128xf32>
	%359="ufront.linear"(%358):(tensor<1x16x49x128xf32>) -> tensor<1x16x49x128xf32>
	%360="ufront.dropout"(%359){rate=0.0, seed=0}:(tensor<1x16x49x128xf32>) -> tensor<1x16x49x128xf32>
	%361="ufront.call"(%360){addargs=[('p', 0.06), ('mode', 'row'), ('training', False)], func=stochastic_depth}:(tensor<1x16x49x128xf32>) -> tensor<1x16x49x128xf32>
	%362="ufront.add"(%334, %361):(tensor<1x16x49x128xf32>, tensor<1x16x49x128xf32>) -> tensor<1x16x49x128xf32>
	%363="ufront.layer_norm"(%362){elementwise_affine=true, eps=0.00001, normalized_shape=[128]}:(tensor<1x16x49x128xf32>) -> tensor<1x16x49x128xf32>
	%364="ufront.linear"(%363):(tensor<1x16x49x128xf32>) -> tensor<1x16x49x512xf32>
	%365="ufront.gelu"(%364):(tensor<1x16x49x512xf32>) -> tensor<1x16x49x512xf32>
	%366="ufront.linear"(%365):(tensor<1x16x49x512xf32>) -> tensor<1x16x49x128xf32>
	%367="ufront.dropout"(%366){rate=0.0, seed=0}:(tensor<1x16x49x128xf32>) -> tensor<1x16x49x128xf32>
	%368="ufront.call"(%367){addargs=[('p', 0.06), ('mode', 'row'), ('training', False)], func=stochastic_depth}:(tensor<1x16x49x128xf32>) -> tensor<1x16x49x128xf32>
	%369="ufront.add"(%362, %368):(tensor<1x16x49x128xf32>, tensor<1x16x49x128xf32>) -> tensor<1x16x49x128xf32>
	%370="ufront.identity"(%369):(tensor<1x16x49x128xf32>) -> tensor<1x16x49x128xf32>
	%371="ufront.reshape"(%370){shape=[1, 4, 4, 7, 7, 128]}:(tensor<1x16x49x128xf32>) -> tensor<1x4x4x7x7x128xf32>
	%372="ufront.transpose"(%371){perms=[0, 5, 1, 3, 2, 4]}:(tensor<1x4x4x7x7x128xf32>) -> tensor<1x128x4x7x4x7xf32>
	%373="ufront.reshape"(%372){shape=[1, 128, 28, 28]}:(tensor<1x128x4x7x4x7xf32>) -> tensor<1x128x28x28xf32>
	%374="ufront.reshape"(%373){shape=[1, 128, 7, 4, 7, 4]}:(tensor<1x128x28x28xf32>) -> tensor<1x128x7x4x7x4xf32>
	%375="ufront.transpose"(%374){perms=[0, 2, 4, 3, 5, 1]}:(tensor<1x128x7x4x7x4xf32>) -> tensor<1x7x7x4x4x128xf32>
	%376="ufront.reshape"(%375){shape=[1, 49, 16, 128]}:(tensor<1x7x7x4x4x128xf32>) -> tensor<1x49x16x128xf32>
	%377="ufront.call"(%376){addargs=[('arg2', -2), ('arg3', -3)], func=swapaxes}:(tensor<1x49x16x128xf32>) -> tensor<1x16x49x128xf32>
	%378="ufront.layer_norm"(%377){elementwise_affine=true, eps=0.00001, normalized_shape=[128]}:(tensor<1x16x49x128xf32>) -> tensor<1x16x49x128xf32>
	%379="ufront.linear"(%378):(tensor<1x16x49x128xf32>) -> tensor<1x16x49x384xf32>
	(%380, %381, %382)="ufront.chunk"(%379){axis=-1, sizes=3}:(tensor<1x16x49x384xf32>) -> tensor<1x16x49x128xf32>, tensor<1x16x49x128xf32>, tensor<1x16x49x128xf32>
	%383="ufront.reshape"(%380){shape=[1, 16, 49, 4, 32]}:(tensor<1x16x49x128xf32>) -> tensor<1x16x49x4x32xf32>
	%384="ufront.transpose"(%383){perms=[0, 1, 3, 2, 4]}:(tensor<1x16x49x4x32xf32>) -> tensor<1x16x4x49x32xf32>
	%385="ufront.reshape"(%381){shape=[1, 16, 49, 4, 32]}:(tensor<1x16x49x128xf32>) -> tensor<1x16x49x4x32xf32>
	%386="ufront.transpose"(%385){perms=[0, 1, 3, 2, 4]}:(tensor<1x16x49x4x32xf32>) -> tensor<1x16x4x49x32xf32>
	%387="ufront.reshape"(%382){shape=[1, 16, 49, 4, 32]}:(tensor<1x16x49x128xf32>) -> tensor<1x16x49x4x32xf32>
	%388="ufront.transpose"(%387){perms=[0, 1, 3, 2, 4]}:(tensor<1x16x49x4x32xf32>) -> tensor<1x16x4x49x32xf32>
	%389="ufront.smultiply"(%386){scalar=0.08838834764831845}:(tensor<1x16x4x49x32xf32>) -> tensor<1x16x4x49x32xf32>
	%390="ufront.call"(%384, %389){addargs=[('arg1', 'B G H I D, B G H J D -> B G H I J')], func=einsum}:(tensor<1x16x4x49x32xf32>, tensor<1x16x4x49x32xf32>) -> tensor<1x16x4x49x49xf32>
	%391="ufront.parameter"(%391){dtype="Float", initializer="…", requires_grad=true}:(tensor<169x4xf32>) -> tensor<169x4xf32>
	%392="ufront.tensor"(%392){dtype="Int64", initializer="…", requires_grad=false}:(tensor<2401xf32>) -> tensor<2401xf32>
	%393="ufront.slice"(%391, %392){output_shape=[2401, 4]}:(tensor<169x4xf32>, tensor<2401xf32>) -> tensor<2401x4xf32>
	%394="ufront.reshape"(%393){shape=[49, 49, 4]}:(tensor<2401x4xf32>) -> tensor<49x49x4xf32>
	%395="ufront.transpose"(%394){perms=[2, 0, 1]}:(tensor<49x49x4xf32>) -> tensor<4x49x49xf32>
	%396="ufront.reshape"(%395){shape=[1, 4, 49, 49]}:(tensor<4x49x49xf32>) -> tensor<1x4x49x49xf32>
	%397="ufront.add"(%390, %396):(tensor<1x16x4x49x49xf32>, tensor<1x4x49x49xf32>) -> tensor<1x16x4x49x49xf32>
	%398="ufront.softmax"(%397):(tensor<1x16x4x49x49xf32>) -> tensor<1x16x4x49x49xf32>
	%399="ufront.call"(%398, %388){addargs=[('arg1', 'B G H I J, B G H J D -> B G H I D')], func=einsum}:(tensor<1x16x4x49x49xf32>, tensor<1x16x4x49x32xf32>) -> tensor<1x16x4x49x32xf32>
	%400="ufront.transpose"(%399){perms=[0, 1, 3, 2, 4]}:(tensor<1x16x4x49x32xf32>) -> tensor<1x16x49x4x32xf32>
	%401="ufront.reshape"(%400){shape=[1, 16, 49, 128]}:(tensor<1x16x49x4x32xf32>) -> tensor<1x16x49x128xf32>
	%402="ufront.linear"(%401):(tensor<1x16x49x128xf32>) -> tensor<1x16x49x128xf32>
	%403="ufront.dropout"(%402){rate=0.0, seed=0}:(tensor<1x16x49x128xf32>) -> tensor<1x16x49x128xf32>
	%404="ufront.call"(%403){addargs=[('p', 0.06), ('mode', 'row'), ('training', False)], func=stochastic_depth}:(tensor<1x16x49x128xf32>) -> tensor<1x16x49x128xf32>
	%405="ufront.add"(%377, %404):(tensor<1x16x49x128xf32>, tensor<1x16x49x128xf32>) -> tensor<1x16x49x128xf32>
	%406="ufront.layer_norm"(%405){elementwise_affine=true, eps=0.00001, normalized_shape=[128]}:(tensor<1x16x49x128xf32>) -> tensor<1x16x49x128xf32>
	%407="ufront.linear"(%406):(tensor<1x16x49x128xf32>) -> tensor<1x16x49x512xf32>
	%408="ufront.gelu"(%407):(tensor<1x16x49x512xf32>) -> tensor<1x16x49x512xf32>
	%409="ufront.linear"(%408):(tensor<1x16x49x512xf32>) -> tensor<1x16x49x128xf32>
	%410="ufront.dropout"(%409){rate=0.0, seed=0}:(tensor<1x16x49x128xf32>) -> tensor<1x16x49x128xf32>
	%411="ufront.call"(%410){addargs=[('p', 0.06), ('mode', 'row'), ('training', False)], func=stochastic_depth}:(tensor<1x16x49x128xf32>) -> tensor<1x16x49x128xf32>
	%412="ufront.add"(%405, %411):(tensor<1x16x49x128xf32>, tensor<1x16x49x128xf32>) -> tensor<1x16x49x128xf32>
	%413="ufront.call"(%412){addargs=[('arg2', -2), ('arg3', -3)], func=swapaxes}:(tensor<1x16x49x128xf32>) -> tensor<1x49x16x128xf32>
	%414="ufront.reshape"(%413){shape=[1, 7, 7, 4, 4, 128]}:(tensor<1x49x16x128xf32>) -> tensor<1x7x7x4x4x128xf32>
	%415="ufront.transpose"(%414){perms=[0, 5, 1, 3, 2, 4]}:(tensor<1x7x7x4x4x128xf32>) -> tensor<1x128x7x4x7x4xf32>
	%416="ufront.reshape"(%415){shape=[1, 128, 28, 28]}:(tensor<1x128x7x4x7x4xf32>) -> tensor<1x128x28x28xf32>
	%417="ufront.pool2d"(%416){kernel=[3, 3], pad=[1, 1], pool_type="POOL_AVG", stride=[2, 2]}:(tensor<1x128x28x28xf32>) -> tensor<1x128x14x14xf32>
	%418="ufront.conv2d"(%417){groups=1, kernel=[1, 1], pad=[0, 0], stride=[1, 1]}:(tensor<1x128x14x14xf32>) -> tensor<1x256x14x14xf32>
	%419="ufront.batchnorm"(%416){affine=true, eps=0.001, momentum=0.99, track_running_stats=true}:(tensor<1x128x28x28xf32>) -> tensor<1x128x28x28xf32>
	%420="ufront.conv2d"(%419){groups=1, kernel=[1, 1], pad=[0, 0], stride=[1, 1]}:(tensor<1x128x28x28xf32>) -> tensor<1x1024x28x28xf32>
	%421="ufront.batchnorm"(%420){affine=true, eps=0.001, momentum=0.99, track_running_stats=true}:(tensor<1x1024x28x28xf32>) -> tensor<1x1024x28x28xf32>
	%422="ufront.gelu"(%421):(tensor<1x1024x28x28xf32>) -> tensor<1x1024x28x28xf32>
	%423="ufront.conv2d"(%422){groups=1024, kernel=[3, 3], pad=[1, 1], stride=[2, 2]}:(tensor<1x1024x28x28xf32>) -> tensor<1x1024x14x14xf32>
	%424="ufront.batchnorm"(%423){affine=true, eps=0.001, momentum=0.99, track_running_stats=true}:(tensor<1x1024x14x14xf32>) -> tensor<1x1024x14x14xf32>
	%425="ufront.gelu"(%424):(tensor<1x1024x14x14xf32>) -> tensor<1x1024x14x14xf32>
	%426="ufront.pool2d"(%425){output_size=[1, 1], pool_type="POOL_ADAPTIVE"}:(tensor<1x1024x14x14xf32>) -> tensor<1x1024x1x1xf32>
	%427="ufront.conv2d"(%426){groups=1, kernel=[1, 1], pad=[0, 0], stride=[1, 1]}:(tensor<1x1024x1x1xf32>) -> tensor<1x64x1x1xf32>
	%428="ufront.silu"(%427):(tensor<1x64x1x1xf32>) -> tensor<1x64x1x1xf32>
	%429="ufront.conv2d"(%428){groups=1, kernel=[1, 1], pad=[0, 0], stride=[1, 1]}:(tensor<1x64x1x1xf32>) -> tensor<1x1024x1x1xf32>
	%430="ufront.sigmoid"(%429):(tensor<1x1024x1x1xf32>) -> tensor<1x1024x1x1xf32>
	%431="ufront.multiply"(%430, %425):(tensor<1x1024x1x1xf32>, tensor<1x1024x14x14xf32>) -> tensor<1x1024x14x14xf32>
	%432="ufront.conv2d"(%431){groups=1, kernel=[1, 1], pad=[0, 0], stride=[1, 1]}:(tensor<1x1024x14x14xf32>) -> tensor<1x256x14x14xf32>
	%433="ufront.call"(%432){addargs=[('p', 0.08), ('mode', 'row'), ('training', False)], func=stochastic_depth}:(tensor<1x256x14x14xf32>) -> tensor<1x256x14x14xf32>
	%434="ufront.add"(%418, %433):(tensor<1x256x14x14xf32>, tensor<1x256x14x14xf32>) -> tensor<1x256x14x14xf32>
	%435="ufront.reshape"(%434){shape=[1, 256, 2, 7, 2, 7]}:(tensor<1x256x14x14xf32>) -> tensor<1x256x2x7x2x7xf32>
	%436="ufront.transpose"(%435){perms=[0, 2, 4, 3, 5, 1]}:(tensor<1x256x2x7x2x7xf32>) -> tensor<1x2x2x7x7x256xf32>
	%437="ufront.reshape"(%436){shape=[1, 4, 49, 256]}:(tensor<1x2x2x7x7x256xf32>) -> tensor<1x4x49x256xf32>
	%438="ufront.identity"(%437):(tensor<1x4x49x256xf32>) -> tensor<1x4x49x256xf32>
	%439="ufront.layer_norm"(%438){elementwise_affine=true, eps=0.00001, normalized_shape=[256]}:(tensor<1x4x49x256xf32>) -> tensor<1x4x49x256xf32>
	%440="ufront.linear"(%439):(tensor<1x4x49x256xf32>) -> tensor<1x4x49x768xf32>
	(%441, %442, %443)="ufront.chunk"(%440){axis=-1, sizes=3}:(tensor<1x4x49x768xf32>) -> tensor<1x4x49x256xf32>, tensor<1x4x49x256xf32>, tensor<1x4x49x256xf32>
	%444="ufront.reshape"(%441){shape=[1, 4, 49, 8, 32]}:(tensor<1x4x49x256xf32>) -> tensor<1x4x49x8x32xf32>
	%445="ufront.transpose"(%444){perms=[0, 1, 3, 2, 4]}:(tensor<1x4x49x8x32xf32>) -> tensor<1x4x8x49x32xf32>
	%446="ufront.reshape"(%442){shape=[1, 4, 49, 8, 32]}:(tensor<1x4x49x256xf32>) -> tensor<1x4x49x8x32xf32>
	%447="ufront.transpose"(%446){perms=[0, 1, 3, 2, 4]}:(tensor<1x4x49x8x32xf32>) -> tensor<1x4x8x49x32xf32>
	%448="ufront.reshape"(%443){shape=[1, 4, 49, 8, 32]}:(tensor<1x4x49x256xf32>) -> tensor<1x4x49x8x32xf32>
	%449="ufront.transpose"(%448){perms=[0, 1, 3, 2, 4]}:(tensor<1x4x49x8x32xf32>) -> tensor<1x4x8x49x32xf32>
	%450="ufront.smultiply"(%447){scalar=0.0625}:(tensor<1x4x8x49x32xf32>) -> tensor<1x4x8x49x32xf32>
	%451="ufront.call"(%445, %450){addargs=[('arg1', 'B G H I D, B G H J D -> B G H I J')], func=einsum}:(tensor<1x4x8x49x32xf32>, tensor<1x4x8x49x32xf32>) -> tensor<1x4x8x49x49xf32>
	%452="ufront.parameter"(%452){dtype="Float", initializer="…", requires_grad=true}:(tensor<169x8xf32>) -> tensor<169x8xf32>
	%453="ufront.tensor"(%453){dtype="Int64", initializer="…", requires_grad=false}:(tensor<2401xf32>) -> tensor<2401xf32>
	%454="ufront.slice"(%452, %453){output_shape=[2401, 8]}:(tensor<169x8xf32>, tensor<2401xf32>) -> tensor<2401x8xf32>
	%455="ufront.reshape"(%454){shape=[49, 49, 8]}:(tensor<2401x8xf32>) -> tensor<49x49x8xf32>
	%456="ufront.transpose"(%455){perms=[2, 0, 1]}:(tensor<49x49x8xf32>) -> tensor<8x49x49xf32>
	%457="ufront.reshape"(%456){shape=[1, 8, 49, 49]}:(tensor<8x49x49xf32>) -> tensor<1x8x49x49xf32>
	%458="ufront.add"(%451, %457):(tensor<1x4x8x49x49xf32>, tensor<1x8x49x49xf32>) -> tensor<1x4x8x49x49xf32>
	%459="ufront.softmax"(%458):(tensor<1x4x8x49x49xf32>) -> tensor<1x4x8x49x49xf32>
	%460="ufront.call"(%459, %449){addargs=[('arg1', 'B G H I J, B G H J D -> B G H I D')], func=einsum}:(tensor<1x4x8x49x49xf32>, tensor<1x4x8x49x32xf32>) -> tensor<1x4x8x49x32xf32>
	%461="ufront.transpose"(%460){perms=[0, 1, 3, 2, 4]}:(tensor<1x4x8x49x32xf32>) -> tensor<1x4x49x8x32xf32>
	%462="ufront.reshape"(%461){shape=[1, 4, 49, 256]}:(tensor<1x4x49x8x32xf32>) -> tensor<1x4x49x256xf32>
	%463="ufront.linear"(%462):(tensor<1x4x49x256xf32>) -> tensor<1x4x49x256xf32>
	%464="ufront.dropout"(%463){rate=0.0, seed=0}:(tensor<1x4x49x256xf32>) -> tensor<1x4x49x256xf32>
	%465="ufront.call"(%464){addargs=[('p', 0.08), ('mode', 'row'), ('training', False)], func=stochastic_depth}:(tensor<1x4x49x256xf32>) -> tensor<1x4x49x256xf32>
	%466="ufront.add"(%438, %465):(tensor<1x4x49x256xf32>, tensor<1x4x49x256xf32>) -> tensor<1x4x49x256xf32>
	%467="ufront.layer_norm"(%466){elementwise_affine=true, eps=0.00001, normalized_shape=[256]}:(tensor<1x4x49x256xf32>) -> tensor<1x4x49x256xf32>
	%468="ufront.linear"(%467):(tensor<1x4x49x256xf32>) -> tensor<1x4x49x1024xf32>
	%469="ufront.gelu"(%468):(tensor<1x4x49x1024xf32>) -> tensor<1x4x49x1024xf32>
	%470="ufront.linear"(%469):(tensor<1x4x49x1024xf32>) -> tensor<1x4x49x256xf32>
	%471="ufront.dropout"(%470){rate=0.0, seed=0}:(tensor<1x4x49x256xf32>) -> tensor<1x4x49x256xf32>
	%472="ufront.call"(%471){addargs=[('p', 0.08), ('mode', 'row'), ('training', False)], func=stochastic_depth}:(tensor<1x4x49x256xf32>) -> tensor<1x4x49x256xf32>
	%473="ufront.add"(%466, %472):(tensor<1x4x49x256xf32>, tensor<1x4x49x256xf32>) -> tensor<1x4x49x256xf32>
	%474="ufront.identity"(%473):(tensor<1x4x49x256xf32>) -> tensor<1x4x49x256xf32>
	%475="ufront.reshape"(%474){shape=[1, 2, 2, 7, 7, 256]}:(tensor<1x4x49x256xf32>) -> tensor<1x2x2x7x7x256xf32>
	%476="ufront.transpose"(%475){perms=[0, 5, 1, 3, 2, 4]}:(tensor<1x2x2x7x7x256xf32>) -> tensor<1x256x2x7x2x7xf32>
	%477="ufront.reshape"(%476){shape=[1, 256, 14, 14]}:(tensor<1x256x2x7x2x7xf32>) -> tensor<1x256x14x14xf32>
	%478="ufront.reshape"(%477){shape=[1, 256, 7, 2, 7, 2]}:(tensor<1x256x14x14xf32>) -> tensor<1x256x7x2x7x2xf32>
	%479="ufront.transpose"(%478){perms=[0, 2, 4, 3, 5, 1]}:(tensor<1x256x7x2x7x2xf32>) -> tensor<1x7x7x2x2x256xf32>
	%480="ufront.reshape"(%479){shape=[1, 49, 4, 256]}:(tensor<1x7x7x2x2x256xf32>) -> tensor<1x49x4x256xf32>
	%481="ufront.call"(%480){addargs=[('arg2', -2), ('arg3', -3)], func=swapaxes}:(tensor<1x49x4x256xf32>) -> tensor<1x4x49x256xf32>
	%482="ufront.layer_norm"(%481){elementwise_affine=true, eps=0.00001, normalized_shape=[256]}:(tensor<1x4x49x256xf32>) -> tensor<1x4x49x256xf32>
	%483="ufront.linear"(%482):(tensor<1x4x49x256xf32>) -> tensor<1x4x49x768xf32>
	(%484, %485, %486)="ufront.chunk"(%483){axis=-1, sizes=3}:(tensor<1x4x49x768xf32>) -> tensor<1x4x49x256xf32>, tensor<1x4x49x256xf32>, tensor<1x4x49x256xf32>
	%487="ufront.reshape"(%484){shape=[1, 4, 49, 8, 32]}:(tensor<1x4x49x256xf32>) -> tensor<1x4x49x8x32xf32>
	%488="ufront.transpose"(%487){perms=[0, 1, 3, 2, 4]}:(tensor<1x4x49x8x32xf32>) -> tensor<1x4x8x49x32xf32>
	%489="ufront.reshape"(%485){shape=[1, 4, 49, 8, 32]}:(tensor<1x4x49x256xf32>) -> tensor<1x4x49x8x32xf32>
	%490="ufront.transpose"(%489){perms=[0, 1, 3, 2, 4]}:(tensor<1x4x49x8x32xf32>) -> tensor<1x4x8x49x32xf32>
	%491="ufront.reshape"(%486){shape=[1, 4, 49, 8, 32]}:(tensor<1x4x49x256xf32>) -> tensor<1x4x49x8x32xf32>
	%492="ufront.transpose"(%491){perms=[0, 1, 3, 2, 4]}:(tensor<1x4x49x8x32xf32>) -> tensor<1x4x8x49x32xf32>
	%493="ufront.smultiply"(%490){scalar=0.0625}:(tensor<1x4x8x49x32xf32>) -> tensor<1x4x8x49x32xf32>
	%494="ufront.call"(%488, %493){addargs=[('arg1', 'B G H I D, B G H J D -> B G H I J')], func=einsum}:(tensor<1x4x8x49x32xf32>, tensor<1x4x8x49x32xf32>) -> tensor<1x4x8x49x49xf32>
	%495="ufront.parameter"(%495){dtype="Float", initializer="…", requires_grad=true}:(tensor<169x8xf32>) -> tensor<169x8xf32>
	%496="ufront.tensor"(%496){dtype="Int64", initializer="…", requires_grad=false}:(tensor<2401xf32>) -> tensor<2401xf32>
	%497="ufront.slice"(%495, %496){output_shape=[2401, 8]}:(tensor<169x8xf32>, tensor<2401xf32>) -> tensor<2401x8xf32>
	%498="ufront.reshape"(%497){shape=[49, 49, 8]}:(tensor<2401x8xf32>) -> tensor<49x49x8xf32>
	%499="ufront.transpose"(%498){perms=[2, 0, 1]}:(tensor<49x49x8xf32>) -> tensor<8x49x49xf32>
	%500="ufront.reshape"(%499){shape=[1, 8, 49, 49]}:(tensor<8x49x49xf32>) -> tensor<1x8x49x49xf32>
	%501="ufront.add"(%494, %500):(tensor<1x4x8x49x49xf32>, tensor<1x8x49x49xf32>) -> tensor<1x4x8x49x49xf32>
	%502="ufront.softmax"(%501):(tensor<1x4x8x49x49xf32>) -> tensor<1x4x8x49x49xf32>
	%503="ufront.call"(%502, %492){addargs=[('arg1', 'B G H I J, B G H J D -> B G H I D')], func=einsum}:(tensor<1x4x8x49x49xf32>, tensor<1x4x8x49x32xf32>) -> tensor<1x4x8x49x32xf32>
	%504="ufront.transpose"(%503){perms=[0, 1, 3, 2, 4]}:(tensor<1x4x8x49x32xf32>) -> tensor<1x4x49x8x32xf32>
	%505="ufront.reshape"(%504){shape=[1, 4, 49, 256]}:(tensor<1x4x49x8x32xf32>) -> tensor<1x4x49x256xf32>
	%506="ufront.linear"(%505):(tensor<1x4x49x256xf32>) -> tensor<1x4x49x256xf32>
	%507="ufront.dropout"(%506){rate=0.0, seed=0}:(tensor<1x4x49x256xf32>) -> tensor<1x4x49x256xf32>
	%508="ufront.call"(%507){addargs=[('p', 0.08), ('mode', 'row'), ('training', False)], func=stochastic_depth}:(tensor<1x4x49x256xf32>) -> tensor<1x4x49x256xf32>
	%509="ufront.add"(%481, %508):(tensor<1x4x49x256xf32>, tensor<1x4x49x256xf32>) -> tensor<1x4x49x256xf32>
	%510="ufront.layer_norm"(%509){elementwise_affine=true, eps=0.00001, normalized_shape=[256]}:(tensor<1x4x49x256xf32>) -> tensor<1x4x49x256xf32>
	%511="ufront.linear"(%510):(tensor<1x4x49x256xf32>) -> tensor<1x4x49x1024xf32>
	%512="ufront.gelu"(%511):(tensor<1x4x49x1024xf32>) -> tensor<1x4x49x1024xf32>
	%513="ufront.linear"(%512):(tensor<1x4x49x1024xf32>) -> tensor<1x4x49x256xf32>
	%514="ufront.dropout"(%513){rate=0.0, seed=0}:(tensor<1x4x49x256xf32>) -> tensor<1x4x49x256xf32>
	%515="ufront.call"(%514){addargs=[('p', 0.08), ('mode', 'row'), ('training', False)], func=stochastic_depth}:(tensor<1x4x49x256xf32>) -> tensor<1x4x49x256xf32>
	%516="ufront.add"(%509, %515):(tensor<1x4x49x256xf32>, tensor<1x4x49x256xf32>) -> tensor<1x4x49x256xf32>
	%517="ufront.call"(%516){addargs=[('arg2', -2), ('arg3', -3)], func=swapaxes}:(tensor<1x4x49x256xf32>) -> tensor<1x49x4x256xf32>
	%518="ufront.reshape"(%517){shape=[1, 7, 7, 2, 2, 256]}:(tensor<1x49x4x256xf32>) -> tensor<1x7x7x2x2x256xf32>
	%519="ufront.transpose"(%518){perms=[0, 5, 1, 3, 2, 4]}:(tensor<1x7x7x2x2x256xf32>) -> tensor<1x256x7x2x7x2xf32>
	%520="ufront.reshape"(%519){shape=[1, 256, 14, 14]}:(tensor<1x256x7x2x7x2xf32>) -> tensor<1x256x14x14xf32>
	%521="ufront.identity"(%520):(tensor<1x256x14x14xf32>) -> tensor<1x256x14x14xf32>
	%522="ufront.batchnorm"(%520){affine=true, eps=0.001, momentum=0.99, track_running_stats=true}:(tensor<1x256x14x14xf32>) -> tensor<1x256x14x14xf32>
	%523="ufront.conv2d"(%522){groups=1, kernel=[1, 1], pad=[0, 0], stride=[1, 1]}:(tensor<1x256x14x14xf32>) -> tensor<1x1024x14x14xf32>
	%524="ufront.batchnorm"(%523){affine=true, eps=0.001, momentum=0.99, track_running_stats=true}:(tensor<1x1024x14x14xf32>) -> tensor<1x1024x14x14xf32>
	%525="ufront.gelu"(%524):(tensor<1x1024x14x14xf32>) -> tensor<1x1024x14x14xf32>
	%526="ufront.conv2d"(%525){groups=1024, kernel=[3, 3], pad=[1, 1], stride=[1, 1]}:(tensor<1x1024x14x14xf32>) -> tensor<1x1024x14x14xf32>
	%527="ufront.batchnorm"(%526){affine=true, eps=0.001, momentum=0.99, track_running_stats=true}:(tensor<1x1024x14x14xf32>) -> tensor<1x1024x14x14xf32>
	%528="ufront.gelu"(%527):(tensor<1x1024x14x14xf32>) -> tensor<1x1024x14x14xf32>
	%529="ufront.pool2d"(%528){output_size=[1, 1], pool_type="POOL_ADAPTIVE"}:(tensor<1x1024x14x14xf32>) -> tensor<1x1024x1x1xf32>
	%530="ufront.conv2d"(%529){groups=1, kernel=[1, 1], pad=[0, 0], stride=[1, 1]}:(tensor<1x1024x1x1xf32>) -> tensor<1x64x1x1xf32>
	%531="ufront.silu"(%530):(tensor<1x64x1x1xf32>) -> tensor<1x64x1x1xf32>
	%532="ufront.conv2d"(%531){groups=1, kernel=[1, 1], pad=[0, 0], stride=[1, 1]}:(tensor<1x64x1x1xf32>) -> tensor<1x1024x1x1xf32>
	%533="ufront.sigmoid"(%532):(tensor<1x1024x1x1xf32>) -> tensor<1x1024x1x1xf32>
	%534="ufront.multiply"(%533, %528):(tensor<1x1024x1x1xf32>, tensor<1x1024x14x14xf32>) -> tensor<1x1024x14x14xf32>
	%535="ufront.conv2d"(%534){groups=1, kernel=[1, 1], pad=[0, 0], stride=[1, 1]}:(tensor<1x1024x14x14xf32>) -> tensor<1x256x14x14xf32>
	%536="ufront.call"(%535){addargs=[('p', 0.1), ('mode', 'row'), ('training', False)], func=stochastic_depth}:(tensor<1x256x14x14xf32>) -> tensor<1x256x14x14xf32>
	%537="ufront.add"(%521, %536):(tensor<1x256x14x14xf32>, tensor<1x256x14x14xf32>) -> tensor<1x256x14x14xf32>
	%538="ufront.reshape"(%537){shape=[1, 256, 2, 7, 2, 7]}:(tensor<1x256x14x14xf32>) -> tensor<1x256x2x7x2x7xf32>
	%539="ufront.transpose"(%538){perms=[0, 2, 4, 3, 5, 1]}:(tensor<1x256x2x7x2x7xf32>) -> tensor<1x2x2x7x7x256xf32>
	%540="ufront.reshape"(%539){shape=[1, 4, 49, 256]}:(tensor<1x2x2x7x7x256xf32>) -> tensor<1x4x49x256xf32>
	%541="ufront.identity"(%540):(tensor<1x4x49x256xf32>) -> tensor<1x4x49x256xf32>
	%542="ufront.layer_norm"(%541){elementwise_affine=true, eps=0.00001, normalized_shape=[256]}:(tensor<1x4x49x256xf32>) -> tensor<1x4x49x256xf32>
	%543="ufront.linear"(%542):(tensor<1x4x49x256xf32>) -> tensor<1x4x49x768xf32>
	(%544, %545, %546)="ufront.chunk"(%543){axis=-1, sizes=3}:(tensor<1x4x49x768xf32>) -> tensor<1x4x49x256xf32>, tensor<1x4x49x256xf32>, tensor<1x4x49x256xf32>
	%547="ufront.reshape"(%544){shape=[1, 4, 49, 8, 32]}:(tensor<1x4x49x256xf32>) -> tensor<1x4x49x8x32xf32>
	%548="ufront.transpose"(%547){perms=[0, 1, 3, 2, 4]}:(tensor<1x4x49x8x32xf32>) -> tensor<1x4x8x49x32xf32>
	%549="ufront.reshape"(%545){shape=[1, 4, 49, 8, 32]}:(tensor<1x4x49x256xf32>) -> tensor<1x4x49x8x32xf32>
	%550="ufront.transpose"(%549){perms=[0, 1, 3, 2, 4]}:(tensor<1x4x49x8x32xf32>) -> tensor<1x4x8x49x32xf32>
	%551="ufront.reshape"(%546){shape=[1, 4, 49, 8, 32]}:(tensor<1x4x49x256xf32>) -> tensor<1x4x49x8x32xf32>
	%552="ufront.transpose"(%551){perms=[0, 1, 3, 2, 4]}:(tensor<1x4x49x8x32xf32>) -> tensor<1x4x8x49x32xf32>
	%553="ufront.smultiply"(%550){scalar=0.0625}:(tensor<1x4x8x49x32xf32>) -> tensor<1x4x8x49x32xf32>
	%554="ufront.call"(%548, %553){addargs=[('arg1', 'B G H I D, B G H J D -> B G H I J')], func=einsum}:(tensor<1x4x8x49x32xf32>, tensor<1x4x8x49x32xf32>) -> tensor<1x4x8x49x49xf32>
	%555="ufront.parameter"(%555){dtype="Float", initializer="…", requires_grad=true}:(tensor<169x8xf32>) -> tensor<169x8xf32>
	%556="ufront.tensor"(%556){dtype="Int64", initializer="…", requires_grad=false}:(tensor<2401xf32>) -> tensor<2401xf32>
	%557="ufront.slice"(%555, %556){output_shape=[2401, 8]}:(tensor<169x8xf32>, tensor<2401xf32>) -> tensor<2401x8xf32>
	%558="ufront.reshape"(%557){shape=[49, 49, 8]}:(tensor<2401x8xf32>) -> tensor<49x49x8xf32>
	%559="ufront.transpose"(%558){perms=[2, 0, 1]}:(tensor<49x49x8xf32>) -> tensor<8x49x49xf32>
	%560="ufront.reshape"(%559){shape=[1, 8, 49, 49]}:(tensor<8x49x49xf32>) -> tensor<1x8x49x49xf32>
	%561="ufront.add"(%554, %560):(tensor<1x4x8x49x49xf32>, tensor<1x8x49x49xf32>) -> tensor<1x4x8x49x49xf32>
	%562="ufront.softmax"(%561):(tensor<1x4x8x49x49xf32>) -> tensor<1x4x8x49x49xf32>
	%563="ufront.call"(%562, %552){addargs=[('arg1', 'B G H I J, B G H J D -> B G H I D')], func=einsum}:(tensor<1x4x8x49x49xf32>, tensor<1x4x8x49x32xf32>) -> tensor<1x4x8x49x32xf32>
	%564="ufront.transpose"(%563){perms=[0, 1, 3, 2, 4]}:(tensor<1x4x8x49x32xf32>) -> tensor<1x4x49x8x32xf32>
	%565="ufront.reshape"(%564){shape=[1, 4, 49, 256]}:(tensor<1x4x49x8x32xf32>) -> tensor<1x4x49x256xf32>
	%566="ufront.linear"(%565):(tensor<1x4x49x256xf32>) -> tensor<1x4x49x256xf32>
	%567="ufront.dropout"(%566){rate=0.0, seed=0}:(tensor<1x4x49x256xf32>) -> tensor<1x4x49x256xf32>
	%568="ufront.call"(%567){addargs=[('p', 0.1), ('mode', 'row'), ('training', False)], func=stochastic_depth}:(tensor<1x4x49x256xf32>) -> tensor<1x4x49x256xf32>
	%569="ufront.add"(%541, %568):(tensor<1x4x49x256xf32>, tensor<1x4x49x256xf32>) -> tensor<1x4x49x256xf32>
	%570="ufront.layer_norm"(%569){elementwise_affine=true, eps=0.00001, normalized_shape=[256]}:(tensor<1x4x49x256xf32>) -> tensor<1x4x49x256xf32>
	%571="ufront.linear"(%570):(tensor<1x4x49x256xf32>) -> tensor<1x4x49x1024xf32>
	%572="ufront.gelu"(%571):(tensor<1x4x49x1024xf32>) -> tensor<1x4x49x1024xf32>
	%573="ufront.linear"(%572):(tensor<1x4x49x1024xf32>) -> tensor<1x4x49x256xf32>
	%574="ufront.dropout"(%573){rate=0.0, seed=0}:(tensor<1x4x49x256xf32>) -> tensor<1x4x49x256xf32>
	%575="ufront.call"(%574){addargs=[('p', 0.1), ('mode', 'row'), ('training', False)], func=stochastic_depth}:(tensor<1x4x49x256xf32>) -> tensor<1x4x49x256xf32>
	%576="ufront.add"(%569, %575):(tensor<1x4x49x256xf32>, tensor<1x4x49x256xf32>) -> tensor<1x4x49x256xf32>
	%577="ufront.identity"(%576):(tensor<1x4x49x256xf32>) -> tensor<1x4x49x256xf32>
	%578="ufront.reshape"(%577){shape=[1, 2, 2, 7, 7, 256]}:(tensor<1x4x49x256xf32>) -> tensor<1x2x2x7x7x256xf32>
	%579="ufront.transpose"(%578){perms=[0, 5, 1, 3, 2, 4]}:(tensor<1x2x2x7x7x256xf32>) -> tensor<1x256x2x7x2x7xf32>
	%580="ufront.reshape"(%579){shape=[1, 256, 14, 14]}:(tensor<1x256x2x7x2x7xf32>) -> tensor<1x256x14x14xf32>
	%581="ufront.reshape"(%580){shape=[1, 256, 7, 2, 7, 2]}:(tensor<1x256x14x14xf32>) -> tensor<1x256x7x2x7x2xf32>
	%582="ufront.transpose"(%581){perms=[0, 2, 4, 3, 5, 1]}:(tensor<1x256x7x2x7x2xf32>) -> tensor<1x7x7x2x2x256xf32>
	%583="ufront.reshape"(%582){shape=[1, 49, 4, 256]}:(tensor<1x7x7x2x2x256xf32>) -> tensor<1x49x4x256xf32>
	%584="ufront.call"(%583){addargs=[('arg2', -2), ('arg3', -3)], func=swapaxes}:(tensor<1x49x4x256xf32>) -> tensor<1x4x49x256xf32>
	%585="ufront.layer_norm"(%584){elementwise_affine=true, eps=0.00001, normalized_shape=[256]}:(tensor<1x4x49x256xf32>) -> tensor<1x4x49x256xf32>
	%586="ufront.linear"(%585):(tensor<1x4x49x256xf32>) -> tensor<1x4x49x768xf32>
	(%587, %588, %589)="ufront.chunk"(%586){axis=-1, sizes=3}:(tensor<1x4x49x768xf32>) -> tensor<1x4x49x256xf32>, tensor<1x4x49x256xf32>, tensor<1x4x49x256xf32>
	%590="ufront.reshape"(%587){shape=[1, 4, 49, 8, 32]}:(tensor<1x4x49x256xf32>) -> tensor<1x4x49x8x32xf32>
	%591="ufront.transpose"(%590){perms=[0, 1, 3, 2, 4]}:(tensor<1x4x49x8x32xf32>) -> tensor<1x4x8x49x32xf32>
	%592="ufront.reshape"(%588){shape=[1, 4, 49, 8, 32]}:(tensor<1x4x49x256xf32>) -> tensor<1x4x49x8x32xf32>
	%593="ufront.transpose"(%592){perms=[0, 1, 3, 2, 4]}:(tensor<1x4x49x8x32xf32>) -> tensor<1x4x8x49x32xf32>
	%594="ufront.reshape"(%589){shape=[1, 4, 49, 8, 32]}:(tensor<1x4x49x256xf32>) -> tensor<1x4x49x8x32xf32>
	%595="ufront.transpose"(%594){perms=[0, 1, 3, 2, 4]}:(tensor<1x4x49x8x32xf32>) -> tensor<1x4x8x49x32xf32>
	%596="ufront.smultiply"(%593){scalar=0.0625}:(tensor<1x4x8x49x32xf32>) -> tensor<1x4x8x49x32xf32>
	%597="ufront.call"(%591, %596){addargs=[('arg1', 'B G H I D, B G H J D -> B G H I J')], func=einsum}:(tensor<1x4x8x49x32xf32>, tensor<1x4x8x49x32xf32>) -> tensor<1x4x8x49x49xf32>
	%598="ufront.parameter"(%598){dtype="Float", initializer="…", requires_grad=true}:(tensor<169x8xf32>) -> tensor<169x8xf32>
	%599="ufront.tensor"(%599){dtype="Int64", initializer="…", requires_grad=false}:(tensor<2401xf32>) -> tensor<2401xf32>
	%600="ufront.slice"(%598, %599){output_shape=[2401, 8]}:(tensor<169x8xf32>, tensor<2401xf32>) -> tensor<2401x8xf32>
	%601="ufront.reshape"(%600){shape=[49, 49, 8]}:(tensor<2401x8xf32>) -> tensor<49x49x8xf32>
	%602="ufront.transpose"(%601){perms=[2, 0, 1]}:(tensor<49x49x8xf32>) -> tensor<8x49x49xf32>
	%603="ufront.reshape"(%602){shape=[1, 8, 49, 49]}:(tensor<8x49x49xf32>) -> tensor<1x8x49x49xf32>
	%604="ufront.add"(%597, %603):(tensor<1x4x8x49x49xf32>, tensor<1x8x49x49xf32>) -> tensor<1x4x8x49x49xf32>
	%605="ufront.softmax"(%604):(tensor<1x4x8x49x49xf32>) -> tensor<1x4x8x49x49xf32>
	%606="ufront.call"(%605, %595){addargs=[('arg1', 'B G H I J, B G H J D -> B G H I D')], func=einsum}:(tensor<1x4x8x49x49xf32>, tensor<1x4x8x49x32xf32>) -> tensor<1x4x8x49x32xf32>
	%607="ufront.transpose"(%606){perms=[0, 1, 3, 2, 4]}:(tensor<1x4x8x49x32xf32>) -> tensor<1x4x49x8x32xf32>
	%608="ufront.reshape"(%607){shape=[1, 4, 49, 256]}:(tensor<1x4x49x8x32xf32>) -> tensor<1x4x49x256xf32>
	%609="ufront.linear"(%608):(tensor<1x4x49x256xf32>) -> tensor<1x4x49x256xf32>
	%610="ufront.dropout"(%609){rate=0.0, seed=0}:(tensor<1x4x49x256xf32>) -> tensor<1x4x49x256xf32>
	%611="ufront.call"(%610){addargs=[('p', 0.1), ('mode', 'row'), ('training', False)], func=stochastic_depth}:(tensor<1x4x49x256xf32>) -> tensor<1x4x49x256xf32>
	%612="ufront.add"(%584, %611):(tensor<1x4x49x256xf32>, tensor<1x4x49x256xf32>) -> tensor<1x4x49x256xf32>
	%613="ufront.layer_norm"(%612){elementwise_affine=true, eps=0.00001, normalized_shape=[256]}:(tensor<1x4x49x256xf32>) -> tensor<1x4x49x256xf32>
	%614="ufront.linear"(%613):(tensor<1x4x49x256xf32>) -> tensor<1x4x49x1024xf32>
	%615="ufront.gelu"(%614):(tensor<1x4x49x1024xf32>) -> tensor<1x4x49x1024xf32>
	%616="ufront.linear"(%615):(tensor<1x4x49x1024xf32>) -> tensor<1x4x49x256xf32>
	%617="ufront.dropout"(%616){rate=0.0, seed=0}:(tensor<1x4x49x256xf32>) -> tensor<1x4x49x256xf32>
	%618="ufront.call"(%617){addargs=[('p', 0.1), ('mode', 'row'), ('training', False)], func=stochastic_depth}:(tensor<1x4x49x256xf32>) -> tensor<1x4x49x256xf32>
	%619="ufront.add"(%612, %618):(tensor<1x4x49x256xf32>, tensor<1x4x49x256xf32>) -> tensor<1x4x49x256xf32>
	%620="ufront.call"(%619){addargs=[('arg2', -2), ('arg3', -3)], func=swapaxes}:(tensor<1x4x49x256xf32>) -> tensor<1x49x4x256xf32>
	%621="ufront.reshape"(%620){shape=[1, 7, 7, 2, 2, 256]}:(tensor<1x49x4x256xf32>) -> tensor<1x7x7x2x2x256xf32>
	%622="ufront.transpose"(%621){perms=[0, 5, 1, 3, 2, 4]}:(tensor<1x7x7x2x2x256xf32>) -> tensor<1x256x7x2x7x2xf32>
	%623="ufront.reshape"(%622){shape=[1, 256, 14, 14]}:(tensor<1x256x7x2x7x2xf32>) -> tensor<1x256x14x14xf32>
	%624="ufront.identity"(%623):(tensor<1x256x14x14xf32>) -> tensor<1x256x14x14xf32>
	%625="ufront.batchnorm"(%623){affine=true, eps=0.001, momentum=0.99, track_running_stats=true}:(tensor<1x256x14x14xf32>) -> tensor<1x256x14x14xf32>
	%626="ufront.conv2d"(%625){groups=1, kernel=[1, 1], pad=[0, 0], stride=[1, 1]}:(tensor<1x256x14x14xf32>) -> tensor<1x1024x14x14xf32>
	%627="ufront.batchnorm"(%626){affine=true, eps=0.001, momentum=0.99, track_running_stats=true}:(tensor<1x1024x14x14xf32>) -> tensor<1x1024x14x14xf32>
	%628="ufront.gelu"(%627):(tensor<1x1024x14x14xf32>) -> tensor<1x1024x14x14xf32>
	%629="ufront.conv2d"(%628){groups=1024, kernel=[3, 3], pad=[1, 1], stride=[1, 1]}:(tensor<1x1024x14x14xf32>) -> tensor<1x1024x14x14xf32>
	%630="ufront.batchnorm"(%629){affine=true, eps=0.001, momentum=0.99, track_running_stats=true}:(tensor<1x1024x14x14xf32>) -> tensor<1x1024x14x14xf32>
	%631="ufront.gelu"(%630):(tensor<1x1024x14x14xf32>) -> tensor<1x1024x14x14xf32>
	%632="ufront.pool2d"(%631){output_size=[1, 1], pool_type="POOL_ADAPTIVE"}:(tensor<1x1024x14x14xf32>) -> tensor<1x1024x1x1xf32>
	%633="ufront.conv2d"(%632){groups=1, kernel=[1, 1], pad=[0, 0], stride=[1, 1]}:(tensor<1x1024x1x1xf32>) -> tensor<1x64x1x1xf32>
	%634="ufront.silu"(%633):(tensor<1x64x1x1xf32>) -> tensor<1x64x1x1xf32>
	%635="ufront.conv2d"(%634){groups=1, kernel=[1, 1], pad=[0, 0], stride=[1, 1]}:(tensor<1x64x1x1xf32>) -> tensor<1x1024x1x1xf32>
	%636="ufront.sigmoid"(%635):(tensor<1x1024x1x1xf32>) -> tensor<1x1024x1x1xf32>
	%637="ufront.multiply"(%636, %631):(tensor<1x1024x1x1xf32>, tensor<1x1024x14x14xf32>) -> tensor<1x1024x14x14xf32>
	%638="ufront.conv2d"(%637){groups=1, kernel=[1, 1], pad=[0, 0], stride=[1, 1]}:(tensor<1x1024x14x14xf32>) -> tensor<1x256x14x14xf32>
	%639="ufront.call"(%638){addargs=[('p', 0.12), ('mode', 'row'), ('training', False)], func=stochastic_depth}:(tensor<1x256x14x14xf32>) -> tensor<1x256x14x14xf32>
	%640="ufront.add"(%624, %639):(tensor<1x256x14x14xf32>, tensor<1x256x14x14xf32>) -> tensor<1x256x14x14xf32>
	%641="ufront.reshape"(%640){shape=[1, 256, 2, 7, 2, 7]}:(tensor<1x256x14x14xf32>) -> tensor<1x256x2x7x2x7xf32>
	%642="ufront.transpose"(%641){perms=[0, 2, 4, 3, 5, 1]}:(tensor<1x256x2x7x2x7xf32>) -> tensor<1x2x2x7x7x256xf32>
	%643="ufront.reshape"(%642){shape=[1, 4, 49, 256]}:(tensor<1x2x2x7x7x256xf32>) -> tensor<1x4x49x256xf32>
	%644="ufront.identity"(%643):(tensor<1x4x49x256xf32>) -> tensor<1x4x49x256xf32>
	%645="ufront.layer_norm"(%644){elementwise_affine=true, eps=0.00001, normalized_shape=[256]}:(tensor<1x4x49x256xf32>) -> tensor<1x4x49x256xf32>
	%646="ufront.linear"(%645):(tensor<1x4x49x256xf32>) -> tensor<1x4x49x768xf32>
	(%647, %648, %649)="ufront.chunk"(%646){axis=-1, sizes=3}:(tensor<1x4x49x768xf32>) -> tensor<1x4x49x256xf32>, tensor<1x4x49x256xf32>, tensor<1x4x49x256xf32>
	%650="ufront.reshape"(%647){shape=[1, 4, 49, 8, 32]}:(tensor<1x4x49x256xf32>) -> tensor<1x4x49x8x32xf32>
	%651="ufront.transpose"(%650){perms=[0, 1, 3, 2, 4]}:(tensor<1x4x49x8x32xf32>) -> tensor<1x4x8x49x32xf32>
	%652="ufront.reshape"(%648){shape=[1, 4, 49, 8, 32]}:(tensor<1x4x49x256xf32>) -> tensor<1x4x49x8x32xf32>
	%653="ufront.transpose"(%652){perms=[0, 1, 3, 2, 4]}:(tensor<1x4x49x8x32xf32>) -> tensor<1x4x8x49x32xf32>
	%654="ufront.reshape"(%649){shape=[1, 4, 49, 8, 32]}:(tensor<1x4x49x256xf32>) -> tensor<1x4x49x8x32xf32>
	%655="ufront.transpose"(%654){perms=[0, 1, 3, 2, 4]}:(tensor<1x4x49x8x32xf32>) -> tensor<1x4x8x49x32xf32>
	%656="ufront.smultiply"(%653){scalar=0.0625}:(tensor<1x4x8x49x32xf32>) -> tensor<1x4x8x49x32xf32>
	%657="ufront.call"(%651, %656){addargs=[('arg1', 'B G H I D, B G H J D -> B G H I J')], func=einsum}:(tensor<1x4x8x49x32xf32>, tensor<1x4x8x49x32xf32>) -> tensor<1x4x8x49x49xf32>
	%658="ufront.parameter"(%658){dtype="Float", initializer="…", requires_grad=true}:(tensor<169x8xf32>) -> tensor<169x8xf32>
	%659="ufront.tensor"(%659){dtype="Int64", initializer="…", requires_grad=false}:(tensor<2401xf32>) -> tensor<2401xf32>
	%660="ufront.slice"(%658, %659){output_shape=[2401, 8]}:(tensor<169x8xf32>, tensor<2401xf32>) -> tensor<2401x8xf32>
	%661="ufront.reshape"(%660){shape=[49, 49, 8]}:(tensor<2401x8xf32>) -> tensor<49x49x8xf32>
	%662="ufront.transpose"(%661){perms=[2, 0, 1]}:(tensor<49x49x8xf32>) -> tensor<8x49x49xf32>
	%663="ufront.reshape"(%662){shape=[1, 8, 49, 49]}:(tensor<8x49x49xf32>) -> tensor<1x8x49x49xf32>
	%664="ufront.add"(%657, %663):(tensor<1x4x8x49x49xf32>, tensor<1x8x49x49xf32>) -> tensor<1x4x8x49x49xf32>
	%665="ufront.softmax"(%664):(tensor<1x4x8x49x49xf32>) -> tensor<1x4x8x49x49xf32>
	%666="ufront.call"(%665, %655){addargs=[('arg1', 'B G H I J, B G H J D -> B G H I D')], func=einsum}:(tensor<1x4x8x49x49xf32>, tensor<1x4x8x49x32xf32>) -> tensor<1x4x8x49x32xf32>
	%667="ufront.transpose"(%666){perms=[0, 1, 3, 2, 4]}:(tensor<1x4x8x49x32xf32>) -> tensor<1x4x49x8x32xf32>
	%668="ufront.reshape"(%667){shape=[1, 4, 49, 256]}:(tensor<1x4x49x8x32xf32>) -> tensor<1x4x49x256xf32>
	%669="ufront.linear"(%668):(tensor<1x4x49x256xf32>) -> tensor<1x4x49x256xf32>
	%670="ufront.dropout"(%669){rate=0.0, seed=0}:(tensor<1x4x49x256xf32>) -> tensor<1x4x49x256xf32>
	%671="ufront.call"(%670){addargs=[('p', 0.12), ('mode', 'row'), ('training', False)], func=stochastic_depth}:(tensor<1x4x49x256xf32>) -> tensor<1x4x49x256xf32>
	%672="ufront.add"(%644, %671):(tensor<1x4x49x256xf32>, tensor<1x4x49x256xf32>) -> tensor<1x4x49x256xf32>
	%673="ufront.layer_norm"(%672){elementwise_affine=true, eps=0.00001, normalized_shape=[256]}:(tensor<1x4x49x256xf32>) -> tensor<1x4x49x256xf32>
	%674="ufront.linear"(%673):(tensor<1x4x49x256xf32>) -> tensor<1x4x49x1024xf32>
	%675="ufront.gelu"(%674):(tensor<1x4x49x1024xf32>) -> tensor<1x4x49x1024xf32>
	%676="ufront.linear"(%675):(tensor<1x4x49x1024xf32>) -> tensor<1x4x49x256xf32>
	%677="ufront.dropout"(%676){rate=0.0, seed=0}:(tensor<1x4x49x256xf32>) -> tensor<1x4x49x256xf32>
	%678="ufront.call"(%677){addargs=[('p', 0.12), ('mode', 'row'), ('training', False)], func=stochastic_depth}:(tensor<1x4x49x256xf32>) -> tensor<1x4x49x256xf32>
	%679="ufront.add"(%672, %678):(tensor<1x4x49x256xf32>, tensor<1x4x49x256xf32>) -> tensor<1x4x49x256xf32>
	%680="ufront.identity"(%679):(tensor<1x4x49x256xf32>) -> tensor<1x4x49x256xf32>
	%681="ufront.reshape"(%680){shape=[1, 2, 2, 7, 7, 256]}:(tensor<1x4x49x256xf32>) -> tensor<1x2x2x7x7x256xf32>
	%682="ufront.transpose"(%681){perms=[0, 5, 1, 3, 2, 4]}:(tensor<1x2x2x7x7x256xf32>) -> tensor<1x256x2x7x2x7xf32>
	%683="ufront.reshape"(%682){shape=[1, 256, 14, 14]}:(tensor<1x256x2x7x2x7xf32>) -> tensor<1x256x14x14xf32>
	%684="ufront.reshape"(%683){shape=[1, 256, 7, 2, 7, 2]}:(tensor<1x256x14x14xf32>) -> tensor<1x256x7x2x7x2xf32>
	%685="ufront.transpose"(%684){perms=[0, 2, 4, 3, 5, 1]}:(tensor<1x256x7x2x7x2xf32>) -> tensor<1x7x7x2x2x256xf32>
	%686="ufront.reshape"(%685){shape=[1, 49, 4, 256]}:(tensor<1x7x7x2x2x256xf32>) -> tensor<1x49x4x256xf32>
	%687="ufront.call"(%686){addargs=[('arg2', -2), ('arg3', -3)], func=swapaxes}:(tensor<1x49x4x256xf32>) -> tensor<1x4x49x256xf32>
	%688="ufront.layer_norm"(%687){elementwise_affine=true, eps=0.00001, normalized_shape=[256]}:(tensor<1x4x49x256xf32>) -> tensor<1x4x49x256xf32>
	%689="ufront.linear"(%688):(tensor<1x4x49x256xf32>) -> tensor<1x4x49x768xf32>
	(%690, %691, %692)="ufront.chunk"(%689){axis=-1, sizes=3}:(tensor<1x4x49x768xf32>) -> tensor<1x4x49x256xf32>, tensor<1x4x49x256xf32>, tensor<1x4x49x256xf32>
	%693="ufront.reshape"(%690){shape=[1, 4, 49, 8, 32]}:(tensor<1x4x49x256xf32>) -> tensor<1x4x49x8x32xf32>
	%694="ufront.transpose"(%693){perms=[0, 1, 3, 2, 4]}:(tensor<1x4x49x8x32xf32>) -> tensor<1x4x8x49x32xf32>
	%695="ufront.reshape"(%691){shape=[1, 4, 49, 8, 32]}:(tensor<1x4x49x256xf32>) -> tensor<1x4x49x8x32xf32>
	%696="ufront.transpose"(%695){perms=[0, 1, 3, 2, 4]}:(tensor<1x4x49x8x32xf32>) -> tensor<1x4x8x49x32xf32>
	%697="ufront.reshape"(%692){shape=[1, 4, 49, 8, 32]}:(tensor<1x4x49x256xf32>) -> tensor<1x4x49x8x32xf32>
	%698="ufront.transpose"(%697){perms=[0, 1, 3, 2, 4]}:(tensor<1x4x49x8x32xf32>) -> tensor<1x4x8x49x32xf32>
	%699="ufront.smultiply"(%696){scalar=0.0625}:(tensor<1x4x8x49x32xf32>) -> tensor<1x4x8x49x32xf32>
	%700="ufront.call"(%694, %699){addargs=[('arg1', 'B G H I D, B G H J D -> B G H I J')], func=einsum}:(tensor<1x4x8x49x32xf32>, tensor<1x4x8x49x32xf32>) -> tensor<1x4x8x49x49xf32>
	%701="ufront.parameter"(%701){dtype="Float", initializer="…", requires_grad=true}:(tensor<169x8xf32>) -> tensor<169x8xf32>
	%702="ufront.tensor"(%702){dtype="Int64", initializer="…", requires_grad=false}:(tensor<2401xf32>) -> tensor<2401xf32>
	%703="ufront.slice"(%701, %702){output_shape=[2401, 8]}:(tensor<169x8xf32>, tensor<2401xf32>) -> tensor<2401x8xf32>
	%704="ufront.reshape"(%703){shape=[49, 49, 8]}:(tensor<2401x8xf32>) -> tensor<49x49x8xf32>
	%705="ufront.transpose"(%704){perms=[2, 0, 1]}:(tensor<49x49x8xf32>) -> tensor<8x49x49xf32>
	%706="ufront.reshape"(%705){shape=[1, 8, 49, 49]}:(tensor<8x49x49xf32>) -> tensor<1x8x49x49xf32>
	%707="ufront.add"(%700, %706):(tensor<1x4x8x49x49xf32>, tensor<1x8x49x49xf32>) -> tensor<1x4x8x49x49xf32>
	%708="ufront.softmax"(%707):(tensor<1x4x8x49x49xf32>) -> tensor<1x4x8x49x49xf32>
	%709="ufront.call"(%708, %698){addargs=[('arg1', 'B G H I J, B G H J D -> B G H I D')], func=einsum}:(tensor<1x4x8x49x49xf32>, tensor<1x4x8x49x32xf32>) -> tensor<1x4x8x49x32xf32>
	%710="ufront.transpose"(%709){perms=[0, 1, 3, 2, 4]}:(tensor<1x4x8x49x32xf32>) -> tensor<1x4x49x8x32xf32>
	%711="ufront.reshape"(%710){shape=[1, 4, 49, 256]}:(tensor<1x4x49x8x32xf32>) -> tensor<1x4x49x256xf32>
	%712="ufront.linear"(%711):(tensor<1x4x49x256xf32>) -> tensor<1x4x49x256xf32>
	%713="ufront.dropout"(%712){rate=0.0, seed=0}:(tensor<1x4x49x256xf32>) -> tensor<1x4x49x256xf32>
	%714="ufront.call"(%713){addargs=[('p', 0.12), ('mode', 'row'), ('training', False)], func=stochastic_depth}:(tensor<1x4x49x256xf32>) -> tensor<1x4x49x256xf32>
	%715="ufront.add"(%687, %714):(tensor<1x4x49x256xf32>, tensor<1x4x49x256xf32>) -> tensor<1x4x49x256xf32>
	%716="ufront.layer_norm"(%715){elementwise_affine=true, eps=0.00001, normalized_shape=[256]}:(tensor<1x4x49x256xf32>) -> tensor<1x4x49x256xf32>
	%717="ufront.linear"(%716):(tensor<1x4x49x256xf32>) -> tensor<1x4x49x1024xf32>
	%718="ufront.gelu"(%717):(tensor<1x4x49x1024xf32>) -> tensor<1x4x49x1024xf32>
	%719="ufront.linear"(%718):(tensor<1x4x49x1024xf32>) -> tensor<1x4x49x256xf32>
	%720="ufront.dropout"(%719){rate=0.0, seed=0}:(tensor<1x4x49x256xf32>) -> tensor<1x4x49x256xf32>
	%721="ufront.call"(%720){addargs=[('p', 0.12), ('mode', 'row'), ('training', False)], func=stochastic_depth}:(tensor<1x4x49x256xf32>) -> tensor<1x4x49x256xf32>
	%722="ufront.add"(%715, %721):(tensor<1x4x49x256xf32>, tensor<1x4x49x256xf32>) -> tensor<1x4x49x256xf32>
	%723="ufront.call"(%722){addargs=[('arg2', -2), ('arg3', -3)], func=swapaxes}:(tensor<1x4x49x256xf32>) -> tensor<1x49x4x256xf32>
	%724="ufront.reshape"(%723){shape=[1, 7, 7, 2, 2, 256]}:(tensor<1x49x4x256xf32>) -> tensor<1x7x7x2x2x256xf32>
	%725="ufront.transpose"(%724){perms=[0, 5, 1, 3, 2, 4]}:(tensor<1x7x7x2x2x256xf32>) -> tensor<1x256x7x2x7x2xf32>
	%726="ufront.reshape"(%725){shape=[1, 256, 14, 14]}:(tensor<1x256x7x2x7x2xf32>) -> tensor<1x256x14x14xf32>
	%727="ufront.identity"(%726):(tensor<1x256x14x14xf32>) -> tensor<1x256x14x14xf32>
	%728="ufront.batchnorm"(%726){affine=true, eps=0.001, momentum=0.99, track_running_stats=true}:(tensor<1x256x14x14xf32>) -> tensor<1x256x14x14xf32>
	%729="ufront.conv2d"(%728){groups=1, kernel=[1, 1], pad=[0, 0], stride=[1, 1]}:(tensor<1x256x14x14xf32>) -> tensor<1x1024x14x14xf32>
	%730="ufront.batchnorm"(%729){affine=true, eps=0.001, momentum=0.99, track_running_stats=true}:(tensor<1x1024x14x14xf32>) -> tensor<1x1024x14x14xf32>
	%731="ufront.gelu"(%730):(tensor<1x1024x14x14xf32>) -> tensor<1x1024x14x14xf32>
	%732="ufront.conv2d"(%731){groups=1024, kernel=[3, 3], pad=[1, 1], stride=[1, 1]}:(tensor<1x1024x14x14xf32>) -> tensor<1x1024x14x14xf32>
	%733="ufront.batchnorm"(%732){affine=true, eps=0.001, momentum=0.99, track_running_stats=true}:(tensor<1x1024x14x14xf32>) -> tensor<1x1024x14x14xf32>
	%734="ufront.gelu"(%733):(tensor<1x1024x14x14xf32>) -> tensor<1x1024x14x14xf32>
	%735="ufront.pool2d"(%734){output_size=[1, 1], pool_type="POOL_ADAPTIVE"}:(tensor<1x1024x14x14xf32>) -> tensor<1x1024x1x1xf32>
	%736="ufront.conv2d"(%735){groups=1, kernel=[1, 1], pad=[0, 0], stride=[1, 1]}:(tensor<1x1024x1x1xf32>) -> tensor<1x64x1x1xf32>
	%737="ufront.silu"(%736):(tensor<1x64x1x1xf32>) -> tensor<1x64x1x1xf32>
	%738="ufront.conv2d"(%737){groups=1, kernel=[1, 1], pad=[0, 0], stride=[1, 1]}:(tensor<1x64x1x1xf32>) -> tensor<1x1024x1x1xf32>
	%739="ufront.sigmoid"(%738):(tensor<1x1024x1x1xf32>) -> tensor<1x1024x1x1xf32>
	%740="ufront.multiply"(%739, %734):(tensor<1x1024x1x1xf32>, tensor<1x1024x14x14xf32>) -> tensor<1x1024x14x14xf32>
	%741="ufront.conv2d"(%740){groups=1, kernel=[1, 1], pad=[0, 0], stride=[1, 1]}:(tensor<1x1024x14x14xf32>) -> tensor<1x256x14x14xf32>
	%742="ufront.call"(%741){addargs=[('p', 0.14), ('mode', 'row'), ('training', False)], func=stochastic_depth}:(tensor<1x256x14x14xf32>) -> tensor<1x256x14x14xf32>
	%743="ufront.add"(%727, %742):(tensor<1x256x14x14xf32>, tensor<1x256x14x14xf32>) -> tensor<1x256x14x14xf32>
	%744="ufront.reshape"(%743){shape=[1, 256, 2, 7, 2, 7]}:(tensor<1x256x14x14xf32>) -> tensor<1x256x2x7x2x7xf32>
	%745="ufront.transpose"(%744){perms=[0, 2, 4, 3, 5, 1]}:(tensor<1x256x2x7x2x7xf32>) -> tensor<1x2x2x7x7x256xf32>
	%746="ufront.reshape"(%745){shape=[1, 4, 49, 256]}:(tensor<1x2x2x7x7x256xf32>) -> tensor<1x4x49x256xf32>
	%747="ufront.identity"(%746):(tensor<1x4x49x256xf32>) -> tensor<1x4x49x256xf32>
	%748="ufront.layer_norm"(%747){elementwise_affine=true, eps=0.00001, normalized_shape=[256]}:(tensor<1x4x49x256xf32>) -> tensor<1x4x49x256xf32>
	%749="ufront.linear"(%748):(tensor<1x4x49x256xf32>) -> tensor<1x4x49x768xf32>
	(%750, %751, %752)="ufront.chunk"(%749){axis=-1, sizes=3}:(tensor<1x4x49x768xf32>) -> tensor<1x4x49x256xf32>, tensor<1x4x49x256xf32>, tensor<1x4x49x256xf32>
	%753="ufront.reshape"(%750){shape=[1, 4, 49, 8, 32]}:(tensor<1x4x49x256xf32>) -> tensor<1x4x49x8x32xf32>
	%754="ufront.transpose"(%753){perms=[0, 1, 3, 2, 4]}:(tensor<1x4x49x8x32xf32>) -> tensor<1x4x8x49x32xf32>
	%755="ufront.reshape"(%751){shape=[1, 4, 49, 8, 32]}:(tensor<1x4x49x256xf32>) -> tensor<1x4x49x8x32xf32>
	%756="ufront.transpose"(%755){perms=[0, 1, 3, 2, 4]}:(tensor<1x4x49x8x32xf32>) -> tensor<1x4x8x49x32xf32>
	%757="ufront.reshape"(%752){shape=[1, 4, 49, 8, 32]}:(tensor<1x4x49x256xf32>) -> tensor<1x4x49x8x32xf32>
	%758="ufront.transpose"(%757){perms=[0, 1, 3, 2, 4]}:(tensor<1x4x49x8x32xf32>) -> tensor<1x4x8x49x32xf32>
	%759="ufront.smultiply"(%756){scalar=0.0625}:(tensor<1x4x8x49x32xf32>) -> tensor<1x4x8x49x32xf32>
	%760="ufront.call"(%754, %759){addargs=[('arg1', 'B G H I D, B G H J D -> B G H I J')], func=einsum}:(tensor<1x4x8x49x32xf32>, tensor<1x4x8x49x32xf32>) -> tensor<1x4x8x49x49xf32>
	%761="ufront.parameter"(%761){dtype="Float", initializer="…", requires_grad=true}:(tensor<169x8xf32>) -> tensor<169x8xf32>
	%762="ufront.tensor"(%762){dtype="Int64", initializer="…", requires_grad=false}:(tensor<2401xf32>) -> tensor<2401xf32>
	%763="ufront.slice"(%761, %762){output_shape=[2401, 8]}:(tensor<169x8xf32>, tensor<2401xf32>) -> tensor<2401x8xf32>
	%764="ufront.reshape"(%763){shape=[49, 49, 8]}:(tensor<2401x8xf32>) -> tensor<49x49x8xf32>
	%765="ufront.transpose"(%764){perms=[2, 0, 1]}:(tensor<49x49x8xf32>) -> tensor<8x49x49xf32>
	%766="ufront.reshape"(%765){shape=[1, 8, 49, 49]}:(tensor<8x49x49xf32>) -> tensor<1x8x49x49xf32>
	%767="ufront.add"(%760, %766):(tensor<1x4x8x49x49xf32>, tensor<1x8x49x49xf32>) -> tensor<1x4x8x49x49xf32>
	%768="ufront.softmax"(%767):(tensor<1x4x8x49x49xf32>) -> tensor<1x4x8x49x49xf32>
	%769="ufront.call"(%768, %758){addargs=[('arg1', 'B G H I J, B G H J D -> B G H I D')], func=einsum}:(tensor<1x4x8x49x49xf32>, tensor<1x4x8x49x32xf32>) -> tensor<1x4x8x49x32xf32>
	%770="ufront.transpose"(%769){perms=[0, 1, 3, 2, 4]}:(tensor<1x4x8x49x32xf32>) -> tensor<1x4x49x8x32xf32>
	%771="ufront.reshape"(%770){shape=[1, 4, 49, 256]}:(tensor<1x4x49x8x32xf32>) -> tensor<1x4x49x256xf32>
	%772="ufront.linear"(%771):(tensor<1x4x49x256xf32>) -> tensor<1x4x49x256xf32>
	%773="ufront.dropout"(%772){rate=0.0, seed=0}:(tensor<1x4x49x256xf32>) -> tensor<1x4x49x256xf32>
	%774="ufront.call"(%773){addargs=[('p', 0.14), ('mode', 'row'), ('training', False)], func=stochastic_depth}:(tensor<1x4x49x256xf32>) -> tensor<1x4x49x256xf32>
	%775="ufront.add"(%747, %774):(tensor<1x4x49x256xf32>, tensor<1x4x49x256xf32>) -> tensor<1x4x49x256xf32>
	%776="ufront.layer_norm"(%775){elementwise_affine=true, eps=0.00001, normalized_shape=[256]}:(tensor<1x4x49x256xf32>) -> tensor<1x4x49x256xf32>
	%777="ufront.linear"(%776):(tensor<1x4x49x256xf32>) -> tensor<1x4x49x1024xf32>
	%778="ufront.gelu"(%777):(tensor<1x4x49x1024xf32>) -> tensor<1x4x49x1024xf32>
	%779="ufront.linear"(%778):(tensor<1x4x49x1024xf32>) -> tensor<1x4x49x256xf32>
	%780="ufront.dropout"(%779){rate=0.0, seed=0}:(tensor<1x4x49x256xf32>) -> tensor<1x4x49x256xf32>
	%781="ufront.call"(%780){addargs=[('p', 0.14), ('mode', 'row'), ('training', False)], func=stochastic_depth}:(tensor<1x4x49x256xf32>) -> tensor<1x4x49x256xf32>
	%782="ufront.add"(%775, %781):(tensor<1x4x49x256xf32>, tensor<1x4x49x256xf32>) -> tensor<1x4x49x256xf32>
	%783="ufront.identity"(%782):(tensor<1x4x49x256xf32>) -> tensor<1x4x49x256xf32>
	%784="ufront.reshape"(%783){shape=[1, 2, 2, 7, 7, 256]}:(tensor<1x4x49x256xf32>) -> tensor<1x2x2x7x7x256xf32>
	%785="ufront.transpose"(%784){perms=[0, 5, 1, 3, 2, 4]}:(tensor<1x2x2x7x7x256xf32>) -> tensor<1x256x2x7x2x7xf32>
	%786="ufront.reshape"(%785){shape=[1, 256, 14, 14]}:(tensor<1x256x2x7x2x7xf32>) -> tensor<1x256x14x14xf32>
	%787="ufront.reshape"(%786){shape=[1, 256, 7, 2, 7, 2]}:(tensor<1x256x14x14xf32>) -> tensor<1x256x7x2x7x2xf32>
	%788="ufront.transpose"(%787){perms=[0, 2, 4, 3, 5, 1]}:(tensor<1x256x7x2x7x2xf32>) -> tensor<1x7x7x2x2x256xf32>
	%789="ufront.reshape"(%788){shape=[1, 49, 4, 256]}:(tensor<1x7x7x2x2x256xf32>) -> tensor<1x49x4x256xf32>
	%790="ufront.call"(%789){addargs=[('arg2', -2), ('arg3', -3)], func=swapaxes}:(tensor<1x49x4x256xf32>) -> tensor<1x4x49x256xf32>
	%791="ufront.layer_norm"(%790){elementwise_affine=true, eps=0.00001, normalized_shape=[256]}:(tensor<1x4x49x256xf32>) -> tensor<1x4x49x256xf32>
	%792="ufront.linear"(%791):(tensor<1x4x49x256xf32>) -> tensor<1x4x49x768xf32>
	(%793, %794, %795)="ufront.chunk"(%792){axis=-1, sizes=3}:(tensor<1x4x49x768xf32>) -> tensor<1x4x49x256xf32>, tensor<1x4x49x256xf32>, tensor<1x4x49x256xf32>
	%796="ufront.reshape"(%793){shape=[1, 4, 49, 8, 32]}:(tensor<1x4x49x256xf32>) -> tensor<1x4x49x8x32xf32>
	%797="ufront.transpose"(%796){perms=[0, 1, 3, 2, 4]}:(tensor<1x4x49x8x32xf32>) -> tensor<1x4x8x49x32xf32>
	%798="ufront.reshape"(%794){shape=[1, 4, 49, 8, 32]}:(tensor<1x4x49x256xf32>) -> tensor<1x4x49x8x32xf32>
	%799="ufront.transpose"(%798){perms=[0, 1, 3, 2, 4]}:(tensor<1x4x49x8x32xf32>) -> tensor<1x4x8x49x32xf32>
	%800="ufront.reshape"(%795){shape=[1, 4, 49, 8, 32]}:(tensor<1x4x49x256xf32>) -> tensor<1x4x49x8x32xf32>
	%801="ufront.transpose"(%800){perms=[0, 1, 3, 2, 4]}:(tensor<1x4x49x8x32xf32>) -> tensor<1x4x8x49x32xf32>
	%802="ufront.smultiply"(%799){scalar=0.0625}:(tensor<1x4x8x49x32xf32>) -> tensor<1x4x8x49x32xf32>
	%803="ufront.call"(%797, %802){addargs=[('arg1', 'B G H I D, B G H J D -> B G H I J')], func=einsum}:(tensor<1x4x8x49x32xf32>, tensor<1x4x8x49x32xf32>) -> tensor<1x4x8x49x49xf32>
	%804="ufront.parameter"(%804){dtype="Float", initializer="…", requires_grad=true}:(tensor<169x8xf32>) -> tensor<169x8xf32>
	%805="ufront.tensor"(%805){dtype="Int64", initializer="…", requires_grad=false}:(tensor<2401xf32>) -> tensor<2401xf32>
	%806="ufront.slice"(%804, %805){output_shape=[2401, 8]}:(tensor<169x8xf32>, tensor<2401xf32>) -> tensor<2401x8xf32>
	%807="ufront.reshape"(%806){shape=[49, 49, 8]}:(tensor<2401x8xf32>) -> tensor<49x49x8xf32>
	%808="ufront.transpose"(%807){perms=[2, 0, 1]}:(tensor<49x49x8xf32>) -> tensor<8x49x49xf32>
	%809="ufront.reshape"(%808){shape=[1, 8, 49, 49]}:(tensor<8x49x49xf32>) -> tensor<1x8x49x49xf32>
	%810="ufront.add"(%803, %809):(tensor<1x4x8x49x49xf32>, tensor<1x8x49x49xf32>) -> tensor<1x4x8x49x49xf32>
	%811="ufront.softmax"(%810):(tensor<1x4x8x49x49xf32>) -> tensor<1x4x8x49x49xf32>
	%812="ufront.call"(%811, %801){addargs=[('arg1', 'B G H I J, B G H J D -> B G H I D')], func=einsum}:(tensor<1x4x8x49x49xf32>, tensor<1x4x8x49x32xf32>) -> tensor<1x4x8x49x32xf32>
	%813="ufront.transpose"(%812){perms=[0, 1, 3, 2, 4]}:(tensor<1x4x8x49x32xf32>) -> tensor<1x4x49x8x32xf32>
	%814="ufront.reshape"(%813){shape=[1, 4, 49, 256]}:(tensor<1x4x49x8x32xf32>) -> tensor<1x4x49x256xf32>
	%815="ufront.linear"(%814):(tensor<1x4x49x256xf32>) -> tensor<1x4x49x256xf32>
	%816="ufront.dropout"(%815){rate=0.0, seed=0}:(tensor<1x4x49x256xf32>) -> tensor<1x4x49x256xf32>
	%817="ufront.call"(%816){addargs=[('p', 0.14), ('mode', 'row'), ('training', False)], func=stochastic_depth}:(tensor<1x4x49x256xf32>) -> tensor<1x4x49x256xf32>
	%818="ufront.add"(%790, %817):(tensor<1x4x49x256xf32>, tensor<1x4x49x256xf32>) -> tensor<1x4x49x256xf32>
	%819="ufront.layer_norm"(%818){elementwise_affine=true, eps=0.00001, normalized_shape=[256]}:(tensor<1x4x49x256xf32>) -> tensor<1x4x49x256xf32>
	%820="ufront.linear"(%819):(tensor<1x4x49x256xf32>) -> tensor<1x4x49x1024xf32>
	%821="ufront.gelu"(%820):(tensor<1x4x49x1024xf32>) -> tensor<1x4x49x1024xf32>
	%822="ufront.linear"(%821):(tensor<1x4x49x1024xf32>) -> tensor<1x4x49x256xf32>
	%823="ufront.dropout"(%822){rate=0.0, seed=0}:(tensor<1x4x49x256xf32>) -> tensor<1x4x49x256xf32>
	%824="ufront.call"(%823){addargs=[('p', 0.14), ('mode', 'row'), ('training', False)], func=stochastic_depth}:(tensor<1x4x49x256xf32>) -> tensor<1x4x49x256xf32>
	%825="ufront.add"(%818, %824):(tensor<1x4x49x256xf32>, tensor<1x4x49x256xf32>) -> tensor<1x4x49x256xf32>
	%826="ufront.call"(%825){addargs=[('arg2', -2), ('arg3', -3)], func=swapaxes}:(tensor<1x4x49x256xf32>) -> tensor<1x49x4x256xf32>
	%827="ufront.reshape"(%826){shape=[1, 7, 7, 2, 2, 256]}:(tensor<1x49x4x256xf32>) -> tensor<1x7x7x2x2x256xf32>
	%828="ufront.transpose"(%827){perms=[0, 5, 1, 3, 2, 4]}:(tensor<1x7x7x2x2x256xf32>) -> tensor<1x256x7x2x7x2xf32>
	%829="ufront.reshape"(%828){shape=[1, 256, 14, 14]}:(tensor<1x256x7x2x7x2xf32>) -> tensor<1x256x14x14xf32>
	%830="ufront.identity"(%829):(tensor<1x256x14x14xf32>) -> tensor<1x256x14x14xf32>
	%831="ufront.batchnorm"(%829){affine=true, eps=0.001, momentum=0.99, track_running_stats=true}:(tensor<1x256x14x14xf32>) -> tensor<1x256x14x14xf32>
	%832="ufront.conv2d"(%831){groups=1, kernel=[1, 1], pad=[0, 0], stride=[1, 1]}:(tensor<1x256x14x14xf32>) -> tensor<1x1024x14x14xf32>
	%833="ufront.batchnorm"(%832){affine=true, eps=0.001, momentum=0.99, track_running_stats=true}:(tensor<1x1024x14x14xf32>) -> tensor<1x1024x14x14xf32>
	%834="ufront.gelu"(%833):(tensor<1x1024x14x14xf32>) -> tensor<1x1024x14x14xf32>
	%835="ufront.conv2d"(%834){groups=1024, kernel=[3, 3], pad=[1, 1], stride=[1, 1]}:(tensor<1x1024x14x14xf32>) -> tensor<1x1024x14x14xf32>
	%836="ufront.batchnorm"(%835){affine=true, eps=0.001, momentum=0.99, track_running_stats=true}:(tensor<1x1024x14x14xf32>) -> tensor<1x1024x14x14xf32>
	%837="ufront.gelu"(%836):(tensor<1x1024x14x14xf32>) -> tensor<1x1024x14x14xf32>
	%838="ufront.pool2d"(%837){output_size=[1, 1], pool_type="POOL_ADAPTIVE"}:(tensor<1x1024x14x14xf32>) -> tensor<1x1024x1x1xf32>
	%839="ufront.conv2d"(%838){groups=1, kernel=[1, 1], pad=[0, 0], stride=[1, 1]}:(tensor<1x1024x1x1xf32>) -> tensor<1x64x1x1xf32>
	%840="ufront.silu"(%839):(tensor<1x64x1x1xf32>) -> tensor<1x64x1x1xf32>
	%841="ufront.conv2d"(%840){groups=1, kernel=[1, 1], pad=[0, 0], stride=[1, 1]}:(tensor<1x64x1x1xf32>) -> tensor<1x1024x1x1xf32>
	%842="ufront.sigmoid"(%841):(tensor<1x1024x1x1xf32>) -> tensor<1x1024x1x1xf32>
	%843="ufront.multiply"(%842, %837):(tensor<1x1024x1x1xf32>, tensor<1x1024x14x14xf32>) -> tensor<1x1024x14x14xf32>
	%844="ufront.conv2d"(%843){groups=1, kernel=[1, 1], pad=[0, 0], stride=[1, 1]}:(tensor<1x1024x14x14xf32>) -> tensor<1x256x14x14xf32>
	%845="ufront.call"(%844){addargs=[('p', 0.16), ('mode', 'row'), ('training', False)], func=stochastic_depth}:(tensor<1x256x14x14xf32>) -> tensor<1x256x14x14xf32>
	%846="ufront.add"(%830, %845):(tensor<1x256x14x14xf32>, tensor<1x256x14x14xf32>) -> tensor<1x256x14x14xf32>
	%847="ufront.reshape"(%846){shape=[1, 256, 2, 7, 2, 7]}:(tensor<1x256x14x14xf32>) -> tensor<1x256x2x7x2x7xf32>
	%848="ufront.transpose"(%847){perms=[0, 2, 4, 3, 5, 1]}:(tensor<1x256x2x7x2x7xf32>) -> tensor<1x2x2x7x7x256xf32>
	%849="ufront.reshape"(%848){shape=[1, 4, 49, 256]}:(tensor<1x2x2x7x7x256xf32>) -> tensor<1x4x49x256xf32>
	%850="ufront.identity"(%849):(tensor<1x4x49x256xf32>) -> tensor<1x4x49x256xf32>
	%851="ufront.layer_norm"(%850){elementwise_affine=true, eps=0.00001, normalized_shape=[256]}:(tensor<1x4x49x256xf32>) -> tensor<1x4x49x256xf32>
	%852="ufront.linear"(%851):(tensor<1x4x49x256xf32>) -> tensor<1x4x49x768xf32>
	(%853, %854, %855)="ufront.chunk"(%852){axis=-1, sizes=3}:(tensor<1x4x49x768xf32>) -> tensor<1x4x49x256xf32>, tensor<1x4x49x256xf32>, tensor<1x4x49x256xf32>
	%856="ufront.reshape"(%853){shape=[1, 4, 49, 8, 32]}:(tensor<1x4x49x256xf32>) -> tensor<1x4x49x8x32xf32>
	%857="ufront.transpose"(%856){perms=[0, 1, 3, 2, 4]}:(tensor<1x4x49x8x32xf32>) -> tensor<1x4x8x49x32xf32>
	%858="ufront.reshape"(%854){shape=[1, 4, 49, 8, 32]}:(tensor<1x4x49x256xf32>) -> tensor<1x4x49x8x32xf32>
	%859="ufront.transpose"(%858){perms=[0, 1, 3, 2, 4]}:(tensor<1x4x49x8x32xf32>) -> tensor<1x4x8x49x32xf32>
	%860="ufront.reshape"(%855){shape=[1, 4, 49, 8, 32]}:(tensor<1x4x49x256xf32>) -> tensor<1x4x49x8x32xf32>
	%861="ufront.transpose"(%860){perms=[0, 1, 3, 2, 4]}:(tensor<1x4x49x8x32xf32>) -> tensor<1x4x8x49x32xf32>
	%862="ufront.smultiply"(%859){scalar=0.0625}:(tensor<1x4x8x49x32xf32>) -> tensor<1x4x8x49x32xf32>
	%863="ufront.call"(%857, %862){addargs=[('arg1', 'B G H I D, B G H J D -> B G H I J')], func=einsum}:(tensor<1x4x8x49x32xf32>, tensor<1x4x8x49x32xf32>) -> tensor<1x4x8x49x49xf32>
	%864="ufront.parameter"(%864){dtype="Float", initializer="…", requires_grad=true}:(tensor<169x8xf32>) -> tensor<169x8xf32>
	%865="ufront.tensor"(%865){dtype="Int64", initializer="…", requires_grad=false}:(tensor<2401xf32>) -> tensor<2401xf32>
	%866="ufront.slice"(%864, %865){output_shape=[2401, 8]}:(tensor<169x8xf32>, tensor<2401xf32>) -> tensor<2401x8xf32>
	%867="ufront.reshape"(%866){shape=[49, 49, 8]}:(tensor<2401x8xf32>) -> tensor<49x49x8xf32>
	%868="ufront.transpose"(%867){perms=[2, 0, 1]}:(tensor<49x49x8xf32>) -> tensor<8x49x49xf32>
	%869="ufront.reshape"(%868){shape=[1, 8, 49, 49]}:(tensor<8x49x49xf32>) -> tensor<1x8x49x49xf32>
	%870="ufront.add"(%863, %869):(tensor<1x4x8x49x49xf32>, tensor<1x8x49x49xf32>) -> tensor<1x4x8x49x49xf32>
	%871="ufront.softmax"(%870):(tensor<1x4x8x49x49xf32>) -> tensor<1x4x8x49x49xf32>
	%872="ufront.call"(%871, %861){addargs=[('arg1', 'B G H I J, B G H J D -> B G H I D')], func=einsum}:(tensor<1x4x8x49x49xf32>, tensor<1x4x8x49x32xf32>) -> tensor<1x4x8x49x32xf32>
	%873="ufront.transpose"(%872){perms=[0, 1, 3, 2, 4]}:(tensor<1x4x8x49x32xf32>) -> tensor<1x4x49x8x32xf32>
	%874="ufront.reshape"(%873){shape=[1, 4, 49, 256]}:(tensor<1x4x49x8x32xf32>) -> tensor<1x4x49x256xf32>
	%875="ufront.linear"(%874):(tensor<1x4x49x256xf32>) -> tensor<1x4x49x256xf32>
	%876="ufront.dropout"(%875){rate=0.0, seed=0}:(tensor<1x4x49x256xf32>) -> tensor<1x4x49x256xf32>
	%877="ufront.call"(%876){addargs=[('p', 0.16), ('mode', 'row'), ('training', False)], func=stochastic_depth}:(tensor<1x4x49x256xf32>) -> tensor<1x4x49x256xf32>
	%878="ufront.add"(%850, %877):(tensor<1x4x49x256xf32>, tensor<1x4x49x256xf32>) -> tensor<1x4x49x256xf32>
	%879="ufront.layer_norm"(%878){elementwise_affine=true, eps=0.00001, normalized_shape=[256]}:(tensor<1x4x49x256xf32>) -> tensor<1x4x49x256xf32>
	%880="ufront.linear"(%879):(tensor<1x4x49x256xf32>) -> tensor<1x4x49x1024xf32>
	%881="ufront.gelu"(%880):(tensor<1x4x49x1024xf32>) -> tensor<1x4x49x1024xf32>
	%882="ufront.linear"(%881):(tensor<1x4x49x1024xf32>) -> tensor<1x4x49x256xf32>
	%883="ufront.dropout"(%882){rate=0.0, seed=0}:(tensor<1x4x49x256xf32>) -> tensor<1x4x49x256xf32>
	%884="ufront.call"(%883){addargs=[('p', 0.16), ('mode', 'row'), ('training', False)], func=stochastic_depth}:(tensor<1x4x49x256xf32>) -> tensor<1x4x49x256xf32>
	%885="ufront.add"(%878, %884):(tensor<1x4x49x256xf32>, tensor<1x4x49x256xf32>) -> tensor<1x4x49x256xf32>
	%886="ufront.identity"(%885):(tensor<1x4x49x256xf32>) -> tensor<1x4x49x256xf32>
	%887="ufront.reshape"(%886){shape=[1, 2, 2, 7, 7, 256]}:(tensor<1x4x49x256xf32>) -> tensor<1x2x2x7x7x256xf32>
	%888="ufront.transpose"(%887){perms=[0, 5, 1, 3, 2, 4]}:(tensor<1x2x2x7x7x256xf32>) -> tensor<1x256x2x7x2x7xf32>
	%889="ufront.reshape"(%888){shape=[1, 256, 14, 14]}:(tensor<1x256x2x7x2x7xf32>) -> tensor<1x256x14x14xf32>
	%890="ufront.reshape"(%889){shape=[1, 256, 7, 2, 7, 2]}:(tensor<1x256x14x14xf32>) -> tensor<1x256x7x2x7x2xf32>
	%891="ufront.transpose"(%890){perms=[0, 2, 4, 3, 5, 1]}:(tensor<1x256x7x2x7x2xf32>) -> tensor<1x7x7x2x2x256xf32>
	%892="ufront.reshape"(%891){shape=[1, 49, 4, 256]}:(tensor<1x7x7x2x2x256xf32>) -> tensor<1x49x4x256xf32>
	%893="ufront.call"(%892){addargs=[('arg2', -2), ('arg3', -3)], func=swapaxes}:(tensor<1x49x4x256xf32>) -> tensor<1x4x49x256xf32>
	%894="ufront.layer_norm"(%893){elementwise_affine=true, eps=0.00001, normalized_shape=[256]}:(tensor<1x4x49x256xf32>) -> tensor<1x4x49x256xf32>
	%895="ufront.linear"(%894):(tensor<1x4x49x256xf32>) -> tensor<1x4x49x768xf32>
	(%896, %897, %898)="ufront.chunk"(%895){axis=-1, sizes=3}:(tensor<1x4x49x768xf32>) -> tensor<1x4x49x256xf32>, tensor<1x4x49x256xf32>, tensor<1x4x49x256xf32>
	%899="ufront.reshape"(%896){shape=[1, 4, 49, 8, 32]}:(tensor<1x4x49x256xf32>) -> tensor<1x4x49x8x32xf32>
	%900="ufront.transpose"(%899){perms=[0, 1, 3, 2, 4]}:(tensor<1x4x49x8x32xf32>) -> tensor<1x4x8x49x32xf32>
	%901="ufront.reshape"(%897){shape=[1, 4, 49, 8, 32]}:(tensor<1x4x49x256xf32>) -> tensor<1x4x49x8x32xf32>
	%902="ufront.transpose"(%901){perms=[0, 1, 3, 2, 4]}:(tensor<1x4x49x8x32xf32>) -> tensor<1x4x8x49x32xf32>
	%903="ufront.reshape"(%898){shape=[1, 4, 49, 8, 32]}:(tensor<1x4x49x256xf32>) -> tensor<1x4x49x8x32xf32>
	%904="ufront.transpose"(%903){perms=[0, 1, 3, 2, 4]}:(tensor<1x4x49x8x32xf32>) -> tensor<1x4x8x49x32xf32>
	%905="ufront.smultiply"(%902){scalar=0.0625}:(tensor<1x4x8x49x32xf32>) -> tensor<1x4x8x49x32xf32>
	%906="ufront.call"(%900, %905){addargs=[('arg1', 'B G H I D, B G H J D -> B G H I J')], func=einsum}:(tensor<1x4x8x49x32xf32>, tensor<1x4x8x49x32xf32>) -> tensor<1x4x8x49x49xf32>
	%907="ufront.parameter"(%907){dtype="Float", initializer="…", requires_grad=true}:(tensor<169x8xf32>) -> tensor<169x8xf32>
	%908="ufront.tensor"(%908){dtype="Int64", initializer="…", requires_grad=false}:(tensor<2401xf32>) -> tensor<2401xf32>
	%909="ufront.slice"(%907, %908){output_shape=[2401, 8]}:(tensor<169x8xf32>, tensor<2401xf32>) -> tensor<2401x8xf32>
	%910="ufront.reshape"(%909){shape=[49, 49, 8]}:(tensor<2401x8xf32>) -> tensor<49x49x8xf32>
	%911="ufront.transpose"(%910){perms=[2, 0, 1]}:(tensor<49x49x8xf32>) -> tensor<8x49x49xf32>
	%912="ufront.reshape"(%911){shape=[1, 8, 49, 49]}:(tensor<8x49x49xf32>) -> tensor<1x8x49x49xf32>
	%913="ufront.add"(%906, %912):(tensor<1x4x8x49x49xf32>, tensor<1x8x49x49xf32>) -> tensor<1x4x8x49x49xf32>
	%914="ufront.softmax"(%913):(tensor<1x4x8x49x49xf32>) -> tensor<1x4x8x49x49xf32>
	%915="ufront.call"(%914, %904){addargs=[('arg1', 'B G H I J, B G H J D -> B G H I D')], func=einsum}:(tensor<1x4x8x49x49xf32>, tensor<1x4x8x49x32xf32>) -> tensor<1x4x8x49x32xf32>
	%916="ufront.transpose"(%915){perms=[0, 1, 3, 2, 4]}:(tensor<1x4x8x49x32xf32>) -> tensor<1x4x49x8x32xf32>
	%917="ufront.reshape"(%916){shape=[1, 4, 49, 256]}:(tensor<1x4x49x8x32xf32>) -> tensor<1x4x49x256xf32>
	%918="ufront.linear"(%917):(tensor<1x4x49x256xf32>) -> tensor<1x4x49x256xf32>
	%919="ufront.dropout"(%918){rate=0.0, seed=0}:(tensor<1x4x49x256xf32>) -> tensor<1x4x49x256xf32>
	%920="ufront.call"(%919){addargs=[('p', 0.16), ('mode', 'row'), ('training', False)], func=stochastic_depth}:(tensor<1x4x49x256xf32>) -> tensor<1x4x49x256xf32>
	%921="ufront.add"(%893, %920):(tensor<1x4x49x256xf32>, tensor<1x4x49x256xf32>) -> tensor<1x4x49x256xf32>
	%922="ufront.layer_norm"(%921){elementwise_affine=true, eps=0.00001, normalized_shape=[256]}:(tensor<1x4x49x256xf32>) -> tensor<1x4x49x256xf32>
	%923="ufront.linear"(%922):(tensor<1x4x49x256xf32>) -> tensor<1x4x49x1024xf32>
	%924="ufront.gelu"(%923):(tensor<1x4x49x1024xf32>) -> tensor<1x4x49x1024xf32>
	%925="ufront.linear"(%924):(tensor<1x4x49x1024xf32>) -> tensor<1x4x49x256xf32>
	%926="ufront.dropout"(%925){rate=0.0, seed=0}:(tensor<1x4x49x256xf32>) -> tensor<1x4x49x256xf32>
	%927="ufront.call"(%926){addargs=[('p', 0.16), ('mode', 'row'), ('training', False)], func=stochastic_depth}:(tensor<1x4x49x256xf32>) -> tensor<1x4x49x256xf32>
	%928="ufront.add"(%921, %927):(tensor<1x4x49x256xf32>, tensor<1x4x49x256xf32>) -> tensor<1x4x49x256xf32>
	%929="ufront.call"(%928){addargs=[('arg2', -2), ('arg3', -3)], func=swapaxes}:(tensor<1x4x49x256xf32>) -> tensor<1x49x4x256xf32>
	%930="ufront.reshape"(%929){shape=[1, 7, 7, 2, 2, 256]}:(tensor<1x49x4x256xf32>) -> tensor<1x7x7x2x2x256xf32>
	%931="ufront.transpose"(%930){perms=[0, 5, 1, 3, 2, 4]}:(tensor<1x7x7x2x2x256xf32>) -> tensor<1x256x7x2x7x2xf32>
	%932="ufront.reshape"(%931){shape=[1, 256, 14, 14]}:(tensor<1x256x7x2x7x2xf32>) -> tensor<1x256x14x14xf32>
	%933="ufront.pool2d"(%932){kernel=[3, 3], pad=[1, 1], pool_type="POOL_AVG", stride=[2, 2]}:(tensor<1x256x14x14xf32>) -> tensor<1x256x7x7xf32>
	%934="ufront.conv2d"(%933){groups=1, kernel=[1, 1], pad=[0, 0], stride=[1, 1]}:(tensor<1x256x7x7xf32>) -> tensor<1x512x7x7xf32>
	%935="ufront.batchnorm"(%932){affine=true, eps=0.001, momentum=0.99, track_running_stats=true}:(tensor<1x256x14x14xf32>) -> tensor<1x256x14x14xf32>
	%936="ufront.conv2d"(%935){groups=1, kernel=[1, 1], pad=[0, 0], stride=[1, 1]}:(tensor<1x256x14x14xf32>) -> tensor<1x2048x14x14xf32>
	%937="ufront.batchnorm"(%936){affine=true, eps=0.001, momentum=0.99, track_running_stats=true}:(tensor<1x2048x14x14xf32>) -> tensor<1x2048x14x14xf32>
	%938="ufront.gelu"(%937):(tensor<1x2048x14x14xf32>) -> tensor<1x2048x14x14xf32>
	%939="ufront.conv2d"(%938){groups=2048, kernel=[3, 3], pad=[1, 1], stride=[2, 2]}:(tensor<1x2048x14x14xf32>) -> tensor<1x2048x7x7xf32>
	%940="ufront.batchnorm"(%939){affine=true, eps=0.001, momentum=0.99, track_running_stats=true}:(tensor<1x2048x7x7xf32>) -> tensor<1x2048x7x7xf32>
	%941="ufront.gelu"(%940):(tensor<1x2048x7x7xf32>) -> tensor<1x2048x7x7xf32>
	%942="ufront.pool2d"(%941){output_size=[1, 1], pool_type="POOL_ADAPTIVE"}:(tensor<1x2048x7x7xf32>) -> tensor<1x2048x1x1xf32>
	%943="ufront.conv2d"(%942){groups=1, kernel=[1, 1], pad=[0, 0], stride=[1, 1]}:(tensor<1x2048x1x1xf32>) -> tensor<1x128x1x1xf32>
	%944="ufront.silu"(%943):(tensor<1x128x1x1xf32>) -> tensor<1x128x1x1xf32>
	%945="ufront.conv2d"(%944){groups=1, kernel=[1, 1], pad=[0, 0], stride=[1, 1]}:(tensor<1x128x1x1xf32>) -> tensor<1x2048x1x1xf32>
	%946="ufront.sigmoid"(%945):(tensor<1x2048x1x1xf32>) -> tensor<1x2048x1x1xf32>
	%947="ufront.multiply"(%946, %941):(tensor<1x2048x1x1xf32>, tensor<1x2048x7x7xf32>) -> tensor<1x2048x7x7xf32>
	%948="ufront.conv2d"(%947){groups=1, kernel=[1, 1], pad=[0, 0], stride=[1, 1]}:(tensor<1x2048x7x7xf32>) -> tensor<1x512x7x7xf32>
	%949="ufront.call"(%948){addargs=[('p', 0.18), ('mode', 'row'), ('training', False)], func=stochastic_depth}:(tensor<1x512x7x7xf32>) -> tensor<1x512x7x7xf32>
	%950="ufront.add"(%934, %949):(tensor<1x512x7x7xf32>, tensor<1x512x7x7xf32>) -> tensor<1x512x7x7xf32>
	%951="ufront.reshape"(%950){shape=[1, 512, 1, 7, 1, 7]}:(tensor<1x512x7x7xf32>) -> tensor<1x512x1x7x1x7xf32>
	%952="ufront.transpose"(%951){perms=[0, 2, 4, 3, 5, 1]}:(tensor<1x512x1x7x1x7xf32>) -> tensor<1x1x1x7x7x512xf32>
	%953="ufront.reshape"(%952){shape=[1, 1, 49, 512]}:(tensor<1x1x1x7x7x512xf32>) -> tensor<1x1x49x512xf32>
	%954="ufront.identity"(%953):(tensor<1x1x49x512xf32>) -> tensor<1x1x49x512xf32>
	%955="ufront.layer_norm"(%954){elementwise_affine=true, eps=0.00001, normalized_shape=[512]}:(tensor<1x1x49x512xf32>) -> tensor<1x1x49x512xf32>
	%956="ufront.linear"(%955):(tensor<1x1x49x512xf32>) -> tensor<1x1x49x1536xf32>
	(%957, %958, %959)="ufront.chunk"(%956){axis=-1, sizes=3}:(tensor<1x1x49x1536xf32>) -> tensor<1x1x49x512xf32>, tensor<1x1x49x512xf32>, tensor<1x1x49x512xf32>
	%960="ufront.reshape"(%957){shape=[1, 1, 49, 16, 32]}:(tensor<1x1x49x512xf32>) -> tensor<1x1x49x16x32xf32>
	%961="ufront.transpose"(%960){perms=[0, 1, 3, 2, 4]}:(tensor<1x1x49x16x32xf32>) -> tensor<1x1x16x49x32xf32>
	%962="ufront.reshape"(%958){shape=[1, 1, 49, 16, 32]}:(tensor<1x1x49x512xf32>) -> tensor<1x1x49x16x32xf32>
	%963="ufront.transpose"(%962){perms=[0, 1, 3, 2, 4]}:(tensor<1x1x49x16x32xf32>) -> tensor<1x1x16x49x32xf32>
	%964="ufront.reshape"(%959){shape=[1, 1, 49, 16, 32]}:(tensor<1x1x49x512xf32>) -> tensor<1x1x49x16x32xf32>
	%965="ufront.transpose"(%964){perms=[0, 1, 3, 2, 4]}:(tensor<1x1x49x16x32xf32>) -> tensor<1x1x16x49x32xf32>
	%966="ufront.smultiply"(%963){scalar=0.04419417382415922}:(tensor<1x1x16x49x32xf32>) -> tensor<1x1x16x49x32xf32>
	%967="ufront.call"(%961, %966){addargs=[('arg1', 'B G H I D, B G H J D -> B G H I J')], func=einsum}:(tensor<1x1x16x49x32xf32>, tensor<1x1x16x49x32xf32>) -> tensor<1x1x16x49x49xf32>
	%968="ufront.parameter"(%968){dtype="Float", initializer="…", requires_grad=true}:(tensor<169x16xf32>) -> tensor<169x16xf32>
	%969="ufront.tensor"(%969){dtype="Int64", initializer="…", requires_grad=false}:(tensor<2401xf32>) -> tensor<2401xf32>
	%970="ufront.slice"(%968, %969){output_shape=[2401, 16]}:(tensor<169x16xf32>, tensor<2401xf32>) -> tensor<2401x16xf32>
	%971="ufront.reshape"(%970){shape=[49, 49, 16]}:(tensor<2401x16xf32>) -> tensor<49x49x16xf32>
	%972="ufront.transpose"(%971){perms=[2, 0, 1]}:(tensor<49x49x16xf32>) -> tensor<16x49x49xf32>
	%973="ufront.reshape"(%972){shape=[1, 16, 49, 49]}:(tensor<16x49x49xf32>) -> tensor<1x16x49x49xf32>
	%974="ufront.add"(%967, %973):(tensor<1x1x16x49x49xf32>, tensor<1x16x49x49xf32>) -> tensor<1x1x16x49x49xf32>
	%975="ufront.softmax"(%974):(tensor<1x1x16x49x49xf32>) -> tensor<1x1x16x49x49xf32>
	%976="ufront.call"(%975, %965){addargs=[('arg1', 'B G H I J, B G H J D -> B G H I D')], func=einsum}:(tensor<1x1x16x49x49xf32>, tensor<1x1x16x49x32xf32>) -> tensor<1x1x16x49x32xf32>
	%977="ufront.transpose"(%976){perms=[0, 1, 3, 2, 4]}:(tensor<1x1x16x49x32xf32>) -> tensor<1x1x49x16x32xf32>
	%978="ufront.reshape"(%977){shape=[1, 1, 49, 512]}:(tensor<1x1x49x16x32xf32>) -> tensor<1x1x49x512xf32>
	%979="ufront.linear"(%978):(tensor<1x1x49x512xf32>) -> tensor<1x1x49x512xf32>
	%980="ufront.dropout"(%979){rate=0.0, seed=0}:(tensor<1x1x49x512xf32>) -> tensor<1x1x49x512xf32>
	%981="ufront.call"(%980){addargs=[('p', 0.18), ('mode', 'row'), ('training', False)], func=stochastic_depth}:(tensor<1x1x49x512xf32>) -> tensor<1x1x49x512xf32>
	%982="ufront.add"(%954, %981):(tensor<1x1x49x512xf32>, tensor<1x1x49x512xf32>) -> tensor<1x1x49x512xf32>
	%983="ufront.layer_norm"(%982){elementwise_affine=true, eps=0.00001, normalized_shape=[512]}:(tensor<1x1x49x512xf32>) -> tensor<1x1x49x512xf32>
	%984="ufront.linear"(%983):(tensor<1x1x49x512xf32>) -> tensor<1x1x49x2048xf32>
	%985="ufront.gelu"(%984):(tensor<1x1x49x2048xf32>) -> tensor<1x1x49x2048xf32>
	%986="ufront.linear"(%985):(tensor<1x1x49x2048xf32>) -> tensor<1x1x49x512xf32>
	%987="ufront.dropout"(%986){rate=0.0, seed=0}:(tensor<1x1x49x512xf32>) -> tensor<1x1x49x512xf32>
	%988="ufront.call"(%987){addargs=[('p', 0.18), ('mode', 'row'), ('training', False)], func=stochastic_depth}:(tensor<1x1x49x512xf32>) -> tensor<1x1x49x512xf32>
	%989="ufront.add"(%982, %988):(tensor<1x1x49x512xf32>, tensor<1x1x49x512xf32>) -> tensor<1x1x49x512xf32>
	%990="ufront.identity"(%989):(tensor<1x1x49x512xf32>) -> tensor<1x1x49x512xf32>
	%991="ufront.reshape"(%990){shape=[1, 1, 1, 7, 7, 512]}:(tensor<1x1x49x512xf32>) -> tensor<1x1x1x7x7x512xf32>
	%992="ufront.transpose"(%991){perms=[0, 5, 1, 3, 2, 4]}:(tensor<1x1x1x7x7x512xf32>) -> tensor<1x512x1x7x1x7xf32>
	%993="ufront.reshape"(%992){shape=[1, 512, 7, 7]}:(tensor<1x512x1x7x1x7xf32>) -> tensor<1x512x7x7xf32>
	%994="ufront.reshape"(%993){shape=[1, 512, 7, 1, 7, 1]}:(tensor<1x512x7x7xf32>) -> tensor<1x512x7x1x7x1xf32>
	%995="ufront.transpose"(%994){perms=[0, 2, 4, 3, 5, 1]}:(tensor<1x512x7x1x7x1xf32>) -> tensor<1x7x7x1x1x512xf32>
	%996="ufront.reshape"(%995){shape=[1, 49, 1, 512]}:(tensor<1x7x7x1x1x512xf32>) -> tensor<1x49x1x512xf32>
	%997="ufront.call"(%996){addargs=[('arg2', -2), ('arg3', -3)], func=swapaxes}:(tensor<1x49x1x512xf32>) -> tensor<1x1x49x512xf32>
	%998="ufront.layer_norm"(%997){elementwise_affine=true, eps=0.00001, normalized_shape=[512]}:(tensor<1x1x49x512xf32>) -> tensor<1x1x49x512xf32>
	%999="ufront.linear"(%998):(tensor<1x1x49x512xf32>) -> tensor<1x1x49x1536xf32>
	(%1000, %1001, %1002)="ufront.chunk"(%999){axis=-1, sizes=3}:(tensor<1x1x49x1536xf32>) -> tensor<1x1x49x512xf32>, tensor<1x1x49x512xf32>, tensor<1x1x49x512xf32>
	%1003="ufront.reshape"(%1000){shape=[1, 1, 49, 16, 32]}:(tensor<1x1x49x512xf32>) -> tensor<1x1x49x16x32xf32>
	%1004="ufront.transpose"(%1003){perms=[0, 1, 3, 2, 4]}:(tensor<1x1x49x16x32xf32>) -> tensor<1x1x16x49x32xf32>
	%1005="ufront.reshape"(%1001){shape=[1, 1, 49, 16, 32]}:(tensor<1x1x49x512xf32>) -> tensor<1x1x49x16x32xf32>
	%1006="ufront.transpose"(%1005){perms=[0, 1, 3, 2, 4]}:(tensor<1x1x49x16x32xf32>) -> tensor<1x1x16x49x32xf32>
	%1007="ufront.reshape"(%1002){shape=[1, 1, 49, 16, 32]}:(tensor<1x1x49x512xf32>) -> tensor<1x1x49x16x32xf32>
	%1008="ufront.transpose"(%1007){perms=[0, 1, 3, 2, 4]}:(tensor<1x1x49x16x32xf32>) -> tensor<1x1x16x49x32xf32>
	%1009="ufront.smultiply"(%1006){scalar=0.04419417382415922}:(tensor<1x1x16x49x32xf32>) -> tensor<1x1x16x49x32xf32>
	%1010="ufront.call"(%1004, %1009){addargs=[('arg1', 'B G H I D, B G H J D -> B G H I J')], func=einsum}:(tensor<1x1x16x49x32xf32>, tensor<1x1x16x49x32xf32>) -> tensor<1x1x16x49x49xf32>
	%1011="ufront.parameter"(%1011){dtype="Float", initializer="…", requires_grad=true}:(tensor<169x16xf32>) -> tensor<169x16xf32>
	%1012="ufront.tensor"(%1012){dtype="Int64", initializer="…", requires_grad=false}:(tensor<2401xf32>) -> tensor<2401xf32>
	%1013="ufront.slice"(%1011, %1012){output_shape=[2401, 16]}:(tensor<169x16xf32>, tensor<2401xf32>) -> tensor<2401x16xf32>
	%1014="ufront.reshape"(%1013){shape=[49, 49, 16]}:(tensor<2401x16xf32>) -> tensor<49x49x16xf32>
	%1015="ufront.transpose"(%1014){perms=[2, 0, 1]}:(tensor<49x49x16xf32>) -> tensor<16x49x49xf32>
	%1016="ufront.reshape"(%1015){shape=[1, 16, 49, 49]}:(tensor<16x49x49xf32>) -> tensor<1x16x49x49xf32>
	%1017="ufront.add"(%1010, %1016):(tensor<1x1x16x49x49xf32>, tensor<1x16x49x49xf32>) -> tensor<1x1x16x49x49xf32>
	%1018="ufront.softmax"(%1017):(tensor<1x1x16x49x49xf32>) -> tensor<1x1x16x49x49xf32>
	%1019="ufront.call"(%1018, %1008){addargs=[('arg1', 'B G H I J, B G H J D -> B G H I D')], func=einsum}:(tensor<1x1x16x49x49xf32>, tensor<1x1x16x49x32xf32>) -> tensor<1x1x16x49x32xf32>
	%1020="ufront.transpose"(%1019){perms=[0, 1, 3, 2, 4]}:(tensor<1x1x16x49x32xf32>) -> tensor<1x1x49x16x32xf32>
	%1021="ufront.reshape"(%1020){shape=[1, 1, 49, 512]}:(tensor<1x1x49x16x32xf32>) -> tensor<1x1x49x512xf32>
	%1022="ufront.linear"(%1021):(tensor<1x1x49x512xf32>) -> tensor<1x1x49x512xf32>
	%1023="ufront.dropout"(%1022){rate=0.0, seed=0}:(tensor<1x1x49x512xf32>) -> tensor<1x1x49x512xf32>
	%1024="ufront.call"(%1023){addargs=[('p', 0.18), ('mode', 'row'), ('training', False)], func=stochastic_depth}:(tensor<1x1x49x512xf32>) -> tensor<1x1x49x512xf32>
	%1025="ufront.add"(%997, %1024):(tensor<1x1x49x512xf32>, tensor<1x1x49x512xf32>) -> tensor<1x1x49x512xf32>
	%1026="ufront.layer_norm"(%1025){elementwise_affine=true, eps=0.00001, normalized_shape=[512]}:(tensor<1x1x49x512xf32>) -> tensor<1x1x49x512xf32>
	%1027="ufront.linear"(%1026):(tensor<1x1x49x512xf32>) -> tensor<1x1x49x2048xf32>
	%1028="ufront.gelu"(%1027):(tensor<1x1x49x2048xf32>) -> tensor<1x1x49x2048xf32>
	%1029="ufront.linear"(%1028):(tensor<1x1x49x2048xf32>) -> tensor<1x1x49x512xf32>
	%1030="ufront.dropout"(%1029){rate=0.0, seed=0}:(tensor<1x1x49x512xf32>) -> tensor<1x1x49x512xf32>
	%1031="ufront.call"(%1030){addargs=[('p', 0.18), ('mode', 'row'), ('training', False)], func=stochastic_depth}:(tensor<1x1x49x512xf32>) -> tensor<1x1x49x512xf32>
	%1032="ufront.add"(%1025, %1031):(tensor<1x1x49x512xf32>, tensor<1x1x49x512xf32>) -> tensor<1x1x49x512xf32>
	%1033="ufront.call"(%1032){addargs=[('arg2', -2), ('arg3', -3)], func=swapaxes}:(tensor<1x1x49x512xf32>) -> tensor<1x49x1x512xf32>
	%1034="ufront.reshape"(%1033){shape=[1, 7, 7, 1, 1, 512]}:(tensor<1x49x1x512xf32>) -> tensor<1x7x7x1x1x512xf32>
	%1035="ufront.transpose"(%1034){perms=[0, 5, 1, 3, 2, 4]}:(tensor<1x7x7x1x1x512xf32>) -> tensor<1x512x7x1x7x1xf32>
	%1036="ufront.reshape"(%1035){shape=[1, 512, 7, 7]}:(tensor<1x512x7x1x7x1xf32>) -> tensor<1x512x7x7xf32>
	%1037="ufront.identity"(%1036):(tensor<1x512x7x7xf32>) -> tensor<1x512x7x7xf32>
	%1038="ufront.batchnorm"(%1036){affine=true, eps=0.001, momentum=0.99, track_running_stats=true}:(tensor<1x512x7x7xf32>) -> tensor<1x512x7x7xf32>
	%1039="ufront.conv2d"(%1038){groups=1, kernel=[1, 1], pad=[0, 0], stride=[1, 1]}:(tensor<1x512x7x7xf32>) -> tensor<1x2048x7x7xf32>
	%1040="ufront.batchnorm"(%1039){affine=true, eps=0.001, momentum=0.99, track_running_stats=true}:(tensor<1x2048x7x7xf32>) -> tensor<1x2048x7x7xf32>
	%1041="ufront.gelu"(%1040):(tensor<1x2048x7x7xf32>) -> tensor<1x2048x7x7xf32>
	%1042="ufront.conv2d"(%1041){groups=2048, kernel=[3, 3], pad=[1, 1], stride=[1, 1]}:(tensor<1x2048x7x7xf32>) -> tensor<1x2048x7x7xf32>
	%1043="ufront.batchnorm"(%1042){affine=true, eps=0.001, momentum=0.99, track_running_stats=true}:(tensor<1x2048x7x7xf32>) -> tensor<1x2048x7x7xf32>
	%1044="ufront.gelu"(%1043):(tensor<1x2048x7x7xf32>) -> tensor<1x2048x7x7xf32>
	%1045="ufront.pool2d"(%1044){output_size=[1, 1], pool_type="POOL_ADAPTIVE"}:(tensor<1x2048x7x7xf32>) -> tensor<1x2048x1x1xf32>
	%1046="ufront.conv2d"(%1045){groups=1, kernel=[1, 1], pad=[0, 0], stride=[1, 1]}:(tensor<1x2048x1x1xf32>) -> tensor<1x128x1x1xf32>
	%1047="ufront.silu"(%1046):(tensor<1x128x1x1xf32>) -> tensor<1x128x1x1xf32>
	%1048="ufront.conv2d"(%1047){groups=1, kernel=[1, 1], pad=[0, 0], stride=[1, 1]}:(tensor<1x128x1x1xf32>) -> tensor<1x2048x1x1xf32>
	%1049="ufront.sigmoid"(%1048):(tensor<1x2048x1x1xf32>) -> tensor<1x2048x1x1xf32>
	%1050="ufront.multiply"(%1049, %1044):(tensor<1x2048x1x1xf32>, tensor<1x2048x7x7xf32>) -> tensor<1x2048x7x7xf32>
	%1051="ufront.conv2d"(%1050){groups=1, kernel=[1, 1], pad=[0, 0], stride=[1, 1]}:(tensor<1x2048x7x7xf32>) -> tensor<1x512x7x7xf32>
	%1052="ufront.call"(%1051){addargs=[('p', 0.2), ('mode', 'row'), ('training', False)], func=stochastic_depth}:(tensor<1x512x7x7xf32>) -> tensor<1x512x7x7xf32>
	%1053="ufront.add"(%1037, %1052):(tensor<1x512x7x7xf32>, tensor<1x512x7x7xf32>) -> tensor<1x512x7x7xf32>
	%1054="ufront.reshape"(%1053){shape=[1, 512, 1, 7, 1, 7]}:(tensor<1x512x7x7xf32>) -> tensor<1x512x1x7x1x7xf32>
	%1055="ufront.transpose"(%1054){perms=[0, 2, 4, 3, 5, 1]}:(tensor<1x512x1x7x1x7xf32>) -> tensor<1x1x1x7x7x512xf32>
	%1056="ufront.reshape"(%1055){shape=[1, 1, 49, 512]}:(tensor<1x1x1x7x7x512xf32>) -> tensor<1x1x49x512xf32>
	%1057="ufront.identity"(%1056):(tensor<1x1x49x512xf32>) -> tensor<1x1x49x512xf32>
	%1058="ufront.layer_norm"(%1057){elementwise_affine=true, eps=0.00001, normalized_shape=[512]}:(tensor<1x1x49x512xf32>) -> tensor<1x1x49x512xf32>
	%1059="ufront.linear"(%1058):(tensor<1x1x49x512xf32>) -> tensor<1x1x49x1536xf32>
	(%1060, %1061, %1062)="ufront.chunk"(%1059){axis=-1, sizes=3}:(tensor<1x1x49x1536xf32>) -> tensor<1x1x49x512xf32>, tensor<1x1x49x512xf32>, tensor<1x1x49x512xf32>
	%1063="ufront.reshape"(%1060){shape=[1, 1, 49, 16, 32]}:(tensor<1x1x49x512xf32>) -> tensor<1x1x49x16x32xf32>
	%1064="ufront.transpose"(%1063){perms=[0, 1, 3, 2, 4]}:(tensor<1x1x49x16x32xf32>) -> tensor<1x1x16x49x32xf32>
	%1065="ufront.reshape"(%1061){shape=[1, 1, 49, 16, 32]}:(tensor<1x1x49x512xf32>) -> tensor<1x1x49x16x32xf32>
	%1066="ufront.transpose"(%1065){perms=[0, 1, 3, 2, 4]}:(tensor<1x1x49x16x32xf32>) -> tensor<1x1x16x49x32xf32>
	%1067="ufront.reshape"(%1062){shape=[1, 1, 49, 16, 32]}:(tensor<1x1x49x512xf32>) -> tensor<1x1x49x16x32xf32>
	%1068="ufront.transpose"(%1067){perms=[0, 1, 3, 2, 4]}:(tensor<1x1x49x16x32xf32>) -> tensor<1x1x16x49x32xf32>
	%1069="ufront.smultiply"(%1066){scalar=0.04419417382415922}:(tensor<1x1x16x49x32xf32>) -> tensor<1x1x16x49x32xf32>
	%1070="ufront.call"(%1064, %1069){addargs=[('arg1', 'B G H I D, B G H J D -> B G H I J')], func=einsum}:(tensor<1x1x16x49x32xf32>, tensor<1x1x16x49x32xf32>) -> tensor<1x1x16x49x49xf32>
	%1071="ufront.parameter"(%1071){dtype="Float", initializer="…", requires_grad=true}:(tensor<169x16xf32>) -> tensor<169x16xf32>
	%1072="ufront.tensor"(%1072){dtype="Int64", initializer="…", requires_grad=false}:(tensor<2401xf32>) -> tensor<2401xf32>
	%1073="ufront.slice"(%1071, %1072){output_shape=[2401, 16]}:(tensor<169x16xf32>, tensor<2401xf32>) -> tensor<2401x16xf32>
	%1074="ufront.reshape"(%1073){shape=[49, 49, 16]}:(tensor<2401x16xf32>) -> tensor<49x49x16xf32>
	%1075="ufront.transpose"(%1074){perms=[2, 0, 1]}:(tensor<49x49x16xf32>) -> tensor<16x49x49xf32>
	%1076="ufront.reshape"(%1075){shape=[1, 16, 49, 49]}:(tensor<16x49x49xf32>) -> tensor<1x16x49x49xf32>
	%1077="ufront.add"(%1070, %1076):(tensor<1x1x16x49x49xf32>, tensor<1x16x49x49xf32>) -> tensor<1x1x16x49x49xf32>
	%1078="ufront.softmax"(%1077):(tensor<1x1x16x49x49xf32>) -> tensor<1x1x16x49x49xf32>
	%1079="ufront.call"(%1078, %1068){addargs=[('arg1', 'B G H I J, B G H J D -> B G H I D')], func=einsum}:(tensor<1x1x16x49x49xf32>, tensor<1x1x16x49x32xf32>) -> tensor<1x1x16x49x32xf32>
	%1080="ufront.transpose"(%1079){perms=[0, 1, 3, 2, 4]}:(tensor<1x1x16x49x32xf32>) -> tensor<1x1x49x16x32xf32>
	%1081="ufront.reshape"(%1080){shape=[1, 1, 49, 512]}:(tensor<1x1x49x16x32xf32>) -> tensor<1x1x49x512xf32>
	%1082="ufront.linear"(%1081):(tensor<1x1x49x512xf32>) -> tensor<1x1x49x512xf32>
	%1083="ufront.dropout"(%1082){rate=0.0, seed=0}:(tensor<1x1x49x512xf32>) -> tensor<1x1x49x512xf32>
	%1084="ufront.call"(%1083){addargs=[('p', 0.2), ('mode', 'row'), ('training', False)], func=stochastic_depth}:(tensor<1x1x49x512xf32>) -> tensor<1x1x49x512xf32>
	%1085="ufront.add"(%1057, %1084):(tensor<1x1x49x512xf32>, tensor<1x1x49x512xf32>) -> tensor<1x1x49x512xf32>
	%1086="ufront.layer_norm"(%1085){elementwise_affine=true, eps=0.00001, normalized_shape=[512]}:(tensor<1x1x49x512xf32>) -> tensor<1x1x49x512xf32>
	%1087="ufront.linear"(%1086):(tensor<1x1x49x512xf32>) -> tensor<1x1x49x2048xf32>
	%1088="ufront.gelu"(%1087):(tensor<1x1x49x2048xf32>) -> tensor<1x1x49x2048xf32>
	%1089="ufront.linear"(%1088):(tensor<1x1x49x2048xf32>) -> tensor<1x1x49x512xf32>
	%1090="ufront.dropout"(%1089){rate=0.0, seed=0}:(tensor<1x1x49x512xf32>) -> tensor<1x1x49x512xf32>
	%1091="ufront.call"(%1090){addargs=[('p', 0.2), ('mode', 'row'), ('training', False)], func=stochastic_depth}:(tensor<1x1x49x512xf32>) -> tensor<1x1x49x512xf32>
	%1092="ufront.add"(%1085, %1091):(tensor<1x1x49x512xf32>, tensor<1x1x49x512xf32>) -> tensor<1x1x49x512xf32>
	%1093="ufront.identity"(%1092):(tensor<1x1x49x512xf32>) -> tensor<1x1x49x512xf32>
	%1094="ufront.reshape"(%1093){shape=[1, 1, 1, 7, 7, 512]}:(tensor<1x1x49x512xf32>) -> tensor<1x1x1x7x7x512xf32>
	%1095="ufront.transpose"(%1094){perms=[0, 5, 1, 3, 2, 4]}:(tensor<1x1x1x7x7x512xf32>) -> tensor<1x512x1x7x1x7xf32>
	%1096="ufront.reshape"(%1095){shape=[1, 512, 7, 7]}:(tensor<1x512x1x7x1x7xf32>) -> tensor<1x512x7x7xf32>
	%1097="ufront.reshape"(%1096){shape=[1, 512, 7, 1, 7, 1]}:(tensor<1x512x7x7xf32>) -> tensor<1x512x7x1x7x1xf32>
	%1098="ufront.transpose"(%1097){perms=[0, 2, 4, 3, 5, 1]}:(tensor<1x512x7x1x7x1xf32>) -> tensor<1x7x7x1x1x512xf32>
	%1099="ufront.reshape"(%1098){shape=[1, 49, 1, 512]}:(tensor<1x7x7x1x1x512xf32>) -> tensor<1x49x1x512xf32>
	%1100="ufront.call"(%1099){addargs=[('arg2', -2), ('arg3', -3)], func=swapaxes}:(tensor<1x49x1x512xf32>) -> tensor<1x1x49x512xf32>
	%1101="ufront.layer_norm"(%1100){elementwise_affine=true, eps=0.00001, normalized_shape=[512]}:(tensor<1x1x49x512xf32>) -> tensor<1x1x49x512xf32>
	%1102="ufront.linear"(%1101):(tensor<1x1x49x512xf32>) -> tensor<1x1x49x1536xf32>
	(%1103, %1104, %1105)="ufront.chunk"(%1102){axis=-1, sizes=3}:(tensor<1x1x49x1536xf32>) -> tensor<1x1x49x512xf32>, tensor<1x1x49x512xf32>, tensor<1x1x49x512xf32>
	%1106="ufront.reshape"(%1103){shape=[1, 1, 49, 16, 32]}:(tensor<1x1x49x512xf32>) -> tensor<1x1x49x16x32xf32>
	%1107="ufront.transpose"(%1106){perms=[0, 1, 3, 2, 4]}:(tensor<1x1x49x16x32xf32>) -> tensor<1x1x16x49x32xf32>
	%1108="ufront.reshape"(%1104){shape=[1, 1, 49, 16, 32]}:(tensor<1x1x49x512xf32>) -> tensor<1x1x49x16x32xf32>
	%1109="ufront.transpose"(%1108){perms=[0, 1, 3, 2, 4]}:(tensor<1x1x49x16x32xf32>) -> tensor<1x1x16x49x32xf32>
	%1110="ufront.reshape"(%1105){shape=[1, 1, 49, 16, 32]}:(tensor<1x1x49x512xf32>) -> tensor<1x1x49x16x32xf32>
	%1111="ufront.transpose"(%1110){perms=[0, 1, 3, 2, 4]}:(tensor<1x1x49x16x32xf32>) -> tensor<1x1x16x49x32xf32>
	%1112="ufront.smultiply"(%1109){scalar=0.04419417382415922}:(tensor<1x1x16x49x32xf32>) -> tensor<1x1x16x49x32xf32>
	%1113="ufront.call"(%1107, %1112){addargs=[('arg1', 'B G H I D, B G H J D -> B G H I J')], func=einsum}:(tensor<1x1x16x49x32xf32>, tensor<1x1x16x49x32xf32>) -> tensor<1x1x16x49x49xf32>
	%1114="ufront.parameter"(%1114){dtype="Float", initializer="…", requires_grad=true}:(tensor<169x16xf32>) -> tensor<169x16xf32>
	%1115="ufront.tensor"(%1115){dtype="Int64", initializer="…", requires_grad=false}:(tensor<2401xf32>) -> tensor<2401xf32>
	%1116="ufront.slice"(%1114, %1115){output_shape=[2401, 16]}:(tensor<169x16xf32>, tensor<2401xf32>) -> tensor<2401x16xf32>
	%1117="ufront.reshape"(%1116){shape=[49, 49, 16]}:(tensor<2401x16xf32>) -> tensor<49x49x16xf32>
	%1118="ufront.transpose"(%1117){perms=[2, 0, 1]}:(tensor<49x49x16xf32>) -> tensor<16x49x49xf32>
	%1119="ufront.reshape"(%1118){shape=[1, 16, 49, 49]}:(tensor<16x49x49xf32>) -> tensor<1x16x49x49xf32>
	%1120="ufront.add"(%1113, %1119):(tensor<1x1x16x49x49xf32>, tensor<1x16x49x49xf32>) -> tensor<1x1x16x49x49xf32>
	%1121="ufront.softmax"(%1120):(tensor<1x1x16x49x49xf32>) -> tensor<1x1x16x49x49xf32>
	%1122="ufront.call"(%1121, %1111){addargs=[('arg1', 'B G H I J, B G H J D -> B G H I D')], func=einsum}:(tensor<1x1x16x49x49xf32>, tensor<1x1x16x49x32xf32>) -> tensor<1x1x16x49x32xf32>
	%1123="ufront.transpose"(%1122){perms=[0, 1, 3, 2, 4]}:(tensor<1x1x16x49x32xf32>) -> tensor<1x1x49x16x32xf32>
	%1124="ufront.reshape"(%1123){shape=[1, 1, 49, 512]}:(tensor<1x1x49x16x32xf32>) -> tensor<1x1x49x512xf32>
	%1125="ufront.linear"(%1124):(tensor<1x1x49x512xf32>) -> tensor<1x1x49x512xf32>
	%1126="ufront.dropout"(%1125){rate=0.0, seed=0}:(tensor<1x1x49x512xf32>) -> tensor<1x1x49x512xf32>
	%1127="ufront.call"(%1126){addargs=[('p', 0.2), ('mode', 'row'), ('training', False)], func=stochastic_depth}:(tensor<1x1x49x512xf32>) -> tensor<1x1x49x512xf32>
	%1128="ufront.add"(%1100, %1127):(tensor<1x1x49x512xf32>, tensor<1x1x49x512xf32>) -> tensor<1x1x49x512xf32>
	%1129="ufront.layer_norm"(%1128){elementwise_affine=true, eps=0.00001, normalized_shape=[512]}:(tensor<1x1x49x512xf32>) -> tensor<1x1x49x512xf32>
	%1130="ufront.linear"(%1129):(tensor<1x1x49x512xf32>) -> tensor<1x1x49x2048xf32>
	%1131="ufront.gelu"(%1130):(tensor<1x1x49x2048xf32>) -> tensor<1x1x49x2048xf32>
	%1132="ufront.linear"(%1131):(tensor<1x1x49x2048xf32>) -> tensor<1x1x49x512xf32>
	%1133="ufront.dropout"(%1132){rate=0.0, seed=0}:(tensor<1x1x49x512xf32>) -> tensor<1x1x49x512xf32>
	%1134="ufront.call"(%1133){addargs=[('p', 0.2), ('mode', 'row'), ('training', False)], func=stochastic_depth}:(tensor<1x1x49x512xf32>) -> tensor<1x1x49x512xf32>
	%1135="ufront.add"(%1128, %1134):(tensor<1x1x49x512xf32>, tensor<1x1x49x512xf32>) -> tensor<1x1x49x512xf32>
	%1136="ufront.call"(%1135){addargs=[('arg2', -2), ('arg3', -3)], func=swapaxes}:(tensor<1x1x49x512xf32>) -> tensor<1x49x1x512xf32>
	%1137="ufront.reshape"(%1136){shape=[1, 7, 7, 1, 1, 512]}:(tensor<1x49x1x512xf32>) -> tensor<1x7x7x1x1x512xf32>
	%1138="ufront.transpose"(%1137){perms=[0, 5, 1, 3, 2, 4]}:(tensor<1x7x7x1x1x512xf32>) -> tensor<1x512x7x1x7x1xf32>
	%1139="ufront.reshape"(%1138){shape=[1, 512, 7, 7]}:(tensor<1x512x7x1x7x1xf32>) -> tensor<1x512x7x7xf32>
	%1140="ufront.pool2d"(%1139){output_size=[1, 1], pool_type="POOL_ADAPTIVE"}:(tensor<1x512x7x7xf32>) -> tensor<1x512x1x1xf32>
	%1141="ufront.flat"(%1140){end_dim=-1, start_dim=1}:(tensor<1x512x1x1xf32>) -> tensor<1x512xf32>
	%1142="ufront.layer_norm"(%1141){elementwise_affine=true, eps=0.00001, normalized_shape=[512]}:(tensor<1x512xf32>) -> tensor<1x512xf32>
	%1143="ufront.linear"(%1142):(tensor<1x512xf32>) -> tensor<1x512xf32>
	%1144="ufront.tanh"(%1143):(tensor<1x512xf32>) -> tensor<1x512xf32>
	%1145="ufront.linear"(%1144):(tensor<1x512xf32>) -> tensor<1x1000xf32>
	return %1145: tensor<1x1000xf32>
}