func.func @forward(%input1: tensor<1x3x224x224xf32>) -> tensor<1x1000xf32>  { 
	%1="ufront.conv2d"(%input1){groups=1, kernel=[3, 3], pad=[1, 1], stride=[2, 2]}:(tensor<1x3x224x224xf32>) -> tensor<1x64x112x112xf32>
	%2="ufront.batchnorm"(%1){affine=true, eps=0.001, momentum=0.99, track_running_stats=true}:(tensor<1x64x112x112xf32>) -> tensor<1x64x112x112xf32>
	%3="ufront.gelu"(%2):(tensor<1x64x112x112xf32>) -> tensor<1x64x112x112xf32>
	%4="ufront.conv2d"(%3){groups=1, kernel=[3, 3], pad=[1, 1], stride=[1, 1]}:(tensor<1x64x112x112xf32>) -> tensor<1x64x112x112xf32>
	%5="ufront.pool2d"(%4){kernel=[3, 3], pad=[1, 1], pool_type="POOL_AVG", stride=[2, 2]}:(tensor<1x64x112x112xf32>) -> tensor<1x64x56x56xf32>
	%6="ufront.conv2d"(%5){groups=1, kernel=[1, 1], pad=[0, 0], stride=[1, 1]}:(tensor<1x64x56x56xf32>) -> tensor<1x64x56x56xf32>
	%7="ufront.batchnorm"(%4){affine=true, eps=0.001, momentum=0.99, track_running_stats=true}:(tensor<1x64x112x112xf32>) -> tensor<1x64x112x112xf32>
	%8="ufront.conv2d"(%7){groups=1, kernel=[1, 1], pad=[0, 0], stride=[1, 1]}:(tensor<1x64x112x112xf32>) -> tensor<1x256x112x112xf32>
	%9="ufront.batchnorm"(%8){affine=true, eps=0.001, momentum=0.99, track_running_stats=true}:(tensor<1x256x112x112xf32>) -> tensor<1x256x112x112xf32>
	%10="ufront.gelu"(%9):(tensor<1x256x112x112xf32>) -> tensor<1x256x112x112xf32>
	%11="ufront.conv2d"(%10){groups=256, kernel=[3, 3], pad=[1, 1], stride=[2, 2]}:(tensor<1x256x112x112xf32>) -> tensor<1x256x56x56xf32>
	%12="ufront.batchnorm"(%11){affine=true, eps=0.001, momentum=0.99, track_running_stats=true}:(tensor<1x256x56x56xf32>) -> tensor<1x256x56x56xf32>
	%13="ufront.gelu"(%12):(tensor<1x256x56x56xf32>) -> tensor<1x256x56x56xf32>
	%14="ufront.pool2d"(%13){output_size=[1, 1], pool_type="POOL_ADAPTIVE"}:(tensor<1x256x56x56xf32>) -> tensor<1x256x1x1xf32>
	%15="ufront.conv2d"(%14){groups=1, kernel=[1, 1], pad=[0, 0], stride=[1, 1]}:(tensor<1x256x1x1xf32>) -> tensor<1x16x1x1xf32>
	%16="ufront.silu"(%15):(tensor<1x16x1x1xf32>) -> tensor<1x16x1x1xf32>
	%17="ufront.conv2d"(%16){groups=1, kernel=[1, 1], pad=[0, 0], stride=[1, 1]}:(tensor<1x16x1x1xf32>) -> tensor<1x256x1x1xf32>
	%18="ufront.sigmoid"(%17):(tensor<1x256x1x1xf32>) -> tensor<1x256x1x1xf32>
	%19="ufront.multiply"(%18, %13):(tensor<1x256x1x1xf32>, tensor<1x256x56x56xf32>) -> tensor<1x256x56x56xf32>
	%20="ufront.conv2d"(%19){groups=1, kernel=[1, 1], pad=[0, 0], stride=[1, 1]}:(tensor<1x256x56x56xf32>) -> tensor<1x64x56x56xf32>
	%21="ufront.identity"(%20):(tensor<1x64x56x56xf32>) -> tensor<1x64x56x56xf32>
	%22="ufront.add"(%6, %21):(tensor<1x64x56x56xf32>, tensor<1x64x56x56xf32>) -> tensor<1x64x56x56xf32>
	%23="ufront.reshape"(%22){shape=[1, 64, 8, 7, 8, 7]}:(tensor<1x64x56x56xf32>) -> tensor<1x64x8x7x8x7xf32>
	%24="ufront.transpose"(%23){perms=[0, 2, 4, 3, 5, 1]}:(tensor<1x64x8x7x8x7xf32>) -> tensor<1x8x8x7x7x64xf32>
	%25="ufront.reshape"(%24){shape=[1, 64, 49, 64]}:(tensor<1x8x8x7x7x64xf32>) -> tensor<1x64x49x64xf32>
	%26="ufront.identity"(%25):(tensor<1x64x49x64xf32>) -> tensor<1x64x49x64xf32>
	%27="ufront.layer_norm"(%26){elementwise_affine=true, eps=0.00001, normalized_shape=[64]}:(tensor<1x64x49x64xf32>) -> tensor<1x64x49x64xf32>
	%28="ufront.linear"(%27):(tensor<1x64x49x64xf32>) -> tensor<1x64x49x192xf32>
	%29, %30, %31="ufront.chunk"(%28){axis=-1, sizes=3}:(tensor<1x64x49x192xf32>) -> (tensor<1x64x49x64xf32>, tensor<1x64x49x64xf32>, tensor<1x64x49x64xf32>)
	%32="ufront.reshape"(%29){shape=[1, 64, 49, 2, 32]}:(tensor<1x64x49x64xf32>) -> tensor<1x64x49x2x32xf32>
	%33="ufront.transpose"(%32){perms=[0, 1, 3, 2, 4]}:(tensor<1x64x49x2x32xf32>) -> tensor<1x64x2x49x32xf32>
	%34="ufront.reshape"(%30){shape=[1, 64, 49, 2, 32]}:(tensor<1x64x49x64xf32>) -> tensor<1x64x49x2x32xf32>
	%35="ufront.transpose"(%34){perms=[0, 1, 3, 2, 4]}:(tensor<1x64x49x2x32xf32>) -> tensor<1x64x2x49x32xf32>
	%36="ufront.reshape"(%31){shape=[1, 64, 49, 2, 32]}:(tensor<1x64x49x64xf32>) -> tensor<1x64x49x2x32xf32>
	%37="ufront.transpose"(%36){perms=[0, 1, 3, 2, 4]}:(tensor<1x64x49x2x32xf32>) -> tensor<1x64x2x49x32xf32>
	%38="ufront.smultiply"(%35){scalar=0.125}:(tensor<1x64x2x49x32xf32>) -> tensor<1x64x2x49x32xf32>
	%39="ufront.call"(%33, %38){addargs=[('arg1', 'B G H I D, B G H J D -> B G H I J')], func=einsum}:(tensor<1x64x2x49x32xf32>, tensor<1x64x2x49x32xf32>) -> tensor<1x64x2x49x49xf32>
	%40="ufront.parameter"(%blocks.0.layers.0.layers.window_attention.attn_layer.1.relative_position_bias_table){dtype="Float", initializer="…", requires_grad=true}:(tensor<169x2xf32>) -> tensor<169x2xf32>
	%41="ufront.tensor"(%_tensor_constant0){dtype="Int64", initializer="…", requires_grad=false}:(tensor<2401xf32>) -> tensor<2401xf32>
	%42="ufront.slice"(%40, %41){output_shape=[2401, 2]}:(tensor<169x2xf32>, tensor<2401xf32>) -> tensor<2401x2xf32>
	%43="ufront.reshape"(%42){shape=[49, 49, 2]}:(tensor<2401x2xf32>) -> tensor<49x49x2xf32>
	%44="ufront.transpose"(%43){perms=[2, 0, 1]}:(tensor<49x49x2xf32>) -> tensor<2x49x49xf32>
	%45="ufront.reshape"(%44){shape=[1, 2, 49, 49]}:(tensor<2x49x49xf32>) -> tensor<1x2x49x49xf32>
	%46="ufront.add"(%39, %45):(tensor<1x64x2x49x49xf32>, tensor<1x2x49x49xf32>) -> tensor<1x64x2x49x49xf32>
	%47="ufront.softmax"(%46):(tensor<1x64x2x49x49xf32>) -> tensor<1x64x2x49x49xf32>
	%48="ufront.call"(%47, %37){addargs=[('arg1', 'B G H I J, B G H J D -> B G H I D')], func=einsum}:(tensor<1x64x2x49x49xf32>, tensor<1x64x2x49x32xf32>) -> tensor<1x64x2x49x32xf32>
	%49="ufront.transpose"(%48){perms=[0, 1, 3, 2, 4]}:(tensor<1x64x2x49x32xf32>) -> tensor<1x64x49x2x32xf32>
	%50="ufront.reshape"(%49){shape=[1, 64, 49, 64]}:(tensor<1x64x49x2x32xf32>) -> tensor<1x64x49x64xf32>
	%51="ufront.linear"(%50):(tensor<1x64x49x64xf32>) -> tensor<1x64x49x64xf32>
	%52="ufront.dropout"(%51){rate=0.0, seed=0}:(tensor<1x64x49x64xf32>) -> tensor<1x64x49x64xf32>
	%53="ufront.call"(%52){addargs=[('p', 0.0), ('mode', 'row'), ('training', False)], func=stochastic_depth}:(tensor<1x64x49x64xf32>) -> tensor<1x64x49x64xf32>
	%54="ufront.add"(%26, %53):(tensor<1x64x49x64xf32>, tensor<1x64x49x64xf32>) -> tensor<1x64x49x64xf32>
	%55="ufront.layer_norm"(%54){elementwise_affine=true, eps=0.00001, normalized_shape=[64]}:(tensor<1x64x49x64xf32>) -> tensor<1x64x49x64xf32>
	%56="ufront.linear"(%55):(tensor<1x64x49x64xf32>) -> tensor<1x64x49x256xf32>
	%57="ufront.gelu"(%56):(tensor<1x64x49x256xf32>) -> tensor<1x64x49x256xf32>
	%58="ufront.linear"(%57):(tensor<1x64x49x256xf32>) -> tensor<1x64x49x64xf32>
	%59="ufront.dropout"(%58){rate=0.0, seed=0}:(tensor<1x64x49x64xf32>) -> tensor<1x64x49x64xf32>
	%60="ufront.call"(%59){addargs=[('p', 0.0), ('mode', 'row'), ('training', False)], func=stochastic_depth}:(tensor<1x64x49x64xf32>) -> tensor<1x64x49x64xf32>
	%61="ufront.add"(%54, %60):(tensor<1x64x49x64xf32>, tensor<1x64x49x64xf32>) -> tensor<1x64x49x64xf32>
	%62="ufront.identity"(%61):(tensor<1x64x49x64xf32>) -> tensor<1x64x49x64xf32>
	%63="ufront.reshape"(%62){shape=[1, 8, 8, 7, 7, 64]}:(tensor<1x64x49x64xf32>) -> tensor<1x8x8x7x7x64xf32>
	%64="ufront.transpose"(%63){perms=[0, 5, 1, 3, 2, 4]}:(tensor<1x8x8x7x7x64xf32>) -> tensor<1x64x8x7x8x7xf32>
	%65="ufront.reshape"(%64){shape=[1, 64, 56, 56]}:(tensor<1x64x8x7x8x7xf32>) -> tensor<1x64x56x56xf32>
	%66="ufront.reshape"(%65){shape=[1, 64, 7, 8, 7, 8]}:(tensor<1x64x56x56xf32>) -> tensor<1x64x7x8x7x8xf32>
	%67="ufront.transpose"(%66){perms=[0, 2, 4, 3, 5, 1]}:(tensor<1x64x7x8x7x8xf32>) -> tensor<1x7x7x8x8x64xf32>
	%68="ufront.reshape"(%67){shape=[1, 49, 64, 64]}:(tensor<1x7x7x8x8x64xf32>) -> tensor<1x49x64x64xf32>
	%69="ufront.call"(%68){addargs=[('arg2', -2), ('arg3', -3)], func=swapaxes}:(tensor<1x49x64x64xf32>) -> tensor<1x64x49x64xf32>
	%70="ufront.layer_norm"(%69){elementwise_affine=true, eps=0.00001, normalized_shape=[64]}:(tensor<1x64x49x64xf32>) -> tensor<1x64x49x64xf32>
	%71="ufront.linear"(%70):(tensor<1x64x49x64xf32>) -> tensor<1x64x49x192xf32>
	%72, %73, %74="ufront.chunk"(%71){axis=-1, sizes=3}:(tensor<1x64x49x192xf32>) -> (tensor<1x64x49x64xf32>, tensor<1x64x49x64xf32>, tensor<1x64x49x64xf32>)
	%75="ufront.reshape"(%72){shape=[1, 64, 49, 2, 32]}:(tensor<1x64x49x64xf32>) -> tensor<1x64x49x2x32xf32>
	%76="ufront.transpose"(%75){perms=[0, 1, 3, 2, 4]}:(tensor<1x64x49x2x32xf32>) -> tensor<1x64x2x49x32xf32>
	%77="ufront.reshape"(%73){shape=[1, 64, 49, 2, 32]}:(tensor<1x64x49x64xf32>) -> tensor<1x64x49x2x32xf32>
	%78="ufront.transpose"(%77){perms=[0, 1, 3, 2, 4]}:(tensor<1x64x49x2x32xf32>) -> tensor<1x64x2x49x32xf32>
	%79="ufront.reshape"(%74){shape=[1, 64, 49, 2, 32]}:(tensor<1x64x49x64xf32>) -> tensor<1x64x49x2x32xf32>
	%80="ufront.transpose"(%79){perms=[0, 1, 3, 2, 4]}:(tensor<1x64x49x2x32xf32>) -> tensor<1x64x2x49x32xf32>
	%81="ufront.smultiply"(%78){scalar=0.125}:(tensor<1x64x2x49x32xf32>) -> tensor<1x64x2x49x32xf32>
	%82="ufront.call"(%76, %81){addargs=[('arg1', 'B G H I D, B G H J D -> B G H I J')], func=einsum}:(tensor<1x64x2x49x32xf32>, tensor<1x64x2x49x32xf32>) -> tensor<1x64x2x49x49xf32>
	%83="ufront.parameter"(%blocks.0.layers.0.layers.grid_attention.attn_layer.1.relative_position_bias_table){dtype="Float", initializer="…", requires_grad=true}:(tensor<169x2xf32>) -> tensor<169x2xf32>
	%84="ufront.tensor"(%_tensor_constant1){dtype="Int64", initializer="…", requires_grad=false}:(tensor<2401xf32>) -> tensor<2401xf32>
	%85="ufront.slice"(%83, %84){output_shape=[2401, 2]}:(tensor<169x2xf32>, tensor<2401xf32>) -> tensor<2401x2xf32>
	%86="ufront.reshape"(%85){shape=[49, 49, 2]}:(tensor<2401x2xf32>) -> tensor<49x49x2xf32>
	%87="ufront.transpose"(%86){perms=[2, 0, 1]}:(tensor<49x49x2xf32>) -> tensor<2x49x49xf32>
	%88="ufront.reshape"(%87){shape=[1, 2, 49, 49]}:(tensor<2x49x49xf32>) -> tensor<1x2x49x49xf32>
	%89="ufront.add"(%82, %88):(tensor<1x64x2x49x49xf32>, tensor<1x2x49x49xf32>) -> tensor<1x64x2x49x49xf32>
	%90="ufront.softmax"(%89):(tensor<1x64x2x49x49xf32>) -> tensor<1x64x2x49x49xf32>
	%91="ufront.call"(%90, %80){addargs=[('arg1', 'B G H I J, B G H J D -> B G H I D')], func=einsum}:(tensor<1x64x2x49x49xf32>, tensor<1x64x2x49x32xf32>) -> tensor<1x64x2x49x32xf32>
	%92="ufront.transpose"(%91){perms=[0, 1, 3, 2, 4]}:(tensor<1x64x2x49x32xf32>) -> tensor<1x64x49x2x32xf32>
	%93="ufront.reshape"(%92){shape=[1, 64, 49, 64]}:(tensor<1x64x49x2x32xf32>) -> tensor<1x64x49x64xf32>
	%94="ufront.linear"(%93):(tensor<1x64x49x64xf32>) -> tensor<1x64x49x64xf32>
	%95="ufront.dropout"(%94){rate=0.0, seed=0}:(tensor<1x64x49x64xf32>) -> tensor<1x64x49x64xf32>
	%96="ufront.call"(%95){addargs=[('p', 0.0), ('mode', 'row'), ('training', False)], func=stochastic_depth}:(tensor<1x64x49x64xf32>) -> tensor<1x64x49x64xf32>
	%97="ufront.add"(%69, %96):(tensor<1x64x49x64xf32>, tensor<1x64x49x64xf32>) -> tensor<1x64x49x64xf32>
	%98="ufront.layer_norm"(%97){elementwise_affine=true, eps=0.00001, normalized_shape=[64]}:(tensor<1x64x49x64xf32>) -> tensor<1x64x49x64xf32>
	%99="ufront.linear"(%98):(tensor<1x64x49x64xf32>) -> tensor<1x64x49x256xf32>
	%100="ufront.gelu"(%99):(tensor<1x64x49x256xf32>) -> tensor<1x64x49x256xf32>
	%101="ufront.linear"(%100):(tensor<1x64x49x256xf32>) -> tensor<1x64x49x64xf32>
	%102="ufront.dropout"(%101){rate=0.0, seed=0}:(tensor<1x64x49x64xf32>) -> tensor<1x64x49x64xf32>
	%103="ufront.call"(%102){addargs=[('p', 0.0), ('mode', 'row'), ('training', False)], func=stochastic_depth}:(tensor<1x64x49x64xf32>) -> tensor<1x64x49x64xf32>
	%104="ufront.add"(%97, %103):(tensor<1x64x49x64xf32>, tensor<1x64x49x64xf32>) -> tensor<1x64x49x64xf32>
	%105="ufront.call"(%104){addargs=[('arg2', -2), ('arg3', -3)], func=swapaxes}:(tensor<1x64x49x64xf32>) -> tensor<1x49x64x64xf32>
	%106="ufront.reshape"(%105){shape=[1, 7, 7, 8, 8, 64]}:(tensor<1x49x64x64xf32>) -> tensor<1x7x7x8x8x64xf32>
	%107="ufront.transpose"(%106){perms=[0, 5, 1, 3, 2, 4]}:(tensor<1x7x7x8x8x64xf32>) -> tensor<1x64x7x8x7x8xf32>
	%108="ufront.reshape"(%107){shape=[1, 64, 56, 56]}:(tensor<1x64x7x8x7x8xf32>) -> tensor<1x64x56x56xf32>
	%109="ufront.identity"(%108):(tensor<1x64x56x56xf32>) -> tensor<1x64x56x56xf32>
	%110="ufront.batchnorm"(%108){affine=true, eps=0.001, momentum=0.99, track_running_stats=true}:(tensor<1x64x56x56xf32>) -> tensor<1x64x56x56xf32>
	%111="ufront.conv2d"(%110){groups=1, kernel=[1, 1], pad=[0, 0], stride=[1, 1]}:(tensor<1x64x56x56xf32>) -> tensor<1x256x56x56xf32>
	%112="ufront.batchnorm"(%111){affine=true, eps=0.001, momentum=0.99, track_running_stats=true}:(tensor<1x256x56x56xf32>) -> tensor<1x256x56x56xf32>
	%113="ufront.gelu"(%112):(tensor<1x256x56x56xf32>) -> tensor<1x256x56x56xf32>
	%114="ufront.conv2d"(%113){groups=256, kernel=[3, 3], pad=[1, 1], stride=[1, 1]}:(tensor<1x256x56x56xf32>) -> tensor<1x256x56x56xf32>
	%115="ufront.batchnorm"(%114){affine=true, eps=0.001, momentum=0.99, track_running_stats=true}:(tensor<1x256x56x56xf32>) -> tensor<1x256x56x56xf32>
	%116="ufront.gelu"(%115):(tensor<1x256x56x56xf32>) -> tensor<1x256x56x56xf32>
	%117="ufront.pool2d"(%116){output_size=[1, 1], pool_type="POOL_ADAPTIVE"}:(tensor<1x256x56x56xf32>) -> tensor<1x256x1x1xf32>
	%118="ufront.conv2d"(%117){groups=1, kernel=[1, 1], pad=[0, 0], stride=[1, 1]}:(tensor<1x256x1x1xf32>) -> tensor<1x16x1x1xf32>
	%119="ufront.silu"(%118):(tensor<1x16x1x1xf32>) -> tensor<1x16x1x1xf32>
	%120="ufront.conv2d"(%119){groups=1, kernel=[1, 1], pad=[0, 0], stride=[1, 1]}:(tensor<1x16x1x1xf32>) -> tensor<1x256x1x1xf32>
	%121="ufront.sigmoid"(%120):(tensor<1x256x1x1xf32>) -> tensor<1x256x1x1xf32>
	%122="ufront.multiply"(%121, %116):(tensor<1x256x1x1xf32>, tensor<1x256x56x56xf32>) -> tensor<1x256x56x56xf32>
	%123="ufront.conv2d"(%122){groups=1, kernel=[1, 1], pad=[0, 0], stride=[1, 1]}:(tensor<1x256x56x56xf32>) -> tensor<1x64x56x56xf32>
	%124="ufront.call"(%123){addargs=[('p', 0.02), ('mode', 'row'), ('training', False)], func=stochastic_depth}:(tensor<1x64x56x56xf32>) -> tensor<1x64x56x56xf32>
	%125="ufront.add"(%109, %124):(tensor<1x64x56x56xf32>, tensor<1x64x56x56xf32>) -> tensor<1x64x56x56xf32>
	%126="ufront.reshape"(%125){shape=[1, 64, 8, 7, 8, 7]}:(tensor<1x64x56x56xf32>) -> tensor<1x64x8x7x8x7xf32>
	%127="ufront.transpose"(%126){perms=[0, 2, 4, 3, 5, 1]}:(tensor<1x64x8x7x8x7xf32>) -> tensor<1x8x8x7x7x64xf32>
	%128="ufront.reshape"(%127){shape=[1, 64, 49, 64]}:(tensor<1x8x8x7x7x64xf32>) -> tensor<1x64x49x64xf32>
	%129="ufront.identity"(%128):(tensor<1x64x49x64xf32>) -> tensor<1x64x49x64xf32>
	%130="ufront.layer_norm"(%129){elementwise_affine=true, eps=0.00001, normalized_shape=[64]}:(tensor<1x64x49x64xf32>) -> tensor<1x64x49x64xf32>
	%131="ufront.linear"(%130):(tensor<1x64x49x64xf32>) -> tensor<1x64x49x192xf32>
	%132, %133, %134="ufront.chunk"(%131){axis=-1, sizes=3}:(tensor<1x64x49x192xf32>) -> (tensor<1x64x49x64xf32>, tensor<1x64x49x64xf32>, tensor<1x64x49x64xf32>)
	%135="ufront.reshape"(%132){shape=[1, 64, 49, 2, 32]}:(tensor<1x64x49x64xf32>) -> tensor<1x64x49x2x32xf32>
	%136="ufront.transpose"(%135){perms=[0, 1, 3, 2, 4]}:(tensor<1x64x49x2x32xf32>) -> tensor<1x64x2x49x32xf32>
	%137="ufront.reshape"(%133){shape=[1, 64, 49, 2, 32]}:(tensor<1x64x49x64xf32>) -> tensor<1x64x49x2x32xf32>
	%138="ufront.transpose"(%137){perms=[0, 1, 3, 2, 4]}:(tensor<1x64x49x2x32xf32>) -> tensor<1x64x2x49x32xf32>
	%139="ufront.reshape"(%134){shape=[1, 64, 49, 2, 32]}:(tensor<1x64x49x64xf32>) -> tensor<1x64x49x2x32xf32>
	%140="ufront.transpose"(%139){perms=[0, 1, 3, 2, 4]}:(tensor<1x64x49x2x32xf32>) -> tensor<1x64x2x49x32xf32>
	%141="ufront.smultiply"(%138){scalar=0.125}:(tensor<1x64x2x49x32xf32>) -> tensor<1x64x2x49x32xf32>
	%142="ufront.call"(%136, %141){addargs=[('arg1', 'B G H I D, B G H J D -> B G H I J')], func=einsum}:(tensor<1x64x2x49x32xf32>, tensor<1x64x2x49x32xf32>) -> tensor<1x64x2x49x49xf32>
	%143="ufront.parameter"(%blocks.0.layers.1.layers.window_attention.attn_layer.1.relative_position_bias_table){dtype="Float", initializer="…", requires_grad=true}:(tensor<169x2xf32>) -> tensor<169x2xf32>
	%144="ufront.tensor"(%_tensor_constant2){dtype="Int64", initializer="…", requires_grad=false}:(tensor<2401xf32>) -> tensor<2401xf32>
	%145="ufront.slice"(%143, %144){output_shape=[2401, 2]}:(tensor<169x2xf32>, tensor<2401xf32>) -> tensor<2401x2xf32>
	%146="ufront.reshape"(%145){shape=[49, 49, 2]}:(tensor<2401x2xf32>) -> tensor<49x49x2xf32>
	%147="ufront.transpose"(%146){perms=[2, 0, 1]}:(tensor<49x49x2xf32>) -> tensor<2x49x49xf32>
	%148="ufront.reshape"(%147){shape=[1, 2, 49, 49]}:(tensor<2x49x49xf32>) -> tensor<1x2x49x49xf32>
	%149="ufront.add"(%142, %148):(tensor<1x64x2x49x49xf32>, tensor<1x2x49x49xf32>) -> tensor<1x64x2x49x49xf32>
	%150="ufront.softmax"(%149):(tensor<1x64x2x49x49xf32>) -> tensor<1x64x2x49x49xf32>
	%151="ufront.call"(%150, %140){addargs=[('arg1', 'B G H I J, B G H J D -> B G H I D')], func=einsum}:(tensor<1x64x2x49x49xf32>, tensor<1x64x2x49x32xf32>) -> tensor<1x64x2x49x32xf32>
	%152="ufront.transpose"(%151){perms=[0, 1, 3, 2, 4]}:(tensor<1x64x2x49x32xf32>) -> tensor<1x64x49x2x32xf32>
	%153="ufront.reshape"(%152){shape=[1, 64, 49, 64]}:(tensor<1x64x49x2x32xf32>) -> tensor<1x64x49x64xf32>
	%154="ufront.linear"(%153):(tensor<1x64x49x64xf32>) -> tensor<1x64x49x64xf32>
	%155="ufront.dropout"(%154){rate=0.0, seed=0}:(tensor<1x64x49x64xf32>) -> tensor<1x64x49x64xf32>
	%156="ufront.call"(%155){addargs=[('p', 0.02), ('mode', 'row'), ('training', False)], func=stochastic_depth}:(tensor<1x64x49x64xf32>) -> tensor<1x64x49x64xf32>
	%157="ufront.add"(%129, %156):(tensor<1x64x49x64xf32>, tensor<1x64x49x64xf32>) -> tensor<1x64x49x64xf32>
	%158="ufront.layer_norm"(%157){elementwise_affine=true, eps=0.00001, normalized_shape=[64]}:(tensor<1x64x49x64xf32>) -> tensor<1x64x49x64xf32>
	%159="ufront.linear"(%158):(tensor<1x64x49x64xf32>) -> tensor<1x64x49x256xf32>
	%160="ufront.gelu"(%159):(tensor<1x64x49x256xf32>) -> tensor<1x64x49x256xf32>
	%161="ufront.linear"(%160):(tensor<1x64x49x256xf32>) -> tensor<1x64x49x64xf32>
	%162="ufront.dropout"(%161){rate=0.0, seed=0}:(tensor<1x64x49x64xf32>) -> tensor<1x64x49x64xf32>
	%163="ufront.call"(%162){addargs=[('p', 0.02), ('mode', 'row'), ('training', False)], func=stochastic_depth}:(tensor<1x64x49x64xf32>) -> tensor<1x64x49x64xf32>
	%164="ufront.add"(%157, %163):(tensor<1x64x49x64xf32>, tensor<1x64x49x64xf32>) -> tensor<1x64x49x64xf32>
	%165="ufront.identity"(%164):(tensor<1x64x49x64xf32>) -> tensor<1x64x49x64xf32>
	%166="ufront.reshape"(%165){shape=[1, 8, 8, 7, 7, 64]}:(tensor<1x64x49x64xf32>) -> tensor<1x8x8x7x7x64xf32>
	%167="ufront.transpose"(%166){perms=[0, 5, 1, 3, 2, 4]}:(tensor<1x8x8x7x7x64xf32>) -> tensor<1x64x8x7x8x7xf32>
	%168="ufront.reshape"(%167){shape=[1, 64, 56, 56]}:(tensor<1x64x8x7x8x7xf32>) -> tensor<1x64x56x56xf32>
	%169="ufront.reshape"(%168){shape=[1, 64, 7, 8, 7, 8]}:(tensor<1x64x56x56xf32>) -> tensor<1x64x7x8x7x8xf32>
	%170="ufront.transpose"(%169){perms=[0, 2, 4, 3, 5, 1]}:(tensor<1x64x7x8x7x8xf32>) -> tensor<1x7x7x8x8x64xf32>
	%171="ufront.reshape"(%170){shape=[1, 49, 64, 64]}:(tensor<1x7x7x8x8x64xf32>) -> tensor<1x49x64x64xf32>
	%172="ufront.call"(%171){addargs=[('arg2', -2), ('arg3', -3)], func=swapaxes}:(tensor<1x49x64x64xf32>) -> tensor<1x64x49x64xf32>
	%173="ufront.layer_norm"(%172){elementwise_affine=true, eps=0.00001, normalized_shape=[64]}:(tensor<1x64x49x64xf32>) -> tensor<1x64x49x64xf32>
	%174="ufront.linear"(%173):(tensor<1x64x49x64xf32>) -> tensor<1x64x49x192xf32>
	%175, %176, %177="ufront.chunk"(%174){axis=-1, sizes=3}:(tensor<1x64x49x192xf32>) -> (tensor<1x64x49x64xf32>, tensor<1x64x49x64xf32>, tensor<1x64x49x64xf32>)
	%178="ufront.reshape"(%175){shape=[1, 64, 49, 2, 32]}:(tensor<1x64x49x64xf32>) -> tensor<1x64x49x2x32xf32>
	%179="ufront.transpose"(%178){perms=[0, 1, 3, 2, 4]}:(tensor<1x64x49x2x32xf32>) -> tensor<1x64x2x49x32xf32>
	%180="ufront.reshape"(%176){shape=[1, 64, 49, 2, 32]}:(tensor<1x64x49x64xf32>) -> tensor<1x64x49x2x32xf32>
	%181="ufront.transpose"(%180){perms=[0, 1, 3, 2, 4]}:(tensor<1x64x49x2x32xf32>) -> tensor<1x64x2x49x32xf32>
	%182="ufront.reshape"(%177){shape=[1, 64, 49, 2, 32]}:(tensor<1x64x49x64xf32>) -> tensor<1x64x49x2x32xf32>
	%183="ufront.transpose"(%182){perms=[0, 1, 3, 2, 4]}:(tensor<1x64x49x2x32xf32>) -> tensor<1x64x2x49x32xf32>
	%184="ufront.smultiply"(%181){scalar=0.125}:(tensor<1x64x2x49x32xf32>) -> tensor<1x64x2x49x32xf32>
	%185="ufront.call"(%179, %184){addargs=[('arg1', 'B G H I D, B G H J D -> B G H I J')], func=einsum}:(tensor<1x64x2x49x32xf32>, tensor<1x64x2x49x32xf32>) -> tensor<1x64x2x49x49xf32>
	%186="ufront.parameter"(%blocks.0.layers.1.layers.grid_attention.attn_layer.1.relative_position_bias_table){dtype="Float", initializer="…", requires_grad=true}:(tensor<169x2xf32>) -> tensor<169x2xf32>
	%187="ufront.tensor"(%_tensor_constant3){dtype="Int64", initializer="…", requires_grad=false}:(tensor<2401xf32>) -> tensor<2401xf32>
	%188="ufront.slice"(%186, %187){output_shape=[2401, 2]}:(tensor<169x2xf32>, tensor<2401xf32>) -> tensor<2401x2xf32>
	%189="ufront.reshape"(%188){shape=[49, 49, 2]}:(tensor<2401x2xf32>) -> tensor<49x49x2xf32>
	%190="ufront.transpose"(%189){perms=[2, 0, 1]}:(tensor<49x49x2xf32>) -> tensor<2x49x49xf32>
	%191="ufront.reshape"(%190){shape=[1, 2, 49, 49]}:(tensor<2x49x49xf32>) -> tensor<1x2x49x49xf32>
	%192="ufront.add"(%185, %191):(tensor<1x64x2x49x49xf32>, tensor<1x2x49x49xf32>) -> tensor<1x64x2x49x49xf32>
	%193="ufront.softmax"(%192):(tensor<1x64x2x49x49xf32>) -> tensor<1x64x2x49x49xf32>
	%194="ufront.call"(%193, %183){addargs=[('arg1', 'B G H I J, B G H J D -> B G H I D')], func=einsum}:(tensor<1x64x2x49x49xf32>, tensor<1x64x2x49x32xf32>) -> tensor<1x64x2x49x32xf32>
	%195="ufront.transpose"(%194){perms=[0, 1, 3, 2, 4]}:(tensor<1x64x2x49x32xf32>) -> tensor<1x64x49x2x32xf32>
	%196="ufront.reshape"(%195){shape=[1, 64, 49, 64]}:(tensor<1x64x49x2x32xf32>) -> tensor<1x64x49x64xf32>
	%197="ufront.linear"(%196):(tensor<1x64x49x64xf32>) -> tensor<1x64x49x64xf32>
	%198="ufront.dropout"(%197){rate=0.0, seed=0}:(tensor<1x64x49x64xf32>) -> tensor<1x64x49x64xf32>
	%199="ufront.call"(%198){addargs=[('p', 0.02), ('mode', 'row'), ('training', False)], func=stochastic_depth}:(tensor<1x64x49x64xf32>) -> tensor<1x64x49x64xf32>
	%200="ufront.add"(%172, %199):(tensor<1x64x49x64xf32>, tensor<1x64x49x64xf32>) -> tensor<1x64x49x64xf32>
	%201="ufront.layer_norm"(%200){elementwise_affine=true, eps=0.00001, normalized_shape=[64]}:(tensor<1x64x49x64xf32>) -> tensor<1x64x49x64xf32>
	%202="ufront.linear"(%201):(tensor<1x64x49x64xf32>) -> tensor<1x64x49x256xf32>
	%203="ufront.gelu"(%202):(tensor<1x64x49x256xf32>) -> tensor<1x64x49x256xf32>
	%204="ufront.linear"(%203):(tensor<1x64x49x256xf32>) -> tensor<1x64x49x64xf32>
	%205="ufront.dropout"(%204){rate=0.0, seed=0}:(tensor<1x64x49x64xf32>) -> tensor<1x64x49x64xf32>
	%206="ufront.call"(%205){addargs=[('p', 0.02), ('mode', 'row'), ('training', False)], func=stochastic_depth}:(tensor<1x64x49x64xf32>) -> tensor<1x64x49x64xf32>
	%207="ufront.add"(%200, %206):(tensor<1x64x49x64xf32>, tensor<1x64x49x64xf32>) -> tensor<1x64x49x64xf32>
	%208="ufront.call"(%207){addargs=[('arg2', -2), ('arg3', -3)], func=swapaxes}:(tensor<1x64x49x64xf32>) -> tensor<1x49x64x64xf32>
	%209="ufront.reshape"(%208){shape=[1, 7, 7, 8, 8, 64]}:(tensor<1x49x64x64xf32>) -> tensor<1x7x7x8x8x64xf32>
	%210="ufront.transpose"(%209){perms=[0, 5, 1, 3, 2, 4]}:(tensor<1x7x7x8x8x64xf32>) -> tensor<1x64x7x8x7x8xf32>
	%211="ufront.reshape"(%210){shape=[1, 64, 56, 56]}:(tensor<1x64x7x8x7x8xf32>) -> tensor<1x64x56x56xf32>
	%212="ufront.pool2d"(%211){kernel=[3, 3], pad=[1, 1], pool_type="POOL_AVG", stride=[2, 2]}:(tensor<1x64x56x56xf32>) -> tensor<1x64x28x28xf32>
	%213="ufront.conv2d"(%212){groups=1, kernel=[1, 1], pad=[0, 0], stride=[1, 1]}:(tensor<1x64x28x28xf32>) -> tensor<1x128x28x28xf32>
	%214="ufront.batchnorm"(%211){affine=true, eps=0.001, momentum=0.99, track_running_stats=true}:(tensor<1x64x56x56xf32>) -> tensor<1x64x56x56xf32>
	%215="ufront.conv2d"(%214){groups=1, kernel=[1, 1], pad=[0, 0], stride=[1, 1]}:(tensor<1x64x56x56xf32>) -> tensor<1x512x56x56xf32>
	%216="ufront.batchnorm"(%215){affine=true, eps=0.001, momentum=0.99, track_running_stats=true}:(tensor<1x512x56x56xf32>) -> tensor<1x512x56x56xf32>
	%217="ufront.gelu"(%216):(tensor<1x512x56x56xf32>) -> tensor<1x512x56x56xf32>
	%218="ufront.conv2d"(%217){groups=512, kernel=[3, 3], pad=[1, 1], stride=[2, 2]}:(tensor<1x512x56x56xf32>) -> tensor<1x512x28x28xf32>
	%219="ufront.batchnorm"(%218){affine=true, eps=0.001, momentum=0.99, track_running_stats=true}:(tensor<1x512x28x28xf32>) -> tensor<1x512x28x28xf32>
	%220="ufront.gelu"(%219):(tensor<1x512x28x28xf32>) -> tensor<1x512x28x28xf32>
	%221="ufront.pool2d"(%220){output_size=[1, 1], pool_type="POOL_ADAPTIVE"}:(tensor<1x512x28x28xf32>) -> tensor<1x512x1x1xf32>
	%222="ufront.conv2d"(%221){groups=1, kernel=[1, 1], pad=[0, 0], stride=[1, 1]}:(tensor<1x512x1x1xf32>) -> tensor<1x32x1x1xf32>
	%223="ufront.silu"(%222):(tensor<1x32x1x1xf32>) -> tensor<1x32x1x1xf32>
	%224="ufront.conv2d"(%223){groups=1, kernel=[1, 1], pad=[0, 0], stride=[1, 1]}:(tensor<1x32x1x1xf32>) -> tensor<1x512x1x1xf32>
	%225="ufront.sigmoid"(%224):(tensor<1x512x1x1xf32>) -> tensor<1x512x1x1xf32>
	%226="ufront.multiply"(%225, %220):(tensor<1x512x1x1xf32>, tensor<1x512x28x28xf32>) -> tensor<1x512x28x28xf32>
	%227="ufront.conv2d"(%226){groups=1, kernel=[1, 1], pad=[0, 0], stride=[1, 1]}:(tensor<1x512x28x28xf32>) -> tensor<1x128x28x28xf32>
	%228="ufront.call"(%227){addargs=[('p', 0.04), ('mode', 'row'), ('training', False)], func=stochastic_depth}:(tensor<1x128x28x28xf32>) -> tensor<1x128x28x28xf32>
	%229="ufront.add"(%213, %228):(tensor<1x128x28x28xf32>, tensor<1x128x28x28xf32>) -> tensor<1x128x28x28xf32>
	%230="ufront.reshape"(%229){shape=[1, 128, 4, 7, 4, 7]}:(tensor<1x128x28x28xf32>) -> tensor<1x128x4x7x4x7xf32>
	%231="ufront.transpose"(%230){perms=[0, 2, 4, 3, 5, 1]}:(tensor<1x128x4x7x4x7xf32>) -> tensor<1x4x4x7x7x128xf32>
	%232="ufront.reshape"(%231){shape=[1, 16, 49, 128]}:(tensor<1x4x4x7x7x128xf32>) -> tensor<1x16x49x128xf32>
	%233="ufront.identity"(%232):(tensor<1x16x49x128xf32>) -> tensor<1x16x49x128xf32>
	%234="ufront.layer_norm"(%233){elementwise_affine=true, eps=0.00001, normalized_shape=[128]}:(tensor<1x16x49x128xf32>) -> tensor<1x16x49x128xf32>
	%235="ufront.linear"(%234):(tensor<1x16x49x128xf32>) -> tensor<1x16x49x384xf32>
	%236, %237, %238="ufront.chunk"(%235){axis=-1, sizes=3}:(tensor<1x16x49x384xf32>) -> (tensor<1x16x49x128xf32>, tensor<1x16x49x128xf32>, tensor<1x16x49x128xf32>)
	%239="ufront.reshape"(%236){shape=[1, 16, 49, 4, 32]}:(tensor<1x16x49x128xf32>) -> tensor<1x16x49x4x32xf32>
	%240="ufront.transpose"(%239){perms=[0, 1, 3, 2, 4]}:(tensor<1x16x49x4x32xf32>) -> tensor<1x16x4x49x32xf32>
	%241="ufront.reshape"(%237){shape=[1, 16, 49, 4, 32]}:(tensor<1x16x49x128xf32>) -> tensor<1x16x49x4x32xf32>
	%242="ufront.transpose"(%241){perms=[0, 1, 3, 2, 4]}:(tensor<1x16x49x4x32xf32>) -> tensor<1x16x4x49x32xf32>
	%243="ufront.reshape"(%238){shape=[1, 16, 49, 4, 32]}:(tensor<1x16x49x128xf32>) -> tensor<1x16x49x4x32xf32>
	%244="ufront.transpose"(%243){perms=[0, 1, 3, 2, 4]}:(tensor<1x16x49x4x32xf32>) -> tensor<1x16x4x49x32xf32>
	%245="ufront.smultiply"(%242){scalar=0.08838834764831845}:(tensor<1x16x4x49x32xf32>) -> tensor<1x16x4x49x32xf32>
	%246="ufront.call"(%240, %245){addargs=[('arg1', 'B G H I D, B G H J D -> B G H I J')], func=einsum}:(tensor<1x16x4x49x32xf32>, tensor<1x16x4x49x32xf32>) -> tensor<1x16x4x49x49xf32>
	%247="ufront.parameter"(%blocks.1.layers.0.layers.window_attention.attn_layer.1.relative_position_bias_table){dtype="Float", initializer="…", requires_grad=true}:(tensor<169x4xf32>) -> tensor<169x4xf32>
	%248="ufront.tensor"(%_tensor_constant4){dtype="Int64", initializer="…", requires_grad=false}:(tensor<2401xf32>) -> tensor<2401xf32>
	%249="ufront.slice"(%247, %248){output_shape=[2401, 4]}:(tensor<169x4xf32>, tensor<2401xf32>) -> tensor<2401x4xf32>
	%250="ufront.reshape"(%249){shape=[49, 49, 4]}:(tensor<2401x4xf32>) -> tensor<49x49x4xf32>
	%251="ufront.transpose"(%250){perms=[2, 0, 1]}:(tensor<49x49x4xf32>) -> tensor<4x49x49xf32>
	%252="ufront.reshape"(%251){shape=[1, 4, 49, 49]}:(tensor<4x49x49xf32>) -> tensor<1x4x49x49xf32>
	%253="ufront.add"(%246, %252):(tensor<1x16x4x49x49xf32>, tensor<1x4x49x49xf32>) -> tensor<1x16x4x49x49xf32>
	%254="ufront.softmax"(%253):(tensor<1x16x4x49x49xf32>) -> tensor<1x16x4x49x49xf32>
	%255="ufront.call"(%254, %244){addargs=[('arg1', 'B G H I J, B G H J D -> B G H I D')], func=einsum}:(tensor<1x16x4x49x49xf32>, tensor<1x16x4x49x32xf32>) -> tensor<1x16x4x49x32xf32>
	%256="ufront.transpose"(%255){perms=[0, 1, 3, 2, 4]}:(tensor<1x16x4x49x32xf32>) -> tensor<1x16x49x4x32xf32>
	%257="ufront.reshape"(%256){shape=[1, 16, 49, 128]}:(tensor<1x16x49x4x32xf32>) -> tensor<1x16x49x128xf32>
	%258="ufront.linear"(%257):(tensor<1x16x49x128xf32>) -> tensor<1x16x49x128xf32>
	%259="ufront.dropout"(%258){rate=0.0, seed=0}:(tensor<1x16x49x128xf32>) -> tensor<1x16x49x128xf32>
	%260="ufront.call"(%259){addargs=[('p', 0.04), ('mode', 'row'), ('training', False)], func=stochastic_depth}:(tensor<1x16x49x128xf32>) -> tensor<1x16x49x128xf32>
	%261="ufront.add"(%233, %260):(tensor<1x16x49x128xf32>, tensor<1x16x49x128xf32>) -> tensor<1x16x49x128xf32>
	%262="ufront.layer_norm"(%261){elementwise_affine=true, eps=0.00001, normalized_shape=[128]}:(tensor<1x16x49x128xf32>) -> tensor<1x16x49x128xf32>
	%263="ufront.linear"(%262):(tensor<1x16x49x128xf32>) -> tensor<1x16x49x512xf32>
	%264="ufront.gelu"(%263):(tensor<1x16x49x512xf32>) -> tensor<1x16x49x512xf32>
	%265="ufront.linear"(%264):(tensor<1x16x49x512xf32>) -> tensor<1x16x49x128xf32>
	%266="ufront.dropout"(%265){rate=0.0, seed=0}:(tensor<1x16x49x128xf32>) -> tensor<1x16x49x128xf32>
	%267="ufront.call"(%266){addargs=[('p', 0.04), ('mode', 'row'), ('training', False)], func=stochastic_depth}:(tensor<1x16x49x128xf32>) -> tensor<1x16x49x128xf32>
	%268="ufront.add"(%261, %267):(tensor<1x16x49x128xf32>, tensor<1x16x49x128xf32>) -> tensor<1x16x49x128xf32>
	%269="ufront.identity"(%268):(tensor<1x16x49x128xf32>) -> tensor<1x16x49x128xf32>
	%270="ufront.reshape"(%269){shape=[1, 4, 4, 7, 7, 128]}:(tensor<1x16x49x128xf32>) -> tensor<1x4x4x7x7x128xf32>
	%271="ufront.transpose"(%270){perms=[0, 5, 1, 3, 2, 4]}:(tensor<1x4x4x7x7x128xf32>) -> tensor<1x128x4x7x4x7xf32>
	%272="ufront.reshape"(%271){shape=[1, 128, 28, 28]}:(tensor<1x128x4x7x4x7xf32>) -> tensor<1x128x28x28xf32>
	%273="ufront.reshape"(%272){shape=[1, 128, 7, 4, 7, 4]}:(tensor<1x128x28x28xf32>) -> tensor<1x128x7x4x7x4xf32>
	%274="ufront.transpose"(%273){perms=[0, 2, 4, 3, 5, 1]}:(tensor<1x128x7x4x7x4xf32>) -> tensor<1x7x7x4x4x128xf32>
	%275="ufront.reshape"(%274){shape=[1, 49, 16, 128]}:(tensor<1x7x7x4x4x128xf32>) -> tensor<1x49x16x128xf32>
	%276="ufront.call"(%275){addargs=[('arg2', -2), ('arg3', -3)], func=swapaxes}:(tensor<1x49x16x128xf32>) -> tensor<1x16x49x128xf32>
	%277="ufront.layer_norm"(%276){elementwise_affine=true, eps=0.00001, normalized_shape=[128]}:(tensor<1x16x49x128xf32>) -> tensor<1x16x49x128xf32>
	%278="ufront.linear"(%277):(tensor<1x16x49x128xf32>) -> tensor<1x16x49x384xf32>
	%279, %280, %281="ufront.chunk"(%278){axis=-1, sizes=3}:(tensor<1x16x49x384xf32>) -> (tensor<1x16x49x128xf32>, tensor<1x16x49x128xf32>, tensor<1x16x49x128xf32>)
	%282="ufront.reshape"(%279){shape=[1, 16, 49, 4, 32]}:(tensor<1x16x49x128xf32>) -> tensor<1x16x49x4x32xf32>
	%283="ufront.transpose"(%282){perms=[0, 1, 3, 2, 4]}:(tensor<1x16x49x4x32xf32>) -> tensor<1x16x4x49x32xf32>
	%284="ufront.reshape"(%280){shape=[1, 16, 49, 4, 32]}:(tensor<1x16x49x128xf32>) -> tensor<1x16x49x4x32xf32>
	%285="ufront.transpose"(%284){perms=[0, 1, 3, 2, 4]}:(tensor<1x16x49x4x32xf32>) -> tensor<1x16x4x49x32xf32>
	%286="ufront.reshape"(%281){shape=[1, 16, 49, 4, 32]}:(tensor<1x16x49x128xf32>) -> tensor<1x16x49x4x32xf32>
	%287="ufront.transpose"(%286){perms=[0, 1, 3, 2, 4]}:(tensor<1x16x49x4x32xf32>) -> tensor<1x16x4x49x32xf32>
	%288="ufront.smultiply"(%285){scalar=0.08838834764831845}:(tensor<1x16x4x49x32xf32>) -> tensor<1x16x4x49x32xf32>
	%289="ufront.call"(%283, %288){addargs=[('arg1', 'B G H I D, B G H J D -> B G H I J')], func=einsum}:(tensor<1x16x4x49x32xf32>, tensor<1x16x4x49x32xf32>) -> tensor<1x16x4x49x49xf32>
	%290="ufront.parameter"(%blocks.1.layers.0.layers.grid_attention.attn_layer.1.relative_position_bias_table){dtype="Float", initializer="…", requires_grad=true}:(tensor<169x4xf32>) -> tensor<169x4xf32>
	%291="ufront.tensor"(%_tensor_constant5){dtype="Int64", initializer="…", requires_grad=false}:(tensor<2401xf32>) -> tensor<2401xf32>
	%292="ufront.slice"(%290, %291){output_shape=[2401, 4]}:(tensor<169x4xf32>, tensor<2401xf32>) -> tensor<2401x4xf32>
	%293="ufront.reshape"(%292){shape=[49, 49, 4]}:(tensor<2401x4xf32>) -> tensor<49x49x4xf32>
	%294="ufront.transpose"(%293){perms=[2, 0, 1]}:(tensor<49x49x4xf32>) -> tensor<4x49x49xf32>
	%295="ufront.reshape"(%294){shape=[1, 4, 49, 49]}:(tensor<4x49x49xf32>) -> tensor<1x4x49x49xf32>
	%296="ufront.add"(%289, %295):(tensor<1x16x4x49x49xf32>, tensor<1x4x49x49xf32>) -> tensor<1x16x4x49x49xf32>
	%297="ufront.softmax"(%296):(tensor<1x16x4x49x49xf32>) -> tensor<1x16x4x49x49xf32>
	%298="ufront.call"(%297, %287){addargs=[('arg1', 'B G H I J, B G H J D -> B G H I D')], func=einsum}:(tensor<1x16x4x49x49xf32>, tensor<1x16x4x49x32xf32>) -> tensor<1x16x4x49x32xf32>
	%299="ufront.transpose"(%298){perms=[0, 1, 3, 2, 4]}:(tensor<1x16x4x49x32xf32>) -> tensor<1x16x49x4x32xf32>
	%300="ufront.reshape"(%299){shape=[1, 16, 49, 128]}:(tensor<1x16x49x4x32xf32>) -> tensor<1x16x49x128xf32>
	%301="ufront.linear"(%300):(tensor<1x16x49x128xf32>) -> tensor<1x16x49x128xf32>
	%302="ufront.dropout"(%301){rate=0.0, seed=0}:(tensor<1x16x49x128xf32>) -> tensor<1x16x49x128xf32>
	%303="ufront.call"(%302){addargs=[('p', 0.04), ('mode', 'row'), ('training', False)], func=stochastic_depth}:(tensor<1x16x49x128xf32>) -> tensor<1x16x49x128xf32>
	%304="ufront.add"(%276, %303):(tensor<1x16x49x128xf32>, tensor<1x16x49x128xf32>) -> tensor<1x16x49x128xf32>
	%305="ufront.layer_norm"(%304){elementwise_affine=true, eps=0.00001, normalized_shape=[128]}:(tensor<1x16x49x128xf32>) -> tensor<1x16x49x128xf32>
	%306="ufront.linear"(%305):(tensor<1x16x49x128xf32>) -> tensor<1x16x49x512xf32>
	%307="ufront.gelu"(%306):(tensor<1x16x49x512xf32>) -> tensor<1x16x49x512xf32>
	%308="ufront.linear"(%307):(tensor<1x16x49x512xf32>) -> tensor<1x16x49x128xf32>
	%309="ufront.dropout"(%308){rate=0.0, seed=0}:(tensor<1x16x49x128xf32>) -> tensor<1x16x49x128xf32>
	%310="ufront.call"(%309){addargs=[('p', 0.04), ('mode', 'row'), ('training', False)], func=stochastic_depth}:(tensor<1x16x49x128xf32>) -> tensor<1x16x49x128xf32>
	%311="ufront.add"(%304, %310):(tensor<1x16x49x128xf32>, tensor<1x16x49x128xf32>) -> tensor<1x16x49x128xf32>
	%312="ufront.call"(%311){addargs=[('arg2', -2), ('arg3', -3)], func=swapaxes}:(tensor<1x16x49x128xf32>) -> tensor<1x49x16x128xf32>
	%313="ufront.reshape"(%312){shape=[1, 7, 7, 4, 4, 128]}:(tensor<1x49x16x128xf32>) -> tensor<1x7x7x4x4x128xf32>
	%314="ufront.transpose"(%313){perms=[0, 5, 1, 3, 2, 4]}:(tensor<1x7x7x4x4x128xf32>) -> tensor<1x128x7x4x7x4xf32>
	%315="ufront.reshape"(%314){shape=[1, 128, 28, 28]}:(tensor<1x128x7x4x7x4xf32>) -> tensor<1x128x28x28xf32>
	%316="ufront.identity"(%315):(tensor<1x128x28x28xf32>) -> tensor<1x128x28x28xf32>
	%317="ufront.batchnorm"(%315){affine=true, eps=0.001, momentum=0.99, track_running_stats=true}:(tensor<1x128x28x28xf32>) -> tensor<1x128x28x28xf32>
	%318="ufront.conv2d"(%317){groups=1, kernel=[1, 1], pad=[0, 0], stride=[1, 1]}:(tensor<1x128x28x28xf32>) -> tensor<1x512x28x28xf32>
	%319="ufront.batchnorm"(%318){affine=true, eps=0.001, momentum=0.99, track_running_stats=true}:(tensor<1x512x28x28xf32>) -> tensor<1x512x28x28xf32>
	%320="ufront.gelu"(%319):(tensor<1x512x28x28xf32>) -> tensor<1x512x28x28xf32>
	%321="ufront.conv2d"(%320){groups=512, kernel=[3, 3], pad=[1, 1], stride=[1, 1]}:(tensor<1x512x28x28xf32>) -> tensor<1x512x28x28xf32>
	%322="ufront.batchnorm"(%321){affine=true, eps=0.001, momentum=0.99, track_running_stats=true}:(tensor<1x512x28x28xf32>) -> tensor<1x512x28x28xf32>
	%323="ufront.gelu"(%322):(tensor<1x512x28x28xf32>) -> tensor<1x512x28x28xf32>
	%324="ufront.pool2d"(%323){output_size=[1, 1], pool_type="POOL_ADAPTIVE"}:(tensor<1x512x28x28xf32>) -> tensor<1x512x1x1xf32>
	%325="ufront.conv2d"(%324){groups=1, kernel=[1, 1], pad=[0, 0], stride=[1, 1]}:(tensor<1x512x1x1xf32>) -> tensor<1x32x1x1xf32>
	%326="ufront.silu"(%325):(tensor<1x32x1x1xf32>) -> tensor<1x32x1x1xf32>
	%327="ufront.conv2d"(%326){groups=1, kernel=[1, 1], pad=[0, 0], stride=[1, 1]}:(tensor<1x32x1x1xf32>) -> tensor<1x512x1x1xf32>
	%328="ufront.sigmoid"(%327):(tensor<1x512x1x1xf32>) -> tensor<1x512x1x1xf32>
	%329="ufront.multiply"(%328, %323):(tensor<1x512x1x1xf32>, tensor<1x512x28x28xf32>) -> tensor<1x512x28x28xf32>
	%330="ufront.conv2d"(%329){groups=1, kernel=[1, 1], pad=[0, 0], stride=[1, 1]}:(tensor<1x512x28x28xf32>) -> tensor<1x128x28x28xf32>
	%331="ufront.call"(%330){addargs=[('p', 0.06), ('mode', 'row'), ('training', False)], func=stochastic_depth}:(tensor<1x128x28x28xf32>) -> tensor<1x128x28x28xf32>
	%332="ufront.add"(%316, %331):(tensor<1x128x28x28xf32>, tensor<1x128x28x28xf32>) -> tensor<1x128x28x28xf32>
	%333="ufront.reshape"(%332){shape=[1, 128, 4, 7, 4, 7]}:(tensor<1x128x28x28xf32>) -> tensor<1x128x4x7x4x7xf32>
	%334="ufront.transpose"(%333){perms=[0, 2, 4, 3, 5, 1]}:(tensor<1x128x4x7x4x7xf32>) -> tensor<1x4x4x7x7x128xf32>
	%335="ufront.reshape"(%334){shape=[1, 16, 49, 128]}:(tensor<1x4x4x7x7x128xf32>) -> tensor<1x16x49x128xf32>
	%336="ufront.identity"(%335):(tensor<1x16x49x128xf32>) -> tensor<1x16x49x128xf32>
	%337="ufront.layer_norm"(%336){elementwise_affine=true, eps=0.00001, normalized_shape=[128]}:(tensor<1x16x49x128xf32>) -> tensor<1x16x49x128xf32>
	%338="ufront.linear"(%337):(tensor<1x16x49x128xf32>) -> tensor<1x16x49x384xf32>
	%339, %340, %341="ufront.chunk"(%338){axis=-1, sizes=3}:(tensor<1x16x49x384xf32>) -> (tensor<1x16x49x128xf32>, tensor<1x16x49x128xf32>, tensor<1x16x49x128xf32>)
	%342="ufront.reshape"(%339){shape=[1, 16, 49, 4, 32]}:(tensor<1x16x49x128xf32>) -> tensor<1x16x49x4x32xf32>
	%343="ufront.transpose"(%342){perms=[0, 1, 3, 2, 4]}:(tensor<1x16x49x4x32xf32>) -> tensor<1x16x4x49x32xf32>
	%344="ufront.reshape"(%340){shape=[1, 16, 49, 4, 32]}:(tensor<1x16x49x128xf32>) -> tensor<1x16x49x4x32xf32>
	%345="ufront.transpose"(%344){perms=[0, 1, 3, 2, 4]}:(tensor<1x16x49x4x32xf32>) -> tensor<1x16x4x49x32xf32>
	%346="ufront.reshape"(%341){shape=[1, 16, 49, 4, 32]}:(tensor<1x16x49x128xf32>) -> tensor<1x16x49x4x32xf32>
	%347="ufront.transpose"(%346){perms=[0, 1, 3, 2, 4]}:(tensor<1x16x49x4x32xf32>) -> tensor<1x16x4x49x32xf32>
	%348="ufront.smultiply"(%345){scalar=0.08838834764831845}:(tensor<1x16x4x49x32xf32>) -> tensor<1x16x4x49x32xf32>
	%349="ufront.call"(%343, %348){addargs=[('arg1', 'B G H I D, B G H J D -> B G H I J')], func=einsum}:(tensor<1x16x4x49x32xf32>, tensor<1x16x4x49x32xf32>) -> tensor<1x16x4x49x49xf32>
	%350="ufront.parameter"(%blocks.1.layers.1.layers.window_attention.attn_layer.1.relative_position_bias_table){dtype="Float", initializer="…", requires_grad=true}:(tensor<169x4xf32>) -> tensor<169x4xf32>
	%351="ufront.tensor"(%_tensor_constant6){dtype="Int64", initializer="…", requires_grad=false}:(tensor<2401xf32>) -> tensor<2401xf32>
	%352="ufront.slice"(%350, %351){output_shape=[2401, 4]}:(tensor<169x4xf32>, tensor<2401xf32>) -> tensor<2401x4xf32>
	%353="ufront.reshape"(%352){shape=[49, 49, 4]}:(tensor<2401x4xf32>) -> tensor<49x49x4xf32>
	%354="ufront.transpose"(%353){perms=[2, 0, 1]}:(tensor<49x49x4xf32>) -> tensor<4x49x49xf32>
	%355="ufront.reshape"(%354){shape=[1, 4, 49, 49]}:(tensor<4x49x49xf32>) -> tensor<1x4x49x49xf32>
	%356="ufront.add"(%349, %355):(tensor<1x16x4x49x49xf32>, tensor<1x4x49x49xf32>) -> tensor<1x16x4x49x49xf32>
	%357="ufront.softmax"(%356):(tensor<1x16x4x49x49xf32>) -> tensor<1x16x4x49x49xf32>
	%358="ufront.call"(%357, %347){addargs=[('arg1', 'B G H I J, B G H J D -> B G H I D')], func=einsum}:(tensor<1x16x4x49x49xf32>, tensor<1x16x4x49x32xf32>) -> tensor<1x16x4x49x32xf32>
	%359="ufront.transpose"(%358){perms=[0, 1, 3, 2, 4]}:(tensor<1x16x4x49x32xf32>) -> tensor<1x16x49x4x32xf32>
	%360="ufront.reshape"(%359){shape=[1, 16, 49, 128]}:(tensor<1x16x49x4x32xf32>) -> tensor<1x16x49x128xf32>
	%361="ufront.linear"(%360):(tensor<1x16x49x128xf32>) -> tensor<1x16x49x128xf32>
	%362="ufront.dropout"(%361){rate=0.0, seed=0}:(tensor<1x16x49x128xf32>) -> tensor<1x16x49x128xf32>
	%363="ufront.call"(%362){addargs=[('p', 0.06), ('mode', 'row'), ('training', False)], func=stochastic_depth}:(tensor<1x16x49x128xf32>) -> tensor<1x16x49x128xf32>
	%364="ufront.add"(%336, %363):(tensor<1x16x49x128xf32>, tensor<1x16x49x128xf32>) -> tensor<1x16x49x128xf32>
	%365="ufront.layer_norm"(%364){elementwise_affine=true, eps=0.00001, normalized_shape=[128]}:(tensor<1x16x49x128xf32>) -> tensor<1x16x49x128xf32>
	%366="ufront.linear"(%365):(tensor<1x16x49x128xf32>) -> tensor<1x16x49x512xf32>
	%367="ufront.gelu"(%366):(tensor<1x16x49x512xf32>) -> tensor<1x16x49x512xf32>
	%368="ufront.linear"(%367):(tensor<1x16x49x512xf32>) -> tensor<1x16x49x128xf32>
	%369="ufront.dropout"(%368){rate=0.0, seed=0}:(tensor<1x16x49x128xf32>) -> tensor<1x16x49x128xf32>
	%370="ufront.call"(%369){addargs=[('p', 0.06), ('mode', 'row'), ('training', False)], func=stochastic_depth}:(tensor<1x16x49x128xf32>) -> tensor<1x16x49x128xf32>
	%371="ufront.add"(%364, %370):(tensor<1x16x49x128xf32>, tensor<1x16x49x128xf32>) -> tensor<1x16x49x128xf32>
	%372="ufront.identity"(%371):(tensor<1x16x49x128xf32>) -> tensor<1x16x49x128xf32>
	%373="ufront.reshape"(%372){shape=[1, 4, 4, 7, 7, 128]}:(tensor<1x16x49x128xf32>) -> tensor<1x4x4x7x7x128xf32>
	%374="ufront.transpose"(%373){perms=[0, 5, 1, 3, 2, 4]}:(tensor<1x4x4x7x7x128xf32>) -> tensor<1x128x4x7x4x7xf32>
	%375="ufront.reshape"(%374){shape=[1, 128, 28, 28]}:(tensor<1x128x4x7x4x7xf32>) -> tensor<1x128x28x28xf32>
	%376="ufront.reshape"(%375){shape=[1, 128, 7, 4, 7, 4]}:(tensor<1x128x28x28xf32>) -> tensor<1x128x7x4x7x4xf32>
	%377="ufront.transpose"(%376){perms=[0, 2, 4, 3, 5, 1]}:(tensor<1x128x7x4x7x4xf32>) -> tensor<1x7x7x4x4x128xf32>
	%378="ufront.reshape"(%377){shape=[1, 49, 16, 128]}:(tensor<1x7x7x4x4x128xf32>) -> tensor<1x49x16x128xf32>
	%379="ufront.call"(%378){addargs=[('arg2', -2), ('arg3', -3)], func=swapaxes}:(tensor<1x49x16x128xf32>) -> tensor<1x16x49x128xf32>
	%380="ufront.layer_norm"(%379){elementwise_affine=true, eps=0.00001, normalized_shape=[128]}:(tensor<1x16x49x128xf32>) -> tensor<1x16x49x128xf32>
	%381="ufront.linear"(%380):(tensor<1x16x49x128xf32>) -> tensor<1x16x49x384xf32>
	%382, %383, %384="ufront.chunk"(%381){axis=-1, sizes=3}:(tensor<1x16x49x384xf32>) -> (tensor<1x16x49x128xf32>, tensor<1x16x49x128xf32>, tensor<1x16x49x128xf32>)
	%385="ufront.reshape"(%382){shape=[1, 16, 49, 4, 32]}:(tensor<1x16x49x128xf32>) -> tensor<1x16x49x4x32xf32>
	%386="ufront.transpose"(%385){perms=[0, 1, 3, 2, 4]}:(tensor<1x16x49x4x32xf32>) -> tensor<1x16x4x49x32xf32>
	%387="ufront.reshape"(%383){shape=[1, 16, 49, 4, 32]}:(tensor<1x16x49x128xf32>) -> tensor<1x16x49x4x32xf32>
	%388="ufront.transpose"(%387){perms=[0, 1, 3, 2, 4]}:(tensor<1x16x49x4x32xf32>) -> tensor<1x16x4x49x32xf32>
	%389="ufront.reshape"(%384){shape=[1, 16, 49, 4, 32]}:(tensor<1x16x49x128xf32>) -> tensor<1x16x49x4x32xf32>
	%390="ufront.transpose"(%389){perms=[0, 1, 3, 2, 4]}:(tensor<1x16x49x4x32xf32>) -> tensor<1x16x4x49x32xf32>
	%391="ufront.smultiply"(%388){scalar=0.08838834764831845}:(tensor<1x16x4x49x32xf32>) -> tensor<1x16x4x49x32xf32>
	%392="ufront.call"(%386, %391){addargs=[('arg1', 'B G H I D, B G H J D -> B G H I J')], func=einsum}:(tensor<1x16x4x49x32xf32>, tensor<1x16x4x49x32xf32>) -> tensor<1x16x4x49x49xf32>
	%393="ufront.parameter"(%blocks.1.layers.1.layers.grid_attention.attn_layer.1.relative_position_bias_table){dtype="Float", initializer="…", requires_grad=true}:(tensor<169x4xf32>) -> tensor<169x4xf32>
	%394="ufront.tensor"(%_tensor_constant7){dtype="Int64", initializer="…", requires_grad=false}:(tensor<2401xf32>) -> tensor<2401xf32>
	%395="ufront.slice"(%393, %394){output_shape=[2401, 4]}:(tensor<169x4xf32>, tensor<2401xf32>) -> tensor<2401x4xf32>
	%396="ufront.reshape"(%395){shape=[49, 49, 4]}:(tensor<2401x4xf32>) -> tensor<49x49x4xf32>
	%397="ufront.transpose"(%396){perms=[2, 0, 1]}:(tensor<49x49x4xf32>) -> tensor<4x49x49xf32>
	%398="ufront.reshape"(%397){shape=[1, 4, 49, 49]}:(tensor<4x49x49xf32>) -> tensor<1x4x49x49xf32>
	%399="ufront.add"(%392, %398):(tensor<1x16x4x49x49xf32>, tensor<1x4x49x49xf32>) -> tensor<1x16x4x49x49xf32>
	%400="ufront.softmax"(%399):(tensor<1x16x4x49x49xf32>) -> tensor<1x16x4x49x49xf32>
	%401="ufront.call"(%400, %390){addargs=[('arg1', 'B G H I J, B G H J D -> B G H I D')], func=einsum}:(tensor<1x16x4x49x49xf32>, tensor<1x16x4x49x32xf32>) -> tensor<1x16x4x49x32xf32>
	%402="ufront.transpose"(%401){perms=[0, 1, 3, 2, 4]}:(tensor<1x16x4x49x32xf32>) -> tensor<1x16x49x4x32xf32>
	%403="ufront.reshape"(%402){shape=[1, 16, 49, 128]}:(tensor<1x16x49x4x32xf32>) -> tensor<1x16x49x128xf32>
	%404="ufront.linear"(%403):(tensor<1x16x49x128xf32>) -> tensor<1x16x49x128xf32>
	%405="ufront.dropout"(%404){rate=0.0, seed=0}:(tensor<1x16x49x128xf32>) -> tensor<1x16x49x128xf32>
	%406="ufront.call"(%405){addargs=[('p', 0.06), ('mode', 'row'), ('training', False)], func=stochastic_depth}:(tensor<1x16x49x128xf32>) -> tensor<1x16x49x128xf32>
	%407="ufront.add"(%379, %406):(tensor<1x16x49x128xf32>, tensor<1x16x49x128xf32>) -> tensor<1x16x49x128xf32>
	%408="ufront.layer_norm"(%407){elementwise_affine=true, eps=0.00001, normalized_shape=[128]}:(tensor<1x16x49x128xf32>) -> tensor<1x16x49x128xf32>
	%409="ufront.linear"(%408):(tensor<1x16x49x128xf32>) -> tensor<1x16x49x512xf32>
	%410="ufront.gelu"(%409):(tensor<1x16x49x512xf32>) -> tensor<1x16x49x512xf32>
	%411="ufront.linear"(%410):(tensor<1x16x49x512xf32>) -> tensor<1x16x49x128xf32>
	%412="ufront.dropout"(%411){rate=0.0, seed=0}:(tensor<1x16x49x128xf32>) -> tensor<1x16x49x128xf32>
	%413="ufront.call"(%412){addargs=[('p', 0.06), ('mode', 'row'), ('training', False)], func=stochastic_depth}:(tensor<1x16x49x128xf32>) -> tensor<1x16x49x128xf32>
	%414="ufront.add"(%407, %413):(tensor<1x16x49x128xf32>, tensor<1x16x49x128xf32>) -> tensor<1x16x49x128xf32>
	%415="ufront.call"(%414){addargs=[('arg2', -2), ('arg3', -3)], func=swapaxes}:(tensor<1x16x49x128xf32>) -> tensor<1x49x16x128xf32>
	%416="ufront.reshape"(%415){shape=[1, 7, 7, 4, 4, 128]}:(tensor<1x49x16x128xf32>) -> tensor<1x7x7x4x4x128xf32>
	%417="ufront.transpose"(%416){perms=[0, 5, 1, 3, 2, 4]}:(tensor<1x7x7x4x4x128xf32>) -> tensor<1x128x7x4x7x4xf32>
	%418="ufront.reshape"(%417){shape=[1, 128, 28, 28]}:(tensor<1x128x7x4x7x4xf32>) -> tensor<1x128x28x28xf32>
	%419="ufront.pool2d"(%418){kernel=[3, 3], pad=[1, 1], pool_type="POOL_AVG", stride=[2, 2]}:(tensor<1x128x28x28xf32>) -> tensor<1x128x14x14xf32>
	%420="ufront.conv2d"(%419){groups=1, kernel=[1, 1], pad=[0, 0], stride=[1, 1]}:(tensor<1x128x14x14xf32>) -> tensor<1x256x14x14xf32>
	%421="ufront.batchnorm"(%418){affine=true, eps=0.001, momentum=0.99, track_running_stats=true}:(tensor<1x128x28x28xf32>) -> tensor<1x128x28x28xf32>
	%422="ufront.conv2d"(%421){groups=1, kernel=[1, 1], pad=[0, 0], stride=[1, 1]}:(tensor<1x128x28x28xf32>) -> tensor<1x1024x28x28xf32>
	%423="ufront.batchnorm"(%422){affine=true, eps=0.001, momentum=0.99, track_running_stats=true}:(tensor<1x1024x28x28xf32>) -> tensor<1x1024x28x28xf32>
	%424="ufront.gelu"(%423):(tensor<1x1024x28x28xf32>) -> tensor<1x1024x28x28xf32>
	%425="ufront.conv2d"(%424){groups=1024, kernel=[3, 3], pad=[1, 1], stride=[2, 2]}:(tensor<1x1024x28x28xf32>) -> tensor<1x1024x14x14xf32>
	%426="ufront.batchnorm"(%425){affine=true, eps=0.001, momentum=0.99, track_running_stats=true}:(tensor<1x1024x14x14xf32>) -> tensor<1x1024x14x14xf32>
	%427="ufront.gelu"(%426):(tensor<1x1024x14x14xf32>) -> tensor<1x1024x14x14xf32>
	%428="ufront.pool2d"(%427){output_size=[1, 1], pool_type="POOL_ADAPTIVE"}:(tensor<1x1024x14x14xf32>) -> tensor<1x1024x1x1xf32>
	%429="ufront.conv2d"(%428){groups=1, kernel=[1, 1], pad=[0, 0], stride=[1, 1]}:(tensor<1x1024x1x1xf32>) -> tensor<1x64x1x1xf32>
	%430="ufront.silu"(%429):(tensor<1x64x1x1xf32>) -> tensor<1x64x1x1xf32>
	%431="ufront.conv2d"(%430){groups=1, kernel=[1, 1], pad=[0, 0], stride=[1, 1]}:(tensor<1x64x1x1xf32>) -> tensor<1x1024x1x1xf32>
	%432="ufront.sigmoid"(%431):(tensor<1x1024x1x1xf32>) -> tensor<1x1024x1x1xf32>
	%433="ufront.multiply"(%432, %427):(tensor<1x1024x1x1xf32>, tensor<1x1024x14x14xf32>) -> tensor<1x1024x14x14xf32>
	%434="ufront.conv2d"(%433){groups=1, kernel=[1, 1], pad=[0, 0], stride=[1, 1]}:(tensor<1x1024x14x14xf32>) -> tensor<1x256x14x14xf32>
	%435="ufront.call"(%434){addargs=[('p', 0.08), ('mode', 'row'), ('training', False)], func=stochastic_depth}:(tensor<1x256x14x14xf32>) -> tensor<1x256x14x14xf32>
	%436="ufront.add"(%420, %435):(tensor<1x256x14x14xf32>, tensor<1x256x14x14xf32>) -> tensor<1x256x14x14xf32>
	%437="ufront.reshape"(%436){shape=[1, 256, 2, 7, 2, 7]}:(tensor<1x256x14x14xf32>) -> tensor<1x256x2x7x2x7xf32>
	%438="ufront.transpose"(%437){perms=[0, 2, 4, 3, 5, 1]}:(tensor<1x256x2x7x2x7xf32>) -> tensor<1x2x2x7x7x256xf32>
	%439="ufront.reshape"(%438){shape=[1, 4, 49, 256]}:(tensor<1x2x2x7x7x256xf32>) -> tensor<1x4x49x256xf32>
	%440="ufront.identity"(%439):(tensor<1x4x49x256xf32>) -> tensor<1x4x49x256xf32>
	%441="ufront.layer_norm"(%440){elementwise_affine=true, eps=0.00001, normalized_shape=[256]}:(tensor<1x4x49x256xf32>) -> tensor<1x4x49x256xf32>
	%442="ufront.linear"(%441):(tensor<1x4x49x256xf32>) -> tensor<1x4x49x768xf32>
	%443, %444, %445="ufront.chunk"(%442){axis=-1, sizes=3}:(tensor<1x4x49x768xf32>) -> (tensor<1x4x49x256xf32>, tensor<1x4x49x256xf32>, tensor<1x4x49x256xf32>)
	%446="ufront.reshape"(%443){shape=[1, 4, 49, 8, 32]}:(tensor<1x4x49x256xf32>) -> tensor<1x4x49x8x32xf32>
	%447="ufront.transpose"(%446){perms=[0, 1, 3, 2, 4]}:(tensor<1x4x49x8x32xf32>) -> tensor<1x4x8x49x32xf32>
	%448="ufront.reshape"(%444){shape=[1, 4, 49, 8, 32]}:(tensor<1x4x49x256xf32>) -> tensor<1x4x49x8x32xf32>
	%449="ufront.transpose"(%448){perms=[0, 1, 3, 2, 4]}:(tensor<1x4x49x8x32xf32>) -> tensor<1x4x8x49x32xf32>
	%450="ufront.reshape"(%445){shape=[1, 4, 49, 8, 32]}:(tensor<1x4x49x256xf32>) -> tensor<1x4x49x8x32xf32>
	%451="ufront.transpose"(%450){perms=[0, 1, 3, 2, 4]}:(tensor<1x4x49x8x32xf32>) -> tensor<1x4x8x49x32xf32>
	%452="ufront.smultiply"(%449){scalar=0.0625}:(tensor<1x4x8x49x32xf32>) -> tensor<1x4x8x49x32xf32>
	%453="ufront.call"(%447, %452){addargs=[('arg1', 'B G H I D, B G H J D -> B G H I J')], func=einsum}:(tensor<1x4x8x49x32xf32>, tensor<1x4x8x49x32xf32>) -> tensor<1x4x8x49x49xf32>
	%454="ufront.parameter"(%blocks.2.layers.0.layers.window_attention.attn_layer.1.relative_position_bias_table){dtype="Float", initializer="…", requires_grad=true}:(tensor<169x8xf32>) -> tensor<169x8xf32>
	%455="ufront.tensor"(%_tensor_constant8){dtype="Int64", initializer="…", requires_grad=false}:(tensor<2401xf32>) -> tensor<2401xf32>
	%456="ufront.slice"(%454, %455){output_shape=[2401, 8]}:(tensor<169x8xf32>, tensor<2401xf32>) -> tensor<2401x8xf32>
	%457="ufront.reshape"(%456){shape=[49, 49, 8]}:(tensor<2401x8xf32>) -> tensor<49x49x8xf32>
	%458="ufront.transpose"(%457){perms=[2, 0, 1]}:(tensor<49x49x8xf32>) -> tensor<8x49x49xf32>
	%459="ufront.reshape"(%458){shape=[1, 8, 49, 49]}:(tensor<8x49x49xf32>) -> tensor<1x8x49x49xf32>
	%460="ufront.add"(%453, %459):(tensor<1x4x8x49x49xf32>, tensor<1x8x49x49xf32>) -> tensor<1x4x8x49x49xf32>
	%461="ufront.softmax"(%460):(tensor<1x4x8x49x49xf32>) -> tensor<1x4x8x49x49xf32>
	%462="ufront.call"(%461, %451){addargs=[('arg1', 'B G H I J, B G H J D -> B G H I D')], func=einsum}:(tensor<1x4x8x49x49xf32>, tensor<1x4x8x49x32xf32>) -> tensor<1x4x8x49x32xf32>
	%463="ufront.transpose"(%462){perms=[0, 1, 3, 2, 4]}:(tensor<1x4x8x49x32xf32>) -> tensor<1x4x49x8x32xf32>
	%464="ufront.reshape"(%463){shape=[1, 4, 49, 256]}:(tensor<1x4x49x8x32xf32>) -> tensor<1x4x49x256xf32>
	%465="ufront.linear"(%464):(tensor<1x4x49x256xf32>) -> tensor<1x4x49x256xf32>
	%466="ufront.dropout"(%465){rate=0.0, seed=0}:(tensor<1x4x49x256xf32>) -> tensor<1x4x49x256xf32>
	%467="ufront.call"(%466){addargs=[('p', 0.08), ('mode', 'row'), ('training', False)], func=stochastic_depth}:(tensor<1x4x49x256xf32>) -> tensor<1x4x49x256xf32>
	%468="ufront.add"(%440, %467):(tensor<1x4x49x256xf32>, tensor<1x4x49x256xf32>) -> tensor<1x4x49x256xf32>
	%469="ufront.layer_norm"(%468){elementwise_affine=true, eps=0.00001, normalized_shape=[256]}:(tensor<1x4x49x256xf32>) -> tensor<1x4x49x256xf32>
	%470="ufront.linear"(%469):(tensor<1x4x49x256xf32>) -> tensor<1x4x49x1024xf32>
	%471="ufront.gelu"(%470):(tensor<1x4x49x1024xf32>) -> tensor<1x4x49x1024xf32>
	%472="ufront.linear"(%471):(tensor<1x4x49x1024xf32>) -> tensor<1x4x49x256xf32>
	%473="ufront.dropout"(%472){rate=0.0, seed=0}:(tensor<1x4x49x256xf32>) -> tensor<1x4x49x256xf32>
	%474="ufront.call"(%473){addargs=[('p', 0.08), ('mode', 'row'), ('training', False)], func=stochastic_depth}:(tensor<1x4x49x256xf32>) -> tensor<1x4x49x256xf32>
	%475="ufront.add"(%468, %474):(tensor<1x4x49x256xf32>, tensor<1x4x49x256xf32>) -> tensor<1x4x49x256xf32>
	%476="ufront.identity"(%475):(tensor<1x4x49x256xf32>) -> tensor<1x4x49x256xf32>
	%477="ufront.reshape"(%476){shape=[1, 2, 2, 7, 7, 256]}:(tensor<1x4x49x256xf32>) -> tensor<1x2x2x7x7x256xf32>
	%478="ufront.transpose"(%477){perms=[0, 5, 1, 3, 2, 4]}:(tensor<1x2x2x7x7x256xf32>) -> tensor<1x256x2x7x2x7xf32>
	%479="ufront.reshape"(%478){shape=[1, 256, 14, 14]}:(tensor<1x256x2x7x2x7xf32>) -> tensor<1x256x14x14xf32>
	%480="ufront.reshape"(%479){shape=[1, 256, 7, 2, 7, 2]}:(tensor<1x256x14x14xf32>) -> tensor<1x256x7x2x7x2xf32>
	%481="ufront.transpose"(%480){perms=[0, 2, 4, 3, 5, 1]}:(tensor<1x256x7x2x7x2xf32>) -> tensor<1x7x7x2x2x256xf32>
	%482="ufront.reshape"(%481){shape=[1, 49, 4, 256]}:(tensor<1x7x7x2x2x256xf32>) -> tensor<1x49x4x256xf32>
	%483="ufront.call"(%482){addargs=[('arg2', -2), ('arg3', -3)], func=swapaxes}:(tensor<1x49x4x256xf32>) -> tensor<1x4x49x256xf32>
	%484="ufront.layer_norm"(%483){elementwise_affine=true, eps=0.00001, normalized_shape=[256]}:(tensor<1x4x49x256xf32>) -> tensor<1x4x49x256xf32>
	%485="ufront.linear"(%484):(tensor<1x4x49x256xf32>) -> tensor<1x4x49x768xf32>
	%486, %487, %488="ufront.chunk"(%485){axis=-1, sizes=3}:(tensor<1x4x49x768xf32>) -> (tensor<1x4x49x256xf32>, tensor<1x4x49x256xf32>, tensor<1x4x49x256xf32>)
	%489="ufront.reshape"(%486){shape=[1, 4, 49, 8, 32]}:(tensor<1x4x49x256xf32>) -> tensor<1x4x49x8x32xf32>
	%490="ufront.transpose"(%489){perms=[0, 1, 3, 2, 4]}:(tensor<1x4x49x8x32xf32>) -> tensor<1x4x8x49x32xf32>
	%491="ufront.reshape"(%487){shape=[1, 4, 49, 8, 32]}:(tensor<1x4x49x256xf32>) -> tensor<1x4x49x8x32xf32>
	%492="ufront.transpose"(%491){perms=[0, 1, 3, 2, 4]}:(tensor<1x4x49x8x32xf32>) -> tensor<1x4x8x49x32xf32>
	%493="ufront.reshape"(%488){shape=[1, 4, 49, 8, 32]}:(tensor<1x4x49x256xf32>) -> tensor<1x4x49x8x32xf32>
	%494="ufront.transpose"(%493){perms=[0, 1, 3, 2, 4]}:(tensor<1x4x49x8x32xf32>) -> tensor<1x4x8x49x32xf32>
	%495="ufront.smultiply"(%492){scalar=0.0625}:(tensor<1x4x8x49x32xf32>) -> tensor<1x4x8x49x32xf32>
	%496="ufront.call"(%490, %495){addargs=[('arg1', 'B G H I D, B G H J D -> B G H I J')], func=einsum}:(tensor<1x4x8x49x32xf32>, tensor<1x4x8x49x32xf32>) -> tensor<1x4x8x49x49xf32>
	%497="ufront.parameter"(%blocks.2.layers.0.layers.grid_attention.attn_layer.1.relative_position_bias_table){dtype="Float", initializer="…", requires_grad=true}:(tensor<169x8xf32>) -> tensor<169x8xf32>
	%498="ufront.tensor"(%_tensor_constant9){dtype="Int64", initializer="…", requires_grad=false}:(tensor<2401xf32>) -> tensor<2401xf32>
	%499="ufront.slice"(%497, %498){output_shape=[2401, 8]}:(tensor<169x8xf32>, tensor<2401xf32>) -> tensor<2401x8xf32>
	%500="ufront.reshape"(%499){shape=[49, 49, 8]}:(tensor<2401x8xf32>) -> tensor<49x49x8xf32>
	%501="ufront.transpose"(%500){perms=[2, 0, 1]}:(tensor<49x49x8xf32>) -> tensor<8x49x49xf32>
	%502="ufront.reshape"(%501){shape=[1, 8, 49, 49]}:(tensor<8x49x49xf32>) -> tensor<1x8x49x49xf32>
	%503="ufront.add"(%496, %502):(tensor<1x4x8x49x49xf32>, tensor<1x8x49x49xf32>) -> tensor<1x4x8x49x49xf32>
	%504="ufront.softmax"(%503):(tensor<1x4x8x49x49xf32>) -> tensor<1x4x8x49x49xf32>
	%505="ufront.call"(%504, %494){addargs=[('arg1', 'B G H I J, B G H J D -> B G H I D')], func=einsum}:(tensor<1x4x8x49x49xf32>, tensor<1x4x8x49x32xf32>) -> tensor<1x4x8x49x32xf32>
	%506="ufront.transpose"(%505){perms=[0, 1, 3, 2, 4]}:(tensor<1x4x8x49x32xf32>) -> tensor<1x4x49x8x32xf32>
	%507="ufront.reshape"(%506){shape=[1, 4, 49, 256]}:(tensor<1x4x49x8x32xf32>) -> tensor<1x4x49x256xf32>
	%508="ufront.linear"(%507):(tensor<1x4x49x256xf32>) -> tensor<1x4x49x256xf32>
	%509="ufront.dropout"(%508){rate=0.0, seed=0}:(tensor<1x4x49x256xf32>) -> tensor<1x4x49x256xf32>
	%510="ufront.call"(%509){addargs=[('p', 0.08), ('mode', 'row'), ('training', False)], func=stochastic_depth}:(tensor<1x4x49x256xf32>) -> tensor<1x4x49x256xf32>
	%511="ufront.add"(%483, %510):(tensor<1x4x49x256xf32>, tensor<1x4x49x256xf32>) -> tensor<1x4x49x256xf32>
	%512="ufront.layer_norm"(%511){elementwise_affine=true, eps=0.00001, normalized_shape=[256]}:(tensor<1x4x49x256xf32>) -> tensor<1x4x49x256xf32>
	%513="ufront.linear"(%512):(tensor<1x4x49x256xf32>) -> tensor<1x4x49x1024xf32>
	%514="ufront.gelu"(%513):(tensor<1x4x49x1024xf32>) -> tensor<1x4x49x1024xf32>
	%515="ufront.linear"(%514):(tensor<1x4x49x1024xf32>) -> tensor<1x4x49x256xf32>
	%516="ufront.dropout"(%515){rate=0.0, seed=0}:(tensor<1x4x49x256xf32>) -> tensor<1x4x49x256xf32>
	%517="ufront.call"(%516){addargs=[('p', 0.08), ('mode', 'row'), ('training', False)], func=stochastic_depth}:(tensor<1x4x49x256xf32>) -> tensor<1x4x49x256xf32>
	%518="ufront.add"(%511, %517):(tensor<1x4x49x256xf32>, tensor<1x4x49x256xf32>) -> tensor<1x4x49x256xf32>
	%519="ufront.call"(%518){addargs=[('arg2', -2), ('arg3', -3)], func=swapaxes}:(tensor<1x4x49x256xf32>) -> tensor<1x49x4x256xf32>
	%520="ufront.reshape"(%519){shape=[1, 7, 7, 2, 2, 256]}:(tensor<1x49x4x256xf32>) -> tensor<1x7x7x2x2x256xf32>
	%521="ufront.transpose"(%520){perms=[0, 5, 1, 3, 2, 4]}:(tensor<1x7x7x2x2x256xf32>) -> tensor<1x256x7x2x7x2xf32>
	%522="ufront.reshape"(%521){shape=[1, 256, 14, 14]}:(tensor<1x256x7x2x7x2xf32>) -> tensor<1x256x14x14xf32>
	%523="ufront.identity"(%522):(tensor<1x256x14x14xf32>) -> tensor<1x256x14x14xf32>
	%524="ufront.batchnorm"(%522){affine=true, eps=0.001, momentum=0.99, track_running_stats=true}:(tensor<1x256x14x14xf32>) -> tensor<1x256x14x14xf32>
	%525="ufront.conv2d"(%524){groups=1, kernel=[1, 1], pad=[0, 0], stride=[1, 1]}:(tensor<1x256x14x14xf32>) -> tensor<1x1024x14x14xf32>
	%526="ufront.batchnorm"(%525){affine=true, eps=0.001, momentum=0.99, track_running_stats=true}:(tensor<1x1024x14x14xf32>) -> tensor<1x1024x14x14xf32>
	%527="ufront.gelu"(%526):(tensor<1x1024x14x14xf32>) -> tensor<1x1024x14x14xf32>
	%528="ufront.conv2d"(%527){groups=1024, kernel=[3, 3], pad=[1, 1], stride=[1, 1]}:(tensor<1x1024x14x14xf32>) -> tensor<1x1024x14x14xf32>
	%529="ufront.batchnorm"(%528){affine=true, eps=0.001, momentum=0.99, track_running_stats=true}:(tensor<1x1024x14x14xf32>) -> tensor<1x1024x14x14xf32>
	%530="ufront.gelu"(%529):(tensor<1x1024x14x14xf32>) -> tensor<1x1024x14x14xf32>
	%531="ufront.pool2d"(%530){output_size=[1, 1], pool_type="POOL_ADAPTIVE"}:(tensor<1x1024x14x14xf32>) -> tensor<1x1024x1x1xf32>
	%532="ufront.conv2d"(%531){groups=1, kernel=[1, 1], pad=[0, 0], stride=[1, 1]}:(tensor<1x1024x1x1xf32>) -> tensor<1x64x1x1xf32>
	%533="ufront.silu"(%532):(tensor<1x64x1x1xf32>) -> tensor<1x64x1x1xf32>
	%534="ufront.conv2d"(%533){groups=1, kernel=[1, 1], pad=[0, 0], stride=[1, 1]}:(tensor<1x64x1x1xf32>) -> tensor<1x1024x1x1xf32>
	%535="ufront.sigmoid"(%534):(tensor<1x1024x1x1xf32>) -> tensor<1x1024x1x1xf32>
	%536="ufront.multiply"(%535, %530):(tensor<1x1024x1x1xf32>, tensor<1x1024x14x14xf32>) -> tensor<1x1024x14x14xf32>
	%537="ufront.conv2d"(%536){groups=1, kernel=[1, 1], pad=[0, 0], stride=[1, 1]}:(tensor<1x1024x14x14xf32>) -> tensor<1x256x14x14xf32>
	%538="ufront.call"(%537){addargs=[('p', 0.1), ('mode', 'row'), ('training', False)], func=stochastic_depth}:(tensor<1x256x14x14xf32>) -> tensor<1x256x14x14xf32>
	%539="ufront.add"(%523, %538):(tensor<1x256x14x14xf32>, tensor<1x256x14x14xf32>) -> tensor<1x256x14x14xf32>
	%540="ufront.reshape"(%539){shape=[1, 256, 2, 7, 2, 7]}:(tensor<1x256x14x14xf32>) -> tensor<1x256x2x7x2x7xf32>
	%541="ufront.transpose"(%540){perms=[0, 2, 4, 3, 5, 1]}:(tensor<1x256x2x7x2x7xf32>) -> tensor<1x2x2x7x7x256xf32>
	%542="ufront.reshape"(%541){shape=[1, 4, 49, 256]}:(tensor<1x2x2x7x7x256xf32>) -> tensor<1x4x49x256xf32>
	%543="ufront.identity"(%542):(tensor<1x4x49x256xf32>) -> tensor<1x4x49x256xf32>
	%544="ufront.layer_norm"(%543){elementwise_affine=true, eps=0.00001, normalized_shape=[256]}:(tensor<1x4x49x256xf32>) -> tensor<1x4x49x256xf32>
	%545="ufront.linear"(%544):(tensor<1x4x49x256xf32>) -> tensor<1x4x49x768xf32>
	%546, %547, %548="ufront.chunk"(%545){axis=-1, sizes=3}:(tensor<1x4x49x768xf32>) -> (tensor<1x4x49x256xf32>, tensor<1x4x49x256xf32>, tensor<1x4x49x256xf32>)
	%549="ufront.reshape"(%546){shape=[1, 4, 49, 8, 32]}:(tensor<1x4x49x256xf32>) -> tensor<1x4x49x8x32xf32>
	%550="ufront.transpose"(%549){perms=[0, 1, 3, 2, 4]}:(tensor<1x4x49x8x32xf32>) -> tensor<1x4x8x49x32xf32>
	%551="ufront.reshape"(%547){shape=[1, 4, 49, 8, 32]}:(tensor<1x4x49x256xf32>) -> tensor<1x4x49x8x32xf32>
	%552="ufront.transpose"(%551){perms=[0, 1, 3, 2, 4]}:(tensor<1x4x49x8x32xf32>) -> tensor<1x4x8x49x32xf32>
	%553="ufront.reshape"(%548){shape=[1, 4, 49, 8, 32]}:(tensor<1x4x49x256xf32>) -> tensor<1x4x49x8x32xf32>
	%554="ufront.transpose"(%553){perms=[0, 1, 3, 2, 4]}:(tensor<1x4x49x8x32xf32>) -> tensor<1x4x8x49x32xf32>
	%555="ufront.smultiply"(%552){scalar=0.0625}:(tensor<1x4x8x49x32xf32>) -> tensor<1x4x8x49x32xf32>
	%556="ufront.call"(%550, %555){addargs=[('arg1', 'B G H I D, B G H J D -> B G H I J')], func=einsum}:(tensor<1x4x8x49x32xf32>, tensor<1x4x8x49x32xf32>) -> tensor<1x4x8x49x49xf32>
	%557="ufront.parameter"(%blocks.2.layers.1.layers.window_attention.attn_layer.1.relative_position_bias_table){dtype="Float", initializer="…", requires_grad=true}:(tensor<169x8xf32>) -> tensor<169x8xf32>
	%558="ufront.tensor"(%_tensor_constant10){dtype="Int64", initializer="…", requires_grad=false}:(tensor<2401xf32>) -> tensor<2401xf32>
	%559="ufront.slice"(%557, %558){output_shape=[2401, 8]}:(tensor<169x8xf32>, tensor<2401xf32>) -> tensor<2401x8xf32>
	%560="ufront.reshape"(%559){shape=[49, 49, 8]}:(tensor<2401x8xf32>) -> tensor<49x49x8xf32>
	%561="ufront.transpose"(%560){perms=[2, 0, 1]}:(tensor<49x49x8xf32>) -> tensor<8x49x49xf32>
	%562="ufront.reshape"(%561){shape=[1, 8, 49, 49]}:(tensor<8x49x49xf32>) -> tensor<1x8x49x49xf32>
	%563="ufront.add"(%556, %562):(tensor<1x4x8x49x49xf32>, tensor<1x8x49x49xf32>) -> tensor<1x4x8x49x49xf32>
	%564="ufront.softmax"(%563):(tensor<1x4x8x49x49xf32>) -> tensor<1x4x8x49x49xf32>
	%565="ufront.call"(%564, %554){addargs=[('arg1', 'B G H I J, B G H J D -> B G H I D')], func=einsum}:(tensor<1x4x8x49x49xf32>, tensor<1x4x8x49x32xf32>) -> tensor<1x4x8x49x32xf32>
	%566="ufront.transpose"(%565){perms=[0, 1, 3, 2, 4]}:(tensor<1x4x8x49x32xf32>) -> tensor<1x4x49x8x32xf32>
	%567="ufront.reshape"(%566){shape=[1, 4, 49, 256]}:(tensor<1x4x49x8x32xf32>) -> tensor<1x4x49x256xf32>
	%568="ufront.linear"(%567):(tensor<1x4x49x256xf32>) -> tensor<1x4x49x256xf32>
	%569="ufront.dropout"(%568){rate=0.0, seed=0}:(tensor<1x4x49x256xf32>) -> tensor<1x4x49x256xf32>
	%570="ufront.call"(%569){addargs=[('p', 0.1), ('mode', 'row'), ('training', False)], func=stochastic_depth}:(tensor<1x4x49x256xf32>) -> tensor<1x4x49x256xf32>
	%571="ufront.add"(%543, %570):(tensor<1x4x49x256xf32>, tensor<1x4x49x256xf32>) -> tensor<1x4x49x256xf32>
	%572="ufront.layer_norm"(%571){elementwise_affine=true, eps=0.00001, normalized_shape=[256]}:(tensor<1x4x49x256xf32>) -> tensor<1x4x49x256xf32>
	%573="ufront.linear"(%572):(tensor<1x4x49x256xf32>) -> tensor<1x4x49x1024xf32>
	%574="ufront.gelu"(%573):(tensor<1x4x49x1024xf32>) -> tensor<1x4x49x1024xf32>
	%575="ufront.linear"(%574):(tensor<1x4x49x1024xf32>) -> tensor<1x4x49x256xf32>
	%576="ufront.dropout"(%575){rate=0.0, seed=0}:(tensor<1x4x49x256xf32>) -> tensor<1x4x49x256xf32>
	%577="ufront.call"(%576){addargs=[('p', 0.1), ('mode', 'row'), ('training', False)], func=stochastic_depth}:(tensor<1x4x49x256xf32>) -> tensor<1x4x49x256xf32>
	%578="ufront.add"(%571, %577):(tensor<1x4x49x256xf32>, tensor<1x4x49x256xf32>) -> tensor<1x4x49x256xf32>
	%579="ufront.identity"(%578):(tensor<1x4x49x256xf32>) -> tensor<1x4x49x256xf32>
	%580="ufront.reshape"(%579){shape=[1, 2, 2, 7, 7, 256]}:(tensor<1x4x49x256xf32>) -> tensor<1x2x2x7x7x256xf32>
	%581="ufront.transpose"(%580){perms=[0, 5, 1, 3, 2, 4]}:(tensor<1x2x2x7x7x256xf32>) -> tensor<1x256x2x7x2x7xf32>
	%582="ufront.reshape"(%581){shape=[1, 256, 14, 14]}:(tensor<1x256x2x7x2x7xf32>) -> tensor<1x256x14x14xf32>
	%583="ufront.reshape"(%582){shape=[1, 256, 7, 2, 7, 2]}:(tensor<1x256x14x14xf32>) -> tensor<1x256x7x2x7x2xf32>
	%584="ufront.transpose"(%583){perms=[0, 2, 4, 3, 5, 1]}:(tensor<1x256x7x2x7x2xf32>) -> tensor<1x7x7x2x2x256xf32>
	%585="ufront.reshape"(%584){shape=[1, 49, 4, 256]}:(tensor<1x7x7x2x2x256xf32>) -> tensor<1x49x4x256xf32>
	%586="ufront.call"(%585){addargs=[('arg2', -2), ('arg3', -3)], func=swapaxes}:(tensor<1x49x4x256xf32>) -> tensor<1x4x49x256xf32>
	%587="ufront.layer_norm"(%586){elementwise_affine=true, eps=0.00001, normalized_shape=[256]}:(tensor<1x4x49x256xf32>) -> tensor<1x4x49x256xf32>
	%588="ufront.linear"(%587):(tensor<1x4x49x256xf32>) -> tensor<1x4x49x768xf32>
	%589, %590, %591="ufront.chunk"(%588){axis=-1, sizes=3}:(tensor<1x4x49x768xf32>) -> (tensor<1x4x49x256xf32>, tensor<1x4x49x256xf32>, tensor<1x4x49x256xf32>)
	%592="ufront.reshape"(%589){shape=[1, 4, 49, 8, 32]}:(tensor<1x4x49x256xf32>) -> tensor<1x4x49x8x32xf32>
	%593="ufront.transpose"(%592){perms=[0, 1, 3, 2, 4]}:(tensor<1x4x49x8x32xf32>) -> tensor<1x4x8x49x32xf32>
	%594="ufront.reshape"(%590){shape=[1, 4, 49, 8, 32]}:(tensor<1x4x49x256xf32>) -> tensor<1x4x49x8x32xf32>
	%595="ufront.transpose"(%594){perms=[0, 1, 3, 2, 4]}:(tensor<1x4x49x8x32xf32>) -> tensor<1x4x8x49x32xf32>
	%596="ufront.reshape"(%591){shape=[1, 4, 49, 8, 32]}:(tensor<1x4x49x256xf32>) -> tensor<1x4x49x8x32xf32>
	%597="ufront.transpose"(%596){perms=[0, 1, 3, 2, 4]}:(tensor<1x4x49x8x32xf32>) -> tensor<1x4x8x49x32xf32>
	%598="ufront.smultiply"(%595){scalar=0.0625}:(tensor<1x4x8x49x32xf32>) -> tensor<1x4x8x49x32xf32>
	%599="ufront.call"(%593, %598){addargs=[('arg1', 'B G H I D, B G H J D -> B G H I J')], func=einsum}:(tensor<1x4x8x49x32xf32>, tensor<1x4x8x49x32xf32>) -> tensor<1x4x8x49x49xf32>
	%600="ufront.parameter"(%blocks.2.layers.1.layers.grid_attention.attn_layer.1.relative_position_bias_table){dtype="Float", initializer="…", requires_grad=true}:(tensor<169x8xf32>) -> tensor<169x8xf32>
	%601="ufront.tensor"(%_tensor_constant11){dtype="Int64", initializer="…", requires_grad=false}:(tensor<2401xf32>) -> tensor<2401xf32>
	%602="ufront.slice"(%600, %601){output_shape=[2401, 8]}:(tensor<169x8xf32>, tensor<2401xf32>) -> tensor<2401x8xf32>
	%603="ufront.reshape"(%602){shape=[49, 49, 8]}:(tensor<2401x8xf32>) -> tensor<49x49x8xf32>
	%604="ufront.transpose"(%603){perms=[2, 0, 1]}:(tensor<49x49x8xf32>) -> tensor<8x49x49xf32>
	%605="ufront.reshape"(%604){shape=[1, 8, 49, 49]}:(tensor<8x49x49xf32>) -> tensor<1x8x49x49xf32>
	%606="ufront.add"(%599, %605):(tensor<1x4x8x49x49xf32>, tensor<1x8x49x49xf32>) -> tensor<1x4x8x49x49xf32>
	%607="ufront.softmax"(%606):(tensor<1x4x8x49x49xf32>) -> tensor<1x4x8x49x49xf32>
	%608="ufront.call"(%607, %597){addargs=[('arg1', 'B G H I J, B G H J D -> B G H I D')], func=einsum}:(tensor<1x4x8x49x49xf32>, tensor<1x4x8x49x32xf32>) -> tensor<1x4x8x49x32xf32>
	%609="ufront.transpose"(%608){perms=[0, 1, 3, 2, 4]}:(tensor<1x4x8x49x32xf32>) -> tensor<1x4x49x8x32xf32>
	%610="ufront.reshape"(%609){shape=[1, 4, 49, 256]}:(tensor<1x4x49x8x32xf32>) -> tensor<1x4x49x256xf32>
	%611="ufront.linear"(%610):(tensor<1x4x49x256xf32>) -> tensor<1x4x49x256xf32>
	%612="ufront.dropout"(%611){rate=0.0, seed=0}:(tensor<1x4x49x256xf32>) -> tensor<1x4x49x256xf32>
	%613="ufront.call"(%612){addargs=[('p', 0.1), ('mode', 'row'), ('training', False)], func=stochastic_depth}:(tensor<1x4x49x256xf32>) -> tensor<1x4x49x256xf32>
	%614="ufront.add"(%586, %613):(tensor<1x4x49x256xf32>, tensor<1x4x49x256xf32>) -> tensor<1x4x49x256xf32>
	%615="ufront.layer_norm"(%614){elementwise_affine=true, eps=0.00001, normalized_shape=[256]}:(tensor<1x4x49x256xf32>) -> tensor<1x4x49x256xf32>
	%616="ufront.linear"(%615):(tensor<1x4x49x256xf32>) -> tensor<1x4x49x1024xf32>
	%617="ufront.gelu"(%616):(tensor<1x4x49x1024xf32>) -> tensor<1x4x49x1024xf32>
	%618="ufront.linear"(%617):(tensor<1x4x49x1024xf32>) -> tensor<1x4x49x256xf32>
	%619="ufront.dropout"(%618){rate=0.0, seed=0}:(tensor<1x4x49x256xf32>) -> tensor<1x4x49x256xf32>
	%620="ufront.call"(%619){addargs=[('p', 0.1), ('mode', 'row'), ('training', False)], func=stochastic_depth}:(tensor<1x4x49x256xf32>) -> tensor<1x4x49x256xf32>
	%621="ufront.add"(%614, %620):(tensor<1x4x49x256xf32>, tensor<1x4x49x256xf32>) -> tensor<1x4x49x256xf32>
	%622="ufront.call"(%621){addargs=[('arg2', -2), ('arg3', -3)], func=swapaxes}:(tensor<1x4x49x256xf32>) -> tensor<1x49x4x256xf32>
	%623="ufront.reshape"(%622){shape=[1, 7, 7, 2, 2, 256]}:(tensor<1x49x4x256xf32>) -> tensor<1x7x7x2x2x256xf32>
	%624="ufront.transpose"(%623){perms=[0, 5, 1, 3, 2, 4]}:(tensor<1x7x7x2x2x256xf32>) -> tensor<1x256x7x2x7x2xf32>
	%625="ufront.reshape"(%624){shape=[1, 256, 14, 14]}:(tensor<1x256x7x2x7x2xf32>) -> tensor<1x256x14x14xf32>
	%626="ufront.identity"(%625):(tensor<1x256x14x14xf32>) -> tensor<1x256x14x14xf32>
	%627="ufront.batchnorm"(%625){affine=true, eps=0.001, momentum=0.99, track_running_stats=true}:(tensor<1x256x14x14xf32>) -> tensor<1x256x14x14xf32>
	%628="ufront.conv2d"(%627){groups=1, kernel=[1, 1], pad=[0, 0], stride=[1, 1]}:(tensor<1x256x14x14xf32>) -> tensor<1x1024x14x14xf32>
	%629="ufront.batchnorm"(%628){affine=true, eps=0.001, momentum=0.99, track_running_stats=true}:(tensor<1x1024x14x14xf32>) -> tensor<1x1024x14x14xf32>
	%630="ufront.gelu"(%629):(tensor<1x1024x14x14xf32>) -> tensor<1x1024x14x14xf32>
	%631="ufront.conv2d"(%630){groups=1024, kernel=[3, 3], pad=[1, 1], stride=[1, 1]}:(tensor<1x1024x14x14xf32>) -> tensor<1x1024x14x14xf32>
	%632="ufront.batchnorm"(%631){affine=true, eps=0.001, momentum=0.99, track_running_stats=true}:(tensor<1x1024x14x14xf32>) -> tensor<1x1024x14x14xf32>
	%633="ufront.gelu"(%632):(tensor<1x1024x14x14xf32>) -> tensor<1x1024x14x14xf32>
	%634="ufront.pool2d"(%633){output_size=[1, 1], pool_type="POOL_ADAPTIVE"}:(tensor<1x1024x14x14xf32>) -> tensor<1x1024x1x1xf32>
	%635="ufront.conv2d"(%634){groups=1, kernel=[1, 1], pad=[0, 0], stride=[1, 1]}:(tensor<1x1024x1x1xf32>) -> tensor<1x64x1x1xf32>
	%636="ufront.silu"(%635):(tensor<1x64x1x1xf32>) -> tensor<1x64x1x1xf32>
	%637="ufront.conv2d"(%636){groups=1, kernel=[1, 1], pad=[0, 0], stride=[1, 1]}:(tensor<1x64x1x1xf32>) -> tensor<1x1024x1x1xf32>
	%638="ufront.sigmoid"(%637):(tensor<1x1024x1x1xf32>) -> tensor<1x1024x1x1xf32>
	%639="ufront.multiply"(%638, %633):(tensor<1x1024x1x1xf32>, tensor<1x1024x14x14xf32>) -> tensor<1x1024x14x14xf32>
	%640="ufront.conv2d"(%639){groups=1, kernel=[1, 1], pad=[0, 0], stride=[1, 1]}:(tensor<1x1024x14x14xf32>) -> tensor<1x256x14x14xf32>
	%641="ufront.call"(%640){addargs=[('p', 0.12), ('mode', 'row'), ('training', False)], func=stochastic_depth}:(tensor<1x256x14x14xf32>) -> tensor<1x256x14x14xf32>
	%642="ufront.add"(%626, %641):(tensor<1x256x14x14xf32>, tensor<1x256x14x14xf32>) -> tensor<1x256x14x14xf32>
	%643="ufront.reshape"(%642){shape=[1, 256, 2, 7, 2, 7]}:(tensor<1x256x14x14xf32>) -> tensor<1x256x2x7x2x7xf32>
	%644="ufront.transpose"(%643){perms=[0, 2, 4, 3, 5, 1]}:(tensor<1x256x2x7x2x7xf32>) -> tensor<1x2x2x7x7x256xf32>
	%645="ufront.reshape"(%644){shape=[1, 4, 49, 256]}:(tensor<1x2x2x7x7x256xf32>) -> tensor<1x4x49x256xf32>
	%646="ufront.identity"(%645):(tensor<1x4x49x256xf32>) -> tensor<1x4x49x256xf32>
	%647="ufront.layer_norm"(%646){elementwise_affine=true, eps=0.00001, normalized_shape=[256]}:(tensor<1x4x49x256xf32>) -> tensor<1x4x49x256xf32>
	%648="ufront.linear"(%647):(tensor<1x4x49x256xf32>) -> tensor<1x4x49x768xf32>
	%649, %650, %651="ufront.chunk"(%648){axis=-1, sizes=3}:(tensor<1x4x49x768xf32>) -> (tensor<1x4x49x256xf32>, tensor<1x4x49x256xf32>, tensor<1x4x49x256xf32>)
	%652="ufront.reshape"(%649){shape=[1, 4, 49, 8, 32]}:(tensor<1x4x49x256xf32>) -> tensor<1x4x49x8x32xf32>
	%653="ufront.transpose"(%652){perms=[0, 1, 3, 2, 4]}:(tensor<1x4x49x8x32xf32>) -> tensor<1x4x8x49x32xf32>
	%654="ufront.reshape"(%650){shape=[1, 4, 49, 8, 32]}:(tensor<1x4x49x256xf32>) -> tensor<1x4x49x8x32xf32>
	%655="ufront.transpose"(%654){perms=[0, 1, 3, 2, 4]}:(tensor<1x4x49x8x32xf32>) -> tensor<1x4x8x49x32xf32>
	%656="ufront.reshape"(%651){shape=[1, 4, 49, 8, 32]}:(tensor<1x4x49x256xf32>) -> tensor<1x4x49x8x32xf32>
	%657="ufront.transpose"(%656){perms=[0, 1, 3, 2, 4]}:(tensor<1x4x49x8x32xf32>) -> tensor<1x4x8x49x32xf32>
	%658="ufront.smultiply"(%655){scalar=0.0625}:(tensor<1x4x8x49x32xf32>) -> tensor<1x4x8x49x32xf32>
	%659="ufront.call"(%653, %658){addargs=[('arg1', 'B G H I D, B G H J D -> B G H I J')], func=einsum}:(tensor<1x4x8x49x32xf32>, tensor<1x4x8x49x32xf32>) -> tensor<1x4x8x49x49xf32>
	%660="ufront.parameter"(%blocks.2.layers.2.layers.window_attention.attn_layer.1.relative_position_bias_table){dtype="Float", initializer="…", requires_grad=true}:(tensor<169x8xf32>) -> tensor<169x8xf32>
	%661="ufront.tensor"(%_tensor_constant12){dtype="Int64", initializer="…", requires_grad=false}:(tensor<2401xf32>) -> tensor<2401xf32>
	%662="ufront.slice"(%660, %661){output_shape=[2401, 8]}:(tensor<169x8xf32>, tensor<2401xf32>) -> tensor<2401x8xf32>
	%663="ufront.reshape"(%662){shape=[49, 49, 8]}:(tensor<2401x8xf32>) -> tensor<49x49x8xf32>
	%664="ufront.transpose"(%663){perms=[2, 0, 1]}:(tensor<49x49x8xf32>) -> tensor<8x49x49xf32>
	%665="ufront.reshape"(%664){shape=[1, 8, 49, 49]}:(tensor<8x49x49xf32>) -> tensor<1x8x49x49xf32>
	%666="ufront.add"(%659, %665):(tensor<1x4x8x49x49xf32>, tensor<1x8x49x49xf32>) -> tensor<1x4x8x49x49xf32>
	%667="ufront.softmax"(%666):(tensor<1x4x8x49x49xf32>) -> tensor<1x4x8x49x49xf32>
	%668="ufront.call"(%667, %657){addargs=[('arg1', 'B G H I J, B G H J D -> B G H I D')], func=einsum}:(tensor<1x4x8x49x49xf32>, tensor<1x4x8x49x32xf32>) -> tensor<1x4x8x49x32xf32>
	%669="ufront.transpose"(%668){perms=[0, 1, 3, 2, 4]}:(tensor<1x4x8x49x32xf32>) -> tensor<1x4x49x8x32xf32>
	%670="ufront.reshape"(%669){shape=[1, 4, 49, 256]}:(tensor<1x4x49x8x32xf32>) -> tensor<1x4x49x256xf32>
	%671="ufront.linear"(%670):(tensor<1x4x49x256xf32>) -> tensor<1x4x49x256xf32>
	%672="ufront.dropout"(%671){rate=0.0, seed=0}:(tensor<1x4x49x256xf32>) -> tensor<1x4x49x256xf32>
	%673="ufront.call"(%672){addargs=[('p', 0.12), ('mode', 'row'), ('training', False)], func=stochastic_depth}:(tensor<1x4x49x256xf32>) -> tensor<1x4x49x256xf32>
	%674="ufront.add"(%646, %673):(tensor<1x4x49x256xf32>, tensor<1x4x49x256xf32>) -> tensor<1x4x49x256xf32>
	%675="ufront.layer_norm"(%674){elementwise_affine=true, eps=0.00001, normalized_shape=[256]}:(tensor<1x4x49x256xf32>) -> tensor<1x4x49x256xf32>
	%676="ufront.linear"(%675):(tensor<1x4x49x256xf32>) -> tensor<1x4x49x1024xf32>
	%677="ufront.gelu"(%676):(tensor<1x4x49x1024xf32>) -> tensor<1x4x49x1024xf32>
	%678="ufront.linear"(%677):(tensor<1x4x49x1024xf32>) -> tensor<1x4x49x256xf32>
	%679="ufront.dropout"(%678){rate=0.0, seed=0}:(tensor<1x4x49x256xf32>) -> tensor<1x4x49x256xf32>
	%680="ufront.call"(%679){addargs=[('p', 0.12), ('mode', 'row'), ('training', False)], func=stochastic_depth}:(tensor<1x4x49x256xf32>) -> tensor<1x4x49x256xf32>
	%681="ufront.add"(%674, %680):(tensor<1x4x49x256xf32>, tensor<1x4x49x256xf32>) -> tensor<1x4x49x256xf32>
	%682="ufront.identity"(%681):(tensor<1x4x49x256xf32>) -> tensor<1x4x49x256xf32>
	%683="ufront.reshape"(%682){shape=[1, 2, 2, 7, 7, 256]}:(tensor<1x4x49x256xf32>) -> tensor<1x2x2x7x7x256xf32>
	%684="ufront.transpose"(%683){perms=[0, 5, 1, 3, 2, 4]}:(tensor<1x2x2x7x7x256xf32>) -> tensor<1x256x2x7x2x7xf32>
	%685="ufront.reshape"(%684){shape=[1, 256, 14, 14]}:(tensor<1x256x2x7x2x7xf32>) -> tensor<1x256x14x14xf32>
	%686="ufront.reshape"(%685){shape=[1, 256, 7, 2, 7, 2]}:(tensor<1x256x14x14xf32>) -> tensor<1x256x7x2x7x2xf32>
	%687="ufront.transpose"(%686){perms=[0, 2, 4, 3, 5, 1]}:(tensor<1x256x7x2x7x2xf32>) -> tensor<1x7x7x2x2x256xf32>
	%688="ufront.reshape"(%687){shape=[1, 49, 4, 256]}:(tensor<1x7x7x2x2x256xf32>) -> tensor<1x49x4x256xf32>
	%689="ufront.call"(%688){addargs=[('arg2', -2), ('arg3', -3)], func=swapaxes}:(tensor<1x49x4x256xf32>) -> tensor<1x4x49x256xf32>
	%690="ufront.layer_norm"(%689){elementwise_affine=true, eps=0.00001, normalized_shape=[256]}:(tensor<1x4x49x256xf32>) -> tensor<1x4x49x256xf32>
	%691="ufront.linear"(%690):(tensor<1x4x49x256xf32>) -> tensor<1x4x49x768xf32>
	%692, %693, %694="ufront.chunk"(%691){axis=-1, sizes=3}:(tensor<1x4x49x768xf32>) -> (tensor<1x4x49x256xf32>, tensor<1x4x49x256xf32>, tensor<1x4x49x256xf32>)
	%695="ufront.reshape"(%692){shape=[1, 4, 49, 8, 32]}:(tensor<1x4x49x256xf32>) -> tensor<1x4x49x8x32xf32>
	%696="ufront.transpose"(%695){perms=[0, 1, 3, 2, 4]}:(tensor<1x4x49x8x32xf32>) -> tensor<1x4x8x49x32xf32>
	%697="ufront.reshape"(%693){shape=[1, 4, 49, 8, 32]}:(tensor<1x4x49x256xf32>) -> tensor<1x4x49x8x32xf32>
	%698="ufront.transpose"(%697){perms=[0, 1, 3, 2, 4]}:(tensor<1x4x49x8x32xf32>) -> tensor<1x4x8x49x32xf32>
	%699="ufront.reshape"(%694){shape=[1, 4, 49, 8, 32]}:(tensor<1x4x49x256xf32>) -> tensor<1x4x49x8x32xf32>
	%700="ufront.transpose"(%699){perms=[0, 1, 3, 2, 4]}:(tensor<1x4x49x8x32xf32>) -> tensor<1x4x8x49x32xf32>
	%701="ufront.smultiply"(%698){scalar=0.0625}:(tensor<1x4x8x49x32xf32>) -> tensor<1x4x8x49x32xf32>
	%702="ufront.call"(%696, %701){addargs=[('arg1', 'B G H I D, B G H J D -> B G H I J')], func=einsum}:(tensor<1x4x8x49x32xf32>, tensor<1x4x8x49x32xf32>) -> tensor<1x4x8x49x49xf32>
	%703="ufront.parameter"(%blocks.2.layers.2.layers.grid_attention.attn_layer.1.relative_position_bias_table){dtype="Float", initializer="…", requires_grad=true}:(tensor<169x8xf32>) -> tensor<169x8xf32>
	%704="ufront.tensor"(%_tensor_constant13){dtype="Int64", initializer="…", requires_grad=false}:(tensor<2401xf32>) -> tensor<2401xf32>
	%705="ufront.slice"(%703, %704){output_shape=[2401, 8]}:(tensor<169x8xf32>, tensor<2401xf32>) -> tensor<2401x8xf32>
	%706="ufront.reshape"(%705){shape=[49, 49, 8]}:(tensor<2401x8xf32>) -> tensor<49x49x8xf32>
	%707="ufront.transpose"(%706){perms=[2, 0, 1]}:(tensor<49x49x8xf32>) -> tensor<8x49x49xf32>
	%708="ufront.reshape"(%707){shape=[1, 8, 49, 49]}:(tensor<8x49x49xf32>) -> tensor<1x8x49x49xf32>
	%709="ufront.add"(%702, %708):(tensor<1x4x8x49x49xf32>, tensor<1x8x49x49xf32>) -> tensor<1x4x8x49x49xf32>
	%710="ufront.softmax"(%709):(tensor<1x4x8x49x49xf32>) -> tensor<1x4x8x49x49xf32>
	%711="ufront.call"(%710, %700){addargs=[('arg1', 'B G H I J, B G H J D -> B G H I D')], func=einsum}:(tensor<1x4x8x49x49xf32>, tensor<1x4x8x49x32xf32>) -> tensor<1x4x8x49x32xf32>
	%712="ufront.transpose"(%711){perms=[0, 1, 3, 2, 4]}:(tensor<1x4x8x49x32xf32>) -> tensor<1x4x49x8x32xf32>
	%713="ufront.reshape"(%712){shape=[1, 4, 49, 256]}:(tensor<1x4x49x8x32xf32>) -> tensor<1x4x49x256xf32>
	%714="ufront.linear"(%713):(tensor<1x4x49x256xf32>) -> tensor<1x4x49x256xf32>
	%715="ufront.dropout"(%714){rate=0.0, seed=0}:(tensor<1x4x49x256xf32>) -> tensor<1x4x49x256xf32>
	%716="ufront.call"(%715){addargs=[('p', 0.12), ('mode', 'row'), ('training', False)], func=stochastic_depth}:(tensor<1x4x49x256xf32>) -> tensor<1x4x49x256xf32>
	%717="ufront.add"(%689, %716):(tensor<1x4x49x256xf32>, tensor<1x4x49x256xf32>) -> tensor<1x4x49x256xf32>
	%718="ufront.layer_norm"(%717){elementwise_affine=true, eps=0.00001, normalized_shape=[256]}:(tensor<1x4x49x256xf32>) -> tensor<1x4x49x256xf32>
	%719="ufront.linear"(%718):(tensor<1x4x49x256xf32>) -> tensor<1x4x49x1024xf32>
	%720="ufront.gelu"(%719):(tensor<1x4x49x1024xf32>) -> tensor<1x4x49x1024xf32>
	%721="ufront.linear"(%720):(tensor<1x4x49x1024xf32>) -> tensor<1x4x49x256xf32>
	%722="ufront.dropout"(%721){rate=0.0, seed=0}:(tensor<1x4x49x256xf32>) -> tensor<1x4x49x256xf32>
	%723="ufront.call"(%722){addargs=[('p', 0.12), ('mode', 'row'), ('training', False)], func=stochastic_depth}:(tensor<1x4x49x256xf32>) -> tensor<1x4x49x256xf32>
	%724="ufront.add"(%717, %723):(tensor<1x4x49x256xf32>, tensor<1x4x49x256xf32>) -> tensor<1x4x49x256xf32>
	%725="ufront.call"(%724){addargs=[('arg2', -2), ('arg3', -3)], func=swapaxes}:(tensor<1x4x49x256xf32>) -> tensor<1x49x4x256xf32>
	%726="ufront.reshape"(%725){shape=[1, 7, 7, 2, 2, 256]}:(tensor<1x49x4x256xf32>) -> tensor<1x7x7x2x2x256xf32>
	%727="ufront.transpose"(%726){perms=[0, 5, 1, 3, 2, 4]}:(tensor<1x7x7x2x2x256xf32>) -> tensor<1x256x7x2x7x2xf32>
	%728="ufront.reshape"(%727){shape=[1, 256, 14, 14]}:(tensor<1x256x7x2x7x2xf32>) -> tensor<1x256x14x14xf32>
	%729="ufront.identity"(%728):(tensor<1x256x14x14xf32>) -> tensor<1x256x14x14xf32>
	%730="ufront.batchnorm"(%728){affine=true, eps=0.001, momentum=0.99, track_running_stats=true}:(tensor<1x256x14x14xf32>) -> tensor<1x256x14x14xf32>
	%731="ufront.conv2d"(%730){groups=1, kernel=[1, 1], pad=[0, 0], stride=[1, 1]}:(tensor<1x256x14x14xf32>) -> tensor<1x1024x14x14xf32>
	%732="ufront.batchnorm"(%731){affine=true, eps=0.001, momentum=0.99, track_running_stats=true}:(tensor<1x1024x14x14xf32>) -> tensor<1x1024x14x14xf32>
	%733="ufront.gelu"(%732):(tensor<1x1024x14x14xf32>) -> tensor<1x1024x14x14xf32>
	%734="ufront.conv2d"(%733){groups=1024, kernel=[3, 3], pad=[1, 1], stride=[1, 1]}:(tensor<1x1024x14x14xf32>) -> tensor<1x1024x14x14xf32>
	%735="ufront.batchnorm"(%734){affine=true, eps=0.001, momentum=0.99, track_running_stats=true}:(tensor<1x1024x14x14xf32>) -> tensor<1x1024x14x14xf32>
	%736="ufront.gelu"(%735):(tensor<1x1024x14x14xf32>) -> tensor<1x1024x14x14xf32>
	%737="ufront.pool2d"(%736){output_size=[1, 1], pool_type="POOL_ADAPTIVE"}:(tensor<1x1024x14x14xf32>) -> tensor<1x1024x1x1xf32>
	%738="ufront.conv2d"(%737){groups=1, kernel=[1, 1], pad=[0, 0], stride=[1, 1]}:(tensor<1x1024x1x1xf32>) -> tensor<1x64x1x1xf32>
	%739="ufront.silu"(%738):(tensor<1x64x1x1xf32>) -> tensor<1x64x1x1xf32>
	%740="ufront.conv2d"(%739){groups=1, kernel=[1, 1], pad=[0, 0], stride=[1, 1]}:(tensor<1x64x1x1xf32>) -> tensor<1x1024x1x1xf32>
	%741="ufront.sigmoid"(%740):(tensor<1x1024x1x1xf32>) -> tensor<1x1024x1x1xf32>
	%742="ufront.multiply"(%741, %736):(tensor<1x1024x1x1xf32>, tensor<1x1024x14x14xf32>) -> tensor<1x1024x14x14xf32>
	%743="ufront.conv2d"(%742){groups=1, kernel=[1, 1], pad=[0, 0], stride=[1, 1]}:(tensor<1x1024x14x14xf32>) -> tensor<1x256x14x14xf32>
	%744="ufront.call"(%743){addargs=[('p', 0.14), ('mode', 'row'), ('training', False)], func=stochastic_depth}:(tensor<1x256x14x14xf32>) -> tensor<1x256x14x14xf32>
	%745="ufront.add"(%729, %744):(tensor<1x256x14x14xf32>, tensor<1x256x14x14xf32>) -> tensor<1x256x14x14xf32>
	%746="ufront.reshape"(%745){shape=[1, 256, 2, 7, 2, 7]}:(tensor<1x256x14x14xf32>) -> tensor<1x256x2x7x2x7xf32>
	%747="ufront.transpose"(%746){perms=[0, 2, 4, 3, 5, 1]}:(tensor<1x256x2x7x2x7xf32>) -> tensor<1x2x2x7x7x256xf32>
	%748="ufront.reshape"(%747){shape=[1, 4, 49, 256]}:(tensor<1x2x2x7x7x256xf32>) -> tensor<1x4x49x256xf32>
	%749="ufront.identity"(%748):(tensor<1x4x49x256xf32>) -> tensor<1x4x49x256xf32>
	%750="ufront.layer_norm"(%749){elementwise_affine=true, eps=0.00001, normalized_shape=[256]}:(tensor<1x4x49x256xf32>) -> tensor<1x4x49x256xf32>
	%751="ufront.linear"(%750):(tensor<1x4x49x256xf32>) -> tensor<1x4x49x768xf32>
	%752, %753, %754="ufront.chunk"(%751){axis=-1, sizes=3}:(tensor<1x4x49x768xf32>) -> (tensor<1x4x49x256xf32>, tensor<1x4x49x256xf32>, tensor<1x4x49x256xf32>)
	%755="ufront.reshape"(%752){shape=[1, 4, 49, 8, 32]}:(tensor<1x4x49x256xf32>) -> tensor<1x4x49x8x32xf32>
	%756="ufront.transpose"(%755){perms=[0, 1, 3, 2, 4]}:(tensor<1x4x49x8x32xf32>) -> tensor<1x4x8x49x32xf32>
	%757="ufront.reshape"(%753){shape=[1, 4, 49, 8, 32]}:(tensor<1x4x49x256xf32>) -> tensor<1x4x49x8x32xf32>
	%758="ufront.transpose"(%757){perms=[0, 1, 3, 2, 4]}:(tensor<1x4x49x8x32xf32>) -> tensor<1x4x8x49x32xf32>
	%759="ufront.reshape"(%754){shape=[1, 4, 49, 8, 32]}:(tensor<1x4x49x256xf32>) -> tensor<1x4x49x8x32xf32>
	%760="ufront.transpose"(%759){perms=[0, 1, 3, 2, 4]}:(tensor<1x4x49x8x32xf32>) -> tensor<1x4x8x49x32xf32>
	%761="ufront.smultiply"(%758){scalar=0.0625}:(tensor<1x4x8x49x32xf32>) -> tensor<1x4x8x49x32xf32>
	%762="ufront.call"(%756, %761){addargs=[('arg1', 'B G H I D, B G H J D -> B G H I J')], func=einsum}:(tensor<1x4x8x49x32xf32>, tensor<1x4x8x49x32xf32>) -> tensor<1x4x8x49x49xf32>
	%763="ufront.parameter"(%blocks.2.layers.3.layers.window_attention.attn_layer.1.relative_position_bias_table){dtype="Float", initializer="…", requires_grad=true}:(tensor<169x8xf32>) -> tensor<169x8xf32>
	%764="ufront.tensor"(%_tensor_constant14){dtype="Int64", initializer="…", requires_grad=false}:(tensor<2401xf32>) -> tensor<2401xf32>
	%765="ufront.slice"(%763, %764){output_shape=[2401, 8]}:(tensor<169x8xf32>, tensor<2401xf32>) -> tensor<2401x8xf32>
	%766="ufront.reshape"(%765){shape=[49, 49, 8]}:(tensor<2401x8xf32>) -> tensor<49x49x8xf32>
	%767="ufront.transpose"(%766){perms=[2, 0, 1]}:(tensor<49x49x8xf32>) -> tensor<8x49x49xf32>
	%768="ufront.reshape"(%767){shape=[1, 8, 49, 49]}:(tensor<8x49x49xf32>) -> tensor<1x8x49x49xf32>
	%769="ufront.add"(%762, %768):(tensor<1x4x8x49x49xf32>, tensor<1x8x49x49xf32>) -> tensor<1x4x8x49x49xf32>
	%770="ufront.softmax"(%769):(tensor<1x4x8x49x49xf32>) -> tensor<1x4x8x49x49xf32>
	%771="ufront.call"(%770, %760){addargs=[('arg1', 'B G H I J, B G H J D -> B G H I D')], func=einsum}:(tensor<1x4x8x49x49xf32>, tensor<1x4x8x49x32xf32>) -> tensor<1x4x8x49x32xf32>
	%772="ufront.transpose"(%771){perms=[0, 1, 3, 2, 4]}:(tensor<1x4x8x49x32xf32>) -> tensor<1x4x49x8x32xf32>
	%773="ufront.reshape"(%772){shape=[1, 4, 49, 256]}:(tensor<1x4x49x8x32xf32>) -> tensor<1x4x49x256xf32>
	%774="ufront.linear"(%773):(tensor<1x4x49x256xf32>) -> tensor<1x4x49x256xf32>
	%775="ufront.dropout"(%774){rate=0.0, seed=0}:(tensor<1x4x49x256xf32>) -> tensor<1x4x49x256xf32>
	%776="ufront.call"(%775){addargs=[('p', 0.14), ('mode', 'row'), ('training', False)], func=stochastic_depth}:(tensor<1x4x49x256xf32>) -> tensor<1x4x49x256xf32>
	%777="ufront.add"(%749, %776):(tensor<1x4x49x256xf32>, tensor<1x4x49x256xf32>) -> tensor<1x4x49x256xf32>
	%778="ufront.layer_norm"(%777){elementwise_affine=true, eps=0.00001, normalized_shape=[256]}:(tensor<1x4x49x256xf32>) -> tensor<1x4x49x256xf32>
	%779="ufront.linear"(%778):(tensor<1x4x49x256xf32>) -> tensor<1x4x49x1024xf32>
	%780="ufront.gelu"(%779):(tensor<1x4x49x1024xf32>) -> tensor<1x4x49x1024xf32>
	%781="ufront.linear"(%780):(tensor<1x4x49x1024xf32>) -> tensor<1x4x49x256xf32>
	%782="ufront.dropout"(%781){rate=0.0, seed=0}:(tensor<1x4x49x256xf32>) -> tensor<1x4x49x256xf32>
	%783="ufront.call"(%782){addargs=[('p', 0.14), ('mode', 'row'), ('training', False)], func=stochastic_depth}:(tensor<1x4x49x256xf32>) -> tensor<1x4x49x256xf32>
	%784="ufront.add"(%777, %783):(tensor<1x4x49x256xf32>, tensor<1x4x49x256xf32>) -> tensor<1x4x49x256xf32>
	%785="ufront.identity"(%784):(tensor<1x4x49x256xf32>) -> tensor<1x4x49x256xf32>
	%786="ufront.reshape"(%785){shape=[1, 2, 2, 7, 7, 256]}:(tensor<1x4x49x256xf32>) -> tensor<1x2x2x7x7x256xf32>
	%787="ufront.transpose"(%786){perms=[0, 5, 1, 3, 2, 4]}:(tensor<1x2x2x7x7x256xf32>) -> tensor<1x256x2x7x2x7xf32>
	%788="ufront.reshape"(%787){shape=[1, 256, 14, 14]}:(tensor<1x256x2x7x2x7xf32>) -> tensor<1x256x14x14xf32>
	%789="ufront.reshape"(%788){shape=[1, 256, 7, 2, 7, 2]}:(tensor<1x256x14x14xf32>) -> tensor<1x256x7x2x7x2xf32>
	%790="ufront.transpose"(%789){perms=[0, 2, 4, 3, 5, 1]}:(tensor<1x256x7x2x7x2xf32>) -> tensor<1x7x7x2x2x256xf32>
	%791="ufront.reshape"(%790){shape=[1, 49, 4, 256]}:(tensor<1x7x7x2x2x256xf32>) -> tensor<1x49x4x256xf32>
	%792="ufront.call"(%791){addargs=[('arg2', -2), ('arg3', -3)], func=swapaxes}:(tensor<1x49x4x256xf32>) -> tensor<1x4x49x256xf32>
	%793="ufront.layer_norm"(%792){elementwise_affine=true, eps=0.00001, normalized_shape=[256]}:(tensor<1x4x49x256xf32>) -> tensor<1x4x49x256xf32>
	%794="ufront.linear"(%793):(tensor<1x4x49x256xf32>) -> tensor<1x4x49x768xf32>
	%795, %796, %797="ufront.chunk"(%794){axis=-1, sizes=3}:(tensor<1x4x49x768xf32>) -> (tensor<1x4x49x256xf32>, tensor<1x4x49x256xf32>, tensor<1x4x49x256xf32>)
	%798="ufront.reshape"(%795){shape=[1, 4, 49, 8, 32]}:(tensor<1x4x49x256xf32>) -> tensor<1x4x49x8x32xf32>
	%799="ufront.transpose"(%798){perms=[0, 1, 3, 2, 4]}:(tensor<1x4x49x8x32xf32>) -> tensor<1x4x8x49x32xf32>
	%800="ufront.reshape"(%796){shape=[1, 4, 49, 8, 32]}:(tensor<1x4x49x256xf32>) -> tensor<1x4x49x8x32xf32>
	%801="ufront.transpose"(%800){perms=[0, 1, 3, 2, 4]}:(tensor<1x4x49x8x32xf32>) -> tensor<1x4x8x49x32xf32>
	%802="ufront.reshape"(%797){shape=[1, 4, 49, 8, 32]}:(tensor<1x4x49x256xf32>) -> tensor<1x4x49x8x32xf32>
	%803="ufront.transpose"(%802){perms=[0, 1, 3, 2, 4]}:(tensor<1x4x49x8x32xf32>) -> tensor<1x4x8x49x32xf32>
	%804="ufront.smultiply"(%801){scalar=0.0625}:(tensor<1x4x8x49x32xf32>) -> tensor<1x4x8x49x32xf32>
	%805="ufront.call"(%799, %804){addargs=[('arg1', 'B G H I D, B G H J D -> B G H I J')], func=einsum}:(tensor<1x4x8x49x32xf32>, tensor<1x4x8x49x32xf32>) -> tensor<1x4x8x49x49xf32>
	%806="ufront.parameter"(%blocks.2.layers.3.layers.grid_attention.attn_layer.1.relative_position_bias_table){dtype="Float", initializer="…", requires_grad=true}:(tensor<169x8xf32>) -> tensor<169x8xf32>
	%807="ufront.tensor"(%_tensor_constant15){dtype="Int64", initializer="…", requires_grad=false}:(tensor<2401xf32>) -> tensor<2401xf32>
	%808="ufront.slice"(%806, %807){output_shape=[2401, 8]}:(tensor<169x8xf32>, tensor<2401xf32>) -> tensor<2401x8xf32>
	%809="ufront.reshape"(%808){shape=[49, 49, 8]}:(tensor<2401x8xf32>) -> tensor<49x49x8xf32>
	%810="ufront.transpose"(%809){perms=[2, 0, 1]}:(tensor<49x49x8xf32>) -> tensor<8x49x49xf32>
	%811="ufront.reshape"(%810){shape=[1, 8, 49, 49]}:(tensor<8x49x49xf32>) -> tensor<1x8x49x49xf32>
	%812="ufront.add"(%805, %811):(tensor<1x4x8x49x49xf32>, tensor<1x8x49x49xf32>) -> tensor<1x4x8x49x49xf32>
	%813="ufront.softmax"(%812):(tensor<1x4x8x49x49xf32>) -> tensor<1x4x8x49x49xf32>
	%814="ufront.call"(%813, %803){addargs=[('arg1', 'B G H I J, B G H J D -> B G H I D')], func=einsum}:(tensor<1x4x8x49x49xf32>, tensor<1x4x8x49x32xf32>) -> tensor<1x4x8x49x32xf32>
	%815="ufront.transpose"(%814){perms=[0, 1, 3, 2, 4]}:(tensor<1x4x8x49x32xf32>) -> tensor<1x4x49x8x32xf32>
	%816="ufront.reshape"(%815){shape=[1, 4, 49, 256]}:(tensor<1x4x49x8x32xf32>) -> tensor<1x4x49x256xf32>
	%817="ufront.linear"(%816):(tensor<1x4x49x256xf32>) -> tensor<1x4x49x256xf32>
	%818="ufront.dropout"(%817){rate=0.0, seed=0}:(tensor<1x4x49x256xf32>) -> tensor<1x4x49x256xf32>
	%819="ufront.call"(%818){addargs=[('p', 0.14), ('mode', 'row'), ('training', False)], func=stochastic_depth}:(tensor<1x4x49x256xf32>) -> tensor<1x4x49x256xf32>
	%820="ufront.add"(%792, %819):(tensor<1x4x49x256xf32>, tensor<1x4x49x256xf32>) -> tensor<1x4x49x256xf32>
	%821="ufront.layer_norm"(%820){elementwise_affine=true, eps=0.00001, normalized_shape=[256]}:(tensor<1x4x49x256xf32>) -> tensor<1x4x49x256xf32>
	%822="ufront.linear"(%821):(tensor<1x4x49x256xf32>) -> tensor<1x4x49x1024xf32>
	%823="ufront.gelu"(%822):(tensor<1x4x49x1024xf32>) -> tensor<1x4x49x1024xf32>
	%824="ufront.linear"(%823):(tensor<1x4x49x1024xf32>) -> tensor<1x4x49x256xf32>
	%825="ufront.dropout"(%824){rate=0.0, seed=0}:(tensor<1x4x49x256xf32>) -> tensor<1x4x49x256xf32>
	%826="ufront.call"(%825){addargs=[('p', 0.14), ('mode', 'row'), ('training', False)], func=stochastic_depth}:(tensor<1x4x49x256xf32>) -> tensor<1x4x49x256xf32>
	%827="ufront.add"(%820, %826):(tensor<1x4x49x256xf32>, tensor<1x4x49x256xf32>) -> tensor<1x4x49x256xf32>
	%828="ufront.call"(%827){addargs=[('arg2', -2), ('arg3', -3)], func=swapaxes}:(tensor<1x4x49x256xf32>) -> tensor<1x49x4x256xf32>
	%829="ufront.reshape"(%828){shape=[1, 7, 7, 2, 2, 256]}:(tensor<1x49x4x256xf32>) -> tensor<1x7x7x2x2x256xf32>
	%830="ufront.transpose"(%829){perms=[0, 5, 1, 3, 2, 4]}:(tensor<1x7x7x2x2x256xf32>) -> tensor<1x256x7x2x7x2xf32>
	%831="ufront.reshape"(%830){shape=[1, 256, 14, 14]}:(tensor<1x256x7x2x7x2xf32>) -> tensor<1x256x14x14xf32>
	%832="ufront.identity"(%831):(tensor<1x256x14x14xf32>) -> tensor<1x256x14x14xf32>
	%833="ufront.batchnorm"(%831){affine=true, eps=0.001, momentum=0.99, track_running_stats=true}:(tensor<1x256x14x14xf32>) -> tensor<1x256x14x14xf32>
	%834="ufront.conv2d"(%833){groups=1, kernel=[1, 1], pad=[0, 0], stride=[1, 1]}:(tensor<1x256x14x14xf32>) -> tensor<1x1024x14x14xf32>
	%835="ufront.batchnorm"(%834){affine=true, eps=0.001, momentum=0.99, track_running_stats=true}:(tensor<1x1024x14x14xf32>) -> tensor<1x1024x14x14xf32>
	%836="ufront.gelu"(%835):(tensor<1x1024x14x14xf32>) -> tensor<1x1024x14x14xf32>
	%837="ufront.conv2d"(%836){groups=1024, kernel=[3, 3], pad=[1, 1], stride=[1, 1]}:(tensor<1x1024x14x14xf32>) -> tensor<1x1024x14x14xf32>
	%838="ufront.batchnorm"(%837){affine=true, eps=0.001, momentum=0.99, track_running_stats=true}:(tensor<1x1024x14x14xf32>) -> tensor<1x1024x14x14xf32>
	%839="ufront.gelu"(%838):(tensor<1x1024x14x14xf32>) -> tensor<1x1024x14x14xf32>
	%840="ufront.pool2d"(%839){output_size=[1, 1], pool_type="POOL_ADAPTIVE"}:(tensor<1x1024x14x14xf32>) -> tensor<1x1024x1x1xf32>
	%841="ufront.conv2d"(%840){groups=1, kernel=[1, 1], pad=[0, 0], stride=[1, 1]}:(tensor<1x1024x1x1xf32>) -> tensor<1x64x1x1xf32>
	%842="ufront.silu"(%841):(tensor<1x64x1x1xf32>) -> tensor<1x64x1x1xf32>
	%843="ufront.conv2d"(%842){groups=1, kernel=[1, 1], pad=[0, 0], stride=[1, 1]}:(tensor<1x64x1x1xf32>) -> tensor<1x1024x1x1xf32>
	%844="ufront.sigmoid"(%843):(tensor<1x1024x1x1xf32>) -> tensor<1x1024x1x1xf32>
	%845="ufront.multiply"(%844, %839):(tensor<1x1024x1x1xf32>, tensor<1x1024x14x14xf32>) -> tensor<1x1024x14x14xf32>
	%846="ufront.conv2d"(%845){groups=1, kernel=[1, 1], pad=[0, 0], stride=[1, 1]}:(tensor<1x1024x14x14xf32>) -> tensor<1x256x14x14xf32>
	%847="ufront.call"(%846){addargs=[('p', 0.16), ('mode', 'row'), ('training', False)], func=stochastic_depth}:(tensor<1x256x14x14xf32>) -> tensor<1x256x14x14xf32>
	%848="ufront.add"(%832, %847):(tensor<1x256x14x14xf32>, tensor<1x256x14x14xf32>) -> tensor<1x256x14x14xf32>
	%849="ufront.reshape"(%848){shape=[1, 256, 2, 7, 2, 7]}:(tensor<1x256x14x14xf32>) -> tensor<1x256x2x7x2x7xf32>
	%850="ufront.transpose"(%849){perms=[0, 2, 4, 3, 5, 1]}:(tensor<1x256x2x7x2x7xf32>) -> tensor<1x2x2x7x7x256xf32>
	%851="ufront.reshape"(%850){shape=[1, 4, 49, 256]}:(tensor<1x2x2x7x7x256xf32>) -> tensor<1x4x49x256xf32>
	%852="ufront.identity"(%851):(tensor<1x4x49x256xf32>) -> tensor<1x4x49x256xf32>
	%853="ufront.layer_norm"(%852){elementwise_affine=true, eps=0.00001, normalized_shape=[256]}:(tensor<1x4x49x256xf32>) -> tensor<1x4x49x256xf32>
	%854="ufront.linear"(%853):(tensor<1x4x49x256xf32>) -> tensor<1x4x49x768xf32>
	%855, %856, %857="ufront.chunk"(%854){axis=-1, sizes=3}:(tensor<1x4x49x768xf32>) -> (tensor<1x4x49x256xf32>, tensor<1x4x49x256xf32>, tensor<1x4x49x256xf32>)
	%858="ufront.reshape"(%855){shape=[1, 4, 49, 8, 32]}:(tensor<1x4x49x256xf32>) -> tensor<1x4x49x8x32xf32>
	%859="ufront.transpose"(%858){perms=[0, 1, 3, 2, 4]}:(tensor<1x4x49x8x32xf32>) -> tensor<1x4x8x49x32xf32>
	%860="ufront.reshape"(%856){shape=[1, 4, 49, 8, 32]}:(tensor<1x4x49x256xf32>) -> tensor<1x4x49x8x32xf32>
	%861="ufront.transpose"(%860){perms=[0, 1, 3, 2, 4]}:(tensor<1x4x49x8x32xf32>) -> tensor<1x4x8x49x32xf32>
	%862="ufront.reshape"(%857){shape=[1, 4, 49, 8, 32]}:(tensor<1x4x49x256xf32>) -> tensor<1x4x49x8x32xf32>
	%863="ufront.transpose"(%862){perms=[0, 1, 3, 2, 4]}:(tensor<1x4x49x8x32xf32>) -> tensor<1x4x8x49x32xf32>
	%864="ufront.smultiply"(%861){scalar=0.0625}:(tensor<1x4x8x49x32xf32>) -> tensor<1x4x8x49x32xf32>
	%865="ufront.call"(%859, %864){addargs=[('arg1', 'B G H I D, B G H J D -> B G H I J')], func=einsum}:(tensor<1x4x8x49x32xf32>, tensor<1x4x8x49x32xf32>) -> tensor<1x4x8x49x49xf32>
	%866="ufront.parameter"(%blocks.2.layers.4.layers.window_attention.attn_layer.1.relative_position_bias_table){dtype="Float", initializer="…", requires_grad=true}:(tensor<169x8xf32>) -> tensor<169x8xf32>
	%867="ufront.tensor"(%_tensor_constant16){dtype="Int64", initializer="…", requires_grad=false}:(tensor<2401xf32>) -> tensor<2401xf32>
	%868="ufront.slice"(%866, %867){output_shape=[2401, 8]}:(tensor<169x8xf32>, tensor<2401xf32>) -> tensor<2401x8xf32>
	%869="ufront.reshape"(%868){shape=[49, 49, 8]}:(tensor<2401x8xf32>) -> tensor<49x49x8xf32>
	%870="ufront.transpose"(%869){perms=[2, 0, 1]}:(tensor<49x49x8xf32>) -> tensor<8x49x49xf32>
	%871="ufront.reshape"(%870){shape=[1, 8, 49, 49]}:(tensor<8x49x49xf32>) -> tensor<1x8x49x49xf32>
	%872="ufront.add"(%865, %871):(tensor<1x4x8x49x49xf32>, tensor<1x8x49x49xf32>) -> tensor<1x4x8x49x49xf32>
	%873="ufront.softmax"(%872):(tensor<1x4x8x49x49xf32>) -> tensor<1x4x8x49x49xf32>
	%874="ufront.call"(%873, %863){addargs=[('arg1', 'B G H I J, B G H J D -> B G H I D')], func=einsum}:(tensor<1x4x8x49x49xf32>, tensor<1x4x8x49x32xf32>) -> tensor<1x4x8x49x32xf32>
	%875="ufront.transpose"(%874){perms=[0, 1, 3, 2, 4]}:(tensor<1x4x8x49x32xf32>) -> tensor<1x4x49x8x32xf32>
	%876="ufront.reshape"(%875){shape=[1, 4, 49, 256]}:(tensor<1x4x49x8x32xf32>) -> tensor<1x4x49x256xf32>
	%877="ufront.linear"(%876):(tensor<1x4x49x256xf32>) -> tensor<1x4x49x256xf32>
	%878="ufront.dropout"(%877){rate=0.0, seed=0}:(tensor<1x4x49x256xf32>) -> tensor<1x4x49x256xf32>
	%879="ufront.call"(%878){addargs=[('p', 0.16), ('mode', 'row'), ('training', False)], func=stochastic_depth}:(tensor<1x4x49x256xf32>) -> tensor<1x4x49x256xf32>
	%880="ufront.add"(%852, %879):(tensor<1x4x49x256xf32>, tensor<1x4x49x256xf32>) -> tensor<1x4x49x256xf32>
	%881="ufront.layer_norm"(%880){elementwise_affine=true, eps=0.00001, normalized_shape=[256]}:(tensor<1x4x49x256xf32>) -> tensor<1x4x49x256xf32>
	%882="ufront.linear"(%881):(tensor<1x4x49x256xf32>) -> tensor<1x4x49x1024xf32>
	%883="ufront.gelu"(%882):(tensor<1x4x49x1024xf32>) -> tensor<1x4x49x1024xf32>
	%884="ufront.linear"(%883):(tensor<1x4x49x1024xf32>) -> tensor<1x4x49x256xf32>
	%885="ufront.dropout"(%884){rate=0.0, seed=0}:(tensor<1x4x49x256xf32>) -> tensor<1x4x49x256xf32>
	%886="ufront.call"(%885){addargs=[('p', 0.16), ('mode', 'row'), ('training', False)], func=stochastic_depth}:(tensor<1x4x49x256xf32>) -> tensor<1x4x49x256xf32>
	%887="ufront.add"(%880, %886):(tensor<1x4x49x256xf32>, tensor<1x4x49x256xf32>) -> tensor<1x4x49x256xf32>
	%888="ufront.identity"(%887):(tensor<1x4x49x256xf32>) -> tensor<1x4x49x256xf32>
	%889="ufront.reshape"(%888){shape=[1, 2, 2, 7, 7, 256]}:(tensor<1x4x49x256xf32>) -> tensor<1x2x2x7x7x256xf32>
	%890="ufront.transpose"(%889){perms=[0, 5, 1, 3, 2, 4]}:(tensor<1x2x2x7x7x256xf32>) -> tensor<1x256x2x7x2x7xf32>
	%891="ufront.reshape"(%890){shape=[1, 256, 14, 14]}:(tensor<1x256x2x7x2x7xf32>) -> tensor<1x256x14x14xf32>
	%892="ufront.reshape"(%891){shape=[1, 256, 7, 2, 7, 2]}:(tensor<1x256x14x14xf32>) -> tensor<1x256x7x2x7x2xf32>
	%893="ufront.transpose"(%892){perms=[0, 2, 4, 3, 5, 1]}:(tensor<1x256x7x2x7x2xf32>) -> tensor<1x7x7x2x2x256xf32>
	%894="ufront.reshape"(%893){shape=[1, 49, 4, 256]}:(tensor<1x7x7x2x2x256xf32>) -> tensor<1x49x4x256xf32>
	%895="ufront.call"(%894){addargs=[('arg2', -2), ('arg3', -3)], func=swapaxes}:(tensor<1x49x4x256xf32>) -> tensor<1x4x49x256xf32>
	%896="ufront.layer_norm"(%895){elementwise_affine=true, eps=0.00001, normalized_shape=[256]}:(tensor<1x4x49x256xf32>) -> tensor<1x4x49x256xf32>
	%897="ufront.linear"(%896):(tensor<1x4x49x256xf32>) -> tensor<1x4x49x768xf32>
	%898, %899, %900="ufront.chunk"(%897){axis=-1, sizes=3}:(tensor<1x4x49x768xf32>) -> (tensor<1x4x49x256xf32>, tensor<1x4x49x256xf32>, tensor<1x4x49x256xf32>)
	%901="ufront.reshape"(%898){shape=[1, 4, 49, 8, 32]}:(tensor<1x4x49x256xf32>) -> tensor<1x4x49x8x32xf32>
	%902="ufront.transpose"(%901){perms=[0, 1, 3, 2, 4]}:(tensor<1x4x49x8x32xf32>) -> tensor<1x4x8x49x32xf32>
	%903="ufront.reshape"(%899){shape=[1, 4, 49, 8, 32]}:(tensor<1x4x49x256xf32>) -> tensor<1x4x49x8x32xf32>
	%904="ufront.transpose"(%903){perms=[0, 1, 3, 2, 4]}:(tensor<1x4x49x8x32xf32>) -> tensor<1x4x8x49x32xf32>
	%905="ufront.reshape"(%900){shape=[1, 4, 49, 8, 32]}:(tensor<1x4x49x256xf32>) -> tensor<1x4x49x8x32xf32>
	%906="ufront.transpose"(%905){perms=[0, 1, 3, 2, 4]}:(tensor<1x4x49x8x32xf32>) -> tensor<1x4x8x49x32xf32>
	%907="ufront.smultiply"(%904){scalar=0.0625}:(tensor<1x4x8x49x32xf32>) -> tensor<1x4x8x49x32xf32>
	%908="ufront.call"(%902, %907){addargs=[('arg1', 'B G H I D, B G H J D -> B G H I J')], func=einsum}:(tensor<1x4x8x49x32xf32>, tensor<1x4x8x49x32xf32>) -> tensor<1x4x8x49x49xf32>
	%909="ufront.parameter"(%blocks.2.layers.4.layers.grid_attention.attn_layer.1.relative_position_bias_table){dtype="Float", initializer="…", requires_grad=true}:(tensor<169x8xf32>) -> tensor<169x8xf32>
	%910="ufront.tensor"(%_tensor_constant17){dtype="Int64", initializer="…", requires_grad=false}:(tensor<2401xf32>) -> tensor<2401xf32>
	%911="ufront.slice"(%909, %910){output_shape=[2401, 8]}:(tensor<169x8xf32>, tensor<2401xf32>) -> tensor<2401x8xf32>
	%912="ufront.reshape"(%911){shape=[49, 49, 8]}:(tensor<2401x8xf32>) -> tensor<49x49x8xf32>
	%913="ufront.transpose"(%912){perms=[2, 0, 1]}:(tensor<49x49x8xf32>) -> tensor<8x49x49xf32>
	%914="ufront.reshape"(%913){shape=[1, 8, 49, 49]}:(tensor<8x49x49xf32>) -> tensor<1x8x49x49xf32>
	%915="ufront.add"(%908, %914):(tensor<1x4x8x49x49xf32>, tensor<1x8x49x49xf32>) -> tensor<1x4x8x49x49xf32>
	%916="ufront.softmax"(%915):(tensor<1x4x8x49x49xf32>) -> tensor<1x4x8x49x49xf32>
	%917="ufront.call"(%916, %906){addargs=[('arg1', 'B G H I J, B G H J D -> B G H I D')], func=einsum}:(tensor<1x4x8x49x49xf32>, tensor<1x4x8x49x32xf32>) -> tensor<1x4x8x49x32xf32>
	%918="ufront.transpose"(%917){perms=[0, 1, 3, 2, 4]}:(tensor<1x4x8x49x32xf32>) -> tensor<1x4x49x8x32xf32>
	%919="ufront.reshape"(%918){shape=[1, 4, 49, 256]}:(tensor<1x4x49x8x32xf32>) -> tensor<1x4x49x256xf32>
	%920="ufront.linear"(%919):(tensor<1x4x49x256xf32>) -> tensor<1x4x49x256xf32>
	%921="ufront.dropout"(%920){rate=0.0, seed=0}:(tensor<1x4x49x256xf32>) -> tensor<1x4x49x256xf32>
	%922="ufront.call"(%921){addargs=[('p', 0.16), ('mode', 'row'), ('training', False)], func=stochastic_depth}:(tensor<1x4x49x256xf32>) -> tensor<1x4x49x256xf32>
	%923="ufront.add"(%895, %922):(tensor<1x4x49x256xf32>, tensor<1x4x49x256xf32>) -> tensor<1x4x49x256xf32>
	%924="ufront.layer_norm"(%923){elementwise_affine=true, eps=0.00001, normalized_shape=[256]}:(tensor<1x4x49x256xf32>) -> tensor<1x4x49x256xf32>
	%925="ufront.linear"(%924):(tensor<1x4x49x256xf32>) -> tensor<1x4x49x1024xf32>
	%926="ufront.gelu"(%925):(tensor<1x4x49x1024xf32>) -> tensor<1x4x49x1024xf32>
	%927="ufront.linear"(%926):(tensor<1x4x49x1024xf32>) -> tensor<1x4x49x256xf32>
	%928="ufront.dropout"(%927){rate=0.0, seed=0}:(tensor<1x4x49x256xf32>) -> tensor<1x4x49x256xf32>
	%929="ufront.call"(%928){addargs=[('p', 0.16), ('mode', 'row'), ('training', False)], func=stochastic_depth}:(tensor<1x4x49x256xf32>) -> tensor<1x4x49x256xf32>
	%930="ufront.add"(%923, %929):(tensor<1x4x49x256xf32>, tensor<1x4x49x256xf32>) -> tensor<1x4x49x256xf32>
	%931="ufront.call"(%930){addargs=[('arg2', -2), ('arg3', -3)], func=swapaxes}:(tensor<1x4x49x256xf32>) -> tensor<1x49x4x256xf32>
	%932="ufront.reshape"(%931){shape=[1, 7, 7, 2, 2, 256]}:(tensor<1x49x4x256xf32>) -> tensor<1x7x7x2x2x256xf32>
	%933="ufront.transpose"(%932){perms=[0, 5, 1, 3, 2, 4]}:(tensor<1x7x7x2x2x256xf32>) -> tensor<1x256x7x2x7x2xf32>
	%934="ufront.reshape"(%933){shape=[1, 256, 14, 14]}:(tensor<1x256x7x2x7x2xf32>) -> tensor<1x256x14x14xf32>
	%935="ufront.pool2d"(%934){kernel=[3, 3], pad=[1, 1], pool_type="POOL_AVG", stride=[2, 2]}:(tensor<1x256x14x14xf32>) -> tensor<1x256x7x7xf32>
	%936="ufront.conv2d"(%935){groups=1, kernel=[1, 1], pad=[0, 0], stride=[1, 1]}:(tensor<1x256x7x7xf32>) -> tensor<1x512x7x7xf32>
	%937="ufront.batchnorm"(%934){affine=true, eps=0.001, momentum=0.99, track_running_stats=true}:(tensor<1x256x14x14xf32>) -> tensor<1x256x14x14xf32>
	%938="ufront.conv2d"(%937){groups=1, kernel=[1, 1], pad=[0, 0], stride=[1, 1]}:(tensor<1x256x14x14xf32>) -> tensor<1x2048x14x14xf32>
	%939="ufront.batchnorm"(%938){affine=true, eps=0.001, momentum=0.99, track_running_stats=true}:(tensor<1x2048x14x14xf32>) -> tensor<1x2048x14x14xf32>
	%940="ufront.gelu"(%939):(tensor<1x2048x14x14xf32>) -> tensor<1x2048x14x14xf32>
	%941="ufront.conv2d"(%940){groups=2048, kernel=[3, 3], pad=[1, 1], stride=[2, 2]}:(tensor<1x2048x14x14xf32>) -> tensor<1x2048x7x7xf32>
	%942="ufront.batchnorm"(%941){affine=true, eps=0.001, momentum=0.99, track_running_stats=true}:(tensor<1x2048x7x7xf32>) -> tensor<1x2048x7x7xf32>
	%943="ufront.gelu"(%942):(tensor<1x2048x7x7xf32>) -> tensor<1x2048x7x7xf32>
	%944="ufront.pool2d"(%943){output_size=[1, 1], pool_type="POOL_ADAPTIVE"}:(tensor<1x2048x7x7xf32>) -> tensor<1x2048x1x1xf32>
	%945="ufront.conv2d"(%944){groups=1, kernel=[1, 1], pad=[0, 0], stride=[1, 1]}:(tensor<1x2048x1x1xf32>) -> tensor<1x128x1x1xf32>
	%946="ufront.silu"(%945):(tensor<1x128x1x1xf32>) -> tensor<1x128x1x1xf32>
	%947="ufront.conv2d"(%946){groups=1, kernel=[1, 1], pad=[0, 0], stride=[1, 1]}:(tensor<1x128x1x1xf32>) -> tensor<1x2048x1x1xf32>
	%948="ufront.sigmoid"(%947):(tensor<1x2048x1x1xf32>) -> tensor<1x2048x1x1xf32>
	%949="ufront.multiply"(%948, %943):(tensor<1x2048x1x1xf32>, tensor<1x2048x7x7xf32>) -> tensor<1x2048x7x7xf32>
	%950="ufront.conv2d"(%949){groups=1, kernel=[1, 1], pad=[0, 0], stride=[1, 1]}:(tensor<1x2048x7x7xf32>) -> tensor<1x512x7x7xf32>
	%951="ufront.call"(%950){addargs=[('p', 0.18), ('mode', 'row'), ('training', False)], func=stochastic_depth}:(tensor<1x512x7x7xf32>) -> tensor<1x512x7x7xf32>
	%952="ufront.add"(%936, %951):(tensor<1x512x7x7xf32>, tensor<1x512x7x7xf32>) -> tensor<1x512x7x7xf32>
	%953="ufront.reshape"(%952){shape=[1, 512, 1, 7, 1, 7]}:(tensor<1x512x7x7xf32>) -> tensor<1x512x1x7x1x7xf32>
	%954="ufront.transpose"(%953){perms=[0, 2, 4, 3, 5, 1]}:(tensor<1x512x1x7x1x7xf32>) -> tensor<1x1x1x7x7x512xf32>
	%955="ufront.reshape"(%954){shape=[1, 1, 49, 512]}:(tensor<1x1x1x7x7x512xf32>) -> tensor<1x1x49x512xf32>
	%956="ufront.identity"(%955):(tensor<1x1x49x512xf32>) -> tensor<1x1x49x512xf32>
	%957="ufront.layer_norm"(%956){elementwise_affine=true, eps=0.00001, normalized_shape=[512]}:(tensor<1x1x49x512xf32>) -> tensor<1x1x49x512xf32>
	%958="ufront.linear"(%957):(tensor<1x1x49x512xf32>) -> tensor<1x1x49x1536xf32>
	%959, %960, %961="ufront.chunk"(%958){axis=-1, sizes=3}:(tensor<1x1x49x1536xf32>) -> (tensor<1x1x49x512xf32>, tensor<1x1x49x512xf32>, tensor<1x1x49x512xf32>)
	%962="ufront.reshape"(%959){shape=[1, 1, 49, 16, 32]}:(tensor<1x1x49x512xf32>) -> tensor<1x1x49x16x32xf32>
	%963="ufront.transpose"(%962){perms=[0, 1, 3, 2, 4]}:(tensor<1x1x49x16x32xf32>) -> tensor<1x1x16x49x32xf32>
	%964="ufront.reshape"(%960){shape=[1, 1, 49, 16, 32]}:(tensor<1x1x49x512xf32>) -> tensor<1x1x49x16x32xf32>
	%965="ufront.transpose"(%964){perms=[0, 1, 3, 2, 4]}:(tensor<1x1x49x16x32xf32>) -> tensor<1x1x16x49x32xf32>
	%966="ufront.reshape"(%961){shape=[1, 1, 49, 16, 32]}:(tensor<1x1x49x512xf32>) -> tensor<1x1x49x16x32xf32>
	%967="ufront.transpose"(%966){perms=[0, 1, 3, 2, 4]}:(tensor<1x1x49x16x32xf32>) -> tensor<1x1x16x49x32xf32>
	%968="ufront.smultiply"(%965){scalar=0.04419417382415922}:(tensor<1x1x16x49x32xf32>) -> tensor<1x1x16x49x32xf32>
	%969="ufront.call"(%963, %968){addargs=[('arg1', 'B G H I D, B G H J D -> B G H I J')], func=einsum}:(tensor<1x1x16x49x32xf32>, tensor<1x1x16x49x32xf32>) -> tensor<1x1x16x49x49xf32>
	%970="ufront.parameter"(%blocks.3.layers.0.layers.window_attention.attn_layer.1.relative_position_bias_table){dtype="Float", initializer="…", requires_grad=true}:(tensor<169x16xf32>) -> tensor<169x16xf32>
	%971="ufront.tensor"(%_tensor_constant18){dtype="Int64", initializer="…", requires_grad=false}:(tensor<2401xf32>) -> tensor<2401xf32>
	%972="ufront.slice"(%970, %971){output_shape=[2401, 16]}:(tensor<169x16xf32>, tensor<2401xf32>) -> tensor<2401x16xf32>
	%973="ufront.reshape"(%972){shape=[49, 49, 16]}:(tensor<2401x16xf32>) -> tensor<49x49x16xf32>
	%974="ufront.transpose"(%973){perms=[2, 0, 1]}:(tensor<49x49x16xf32>) -> tensor<16x49x49xf32>
	%975="ufront.reshape"(%974){shape=[1, 16, 49, 49]}:(tensor<16x49x49xf32>) -> tensor<1x16x49x49xf32>
	%976="ufront.add"(%969, %975):(tensor<1x1x16x49x49xf32>, tensor<1x16x49x49xf32>) -> tensor<1x1x16x49x49xf32>
	%977="ufront.softmax"(%976):(tensor<1x1x16x49x49xf32>) -> tensor<1x1x16x49x49xf32>
	%978="ufront.call"(%977, %967){addargs=[('arg1', 'B G H I J, B G H J D -> B G H I D')], func=einsum}:(tensor<1x1x16x49x49xf32>, tensor<1x1x16x49x32xf32>) -> tensor<1x1x16x49x32xf32>
	%979="ufront.transpose"(%978){perms=[0, 1, 3, 2, 4]}:(tensor<1x1x16x49x32xf32>) -> tensor<1x1x49x16x32xf32>
	%980="ufront.reshape"(%979){shape=[1, 1, 49, 512]}:(tensor<1x1x49x16x32xf32>) -> tensor<1x1x49x512xf32>
	%981="ufront.linear"(%980):(tensor<1x1x49x512xf32>) -> tensor<1x1x49x512xf32>
	%982="ufront.dropout"(%981){rate=0.0, seed=0}:(tensor<1x1x49x512xf32>) -> tensor<1x1x49x512xf32>
	%983="ufront.call"(%982){addargs=[('p', 0.18), ('mode', 'row'), ('training', False)], func=stochastic_depth}:(tensor<1x1x49x512xf32>) -> tensor<1x1x49x512xf32>
	%984="ufront.add"(%956, %983):(tensor<1x1x49x512xf32>, tensor<1x1x49x512xf32>) -> tensor<1x1x49x512xf32>
	%985="ufront.layer_norm"(%984){elementwise_affine=true, eps=0.00001, normalized_shape=[512]}:(tensor<1x1x49x512xf32>) -> tensor<1x1x49x512xf32>
	%986="ufront.linear"(%985):(tensor<1x1x49x512xf32>) -> tensor<1x1x49x2048xf32>
	%987="ufront.gelu"(%986):(tensor<1x1x49x2048xf32>) -> tensor<1x1x49x2048xf32>
	%988="ufront.linear"(%987):(tensor<1x1x49x2048xf32>) -> tensor<1x1x49x512xf32>
	%989="ufront.dropout"(%988){rate=0.0, seed=0}:(tensor<1x1x49x512xf32>) -> tensor<1x1x49x512xf32>
	%990="ufront.call"(%989){addargs=[('p', 0.18), ('mode', 'row'), ('training', False)], func=stochastic_depth}:(tensor<1x1x49x512xf32>) -> tensor<1x1x49x512xf32>
	%991="ufront.add"(%984, %990):(tensor<1x1x49x512xf32>, tensor<1x1x49x512xf32>) -> tensor<1x1x49x512xf32>
	%992="ufront.identity"(%991):(tensor<1x1x49x512xf32>) -> tensor<1x1x49x512xf32>
	%993="ufront.reshape"(%992){shape=[1, 1, 1, 7, 7, 512]}:(tensor<1x1x49x512xf32>) -> tensor<1x1x1x7x7x512xf32>
	%994="ufront.transpose"(%993){perms=[0, 5, 1, 3, 2, 4]}:(tensor<1x1x1x7x7x512xf32>) -> tensor<1x512x1x7x1x7xf32>
	%995="ufront.reshape"(%994){shape=[1, 512, 7, 7]}:(tensor<1x512x1x7x1x7xf32>) -> tensor<1x512x7x7xf32>
	%996="ufront.reshape"(%995){shape=[1, 512, 7, 1, 7, 1]}:(tensor<1x512x7x7xf32>) -> tensor<1x512x7x1x7x1xf32>
	%997="ufront.transpose"(%996){perms=[0, 2, 4, 3, 5, 1]}:(tensor<1x512x7x1x7x1xf32>) -> tensor<1x7x7x1x1x512xf32>
	%998="ufront.reshape"(%997){shape=[1, 49, 1, 512]}:(tensor<1x7x7x1x1x512xf32>) -> tensor<1x49x1x512xf32>
	%999="ufront.call"(%998){addargs=[('arg2', -2), ('arg3', -3)], func=swapaxes}:(tensor<1x49x1x512xf32>) -> tensor<1x1x49x512xf32>
	%1000="ufront.layer_norm"(%999){elementwise_affine=true, eps=0.00001, normalized_shape=[512]}:(tensor<1x1x49x512xf32>) -> tensor<1x1x49x512xf32>
	%1001="ufront.linear"(%1000):(tensor<1x1x49x512xf32>) -> tensor<1x1x49x1536xf32>
	%1002, %1003, %1004="ufront.chunk"(%1001){axis=-1, sizes=3}:(tensor<1x1x49x1536xf32>) -> (tensor<1x1x49x512xf32>, tensor<1x1x49x512xf32>, tensor<1x1x49x512xf32>)
	%1005="ufront.reshape"(%1002){shape=[1, 1, 49, 16, 32]}:(tensor<1x1x49x512xf32>) -> tensor<1x1x49x16x32xf32>
	%1006="ufront.transpose"(%1005){perms=[0, 1, 3, 2, 4]}:(tensor<1x1x49x16x32xf32>) -> tensor<1x1x16x49x32xf32>
	%1007="ufront.reshape"(%1003){shape=[1, 1, 49, 16, 32]}:(tensor<1x1x49x512xf32>) -> tensor<1x1x49x16x32xf32>
	%1008="ufront.transpose"(%1007){perms=[0, 1, 3, 2, 4]}:(tensor<1x1x49x16x32xf32>) -> tensor<1x1x16x49x32xf32>
	%1009="ufront.reshape"(%1004){shape=[1, 1, 49, 16, 32]}:(tensor<1x1x49x512xf32>) -> tensor<1x1x49x16x32xf32>
	%1010="ufront.transpose"(%1009){perms=[0, 1, 3, 2, 4]}:(tensor<1x1x49x16x32xf32>) -> tensor<1x1x16x49x32xf32>
	%1011="ufront.smultiply"(%1008){scalar=0.04419417382415922}:(tensor<1x1x16x49x32xf32>) -> tensor<1x1x16x49x32xf32>
	%1012="ufront.call"(%1006, %1011){addargs=[('arg1', 'B G H I D, B G H J D -> B G H I J')], func=einsum}:(tensor<1x1x16x49x32xf32>, tensor<1x1x16x49x32xf32>) -> tensor<1x1x16x49x49xf32>
	%1013="ufront.parameter"(%blocks.3.layers.0.layers.grid_attention.attn_layer.1.relative_position_bias_table){dtype="Float", initializer="…", requires_grad=true}:(tensor<169x16xf32>) -> tensor<169x16xf32>
	%1014="ufront.tensor"(%_tensor_constant19){dtype="Int64", initializer="…", requires_grad=false}:(tensor<2401xf32>) -> tensor<2401xf32>
	%1015="ufront.slice"(%1013, %1014){output_shape=[2401, 16]}:(tensor<169x16xf32>, tensor<2401xf32>) -> tensor<2401x16xf32>
	%1016="ufront.reshape"(%1015){shape=[49, 49, 16]}:(tensor<2401x16xf32>) -> tensor<49x49x16xf32>
	%1017="ufront.transpose"(%1016){perms=[2, 0, 1]}:(tensor<49x49x16xf32>) -> tensor<16x49x49xf32>
	%1018="ufront.reshape"(%1017){shape=[1, 16, 49, 49]}:(tensor<16x49x49xf32>) -> tensor<1x16x49x49xf32>
	%1019="ufront.add"(%1012, %1018):(tensor<1x1x16x49x49xf32>, tensor<1x16x49x49xf32>) -> tensor<1x1x16x49x49xf32>
	%1020="ufront.softmax"(%1019):(tensor<1x1x16x49x49xf32>) -> tensor<1x1x16x49x49xf32>
	%1021="ufront.call"(%1020, %1010){addargs=[('arg1', 'B G H I J, B G H J D -> B G H I D')], func=einsum}:(tensor<1x1x16x49x49xf32>, tensor<1x1x16x49x32xf32>) -> tensor<1x1x16x49x32xf32>
	%1022="ufront.transpose"(%1021){perms=[0, 1, 3, 2, 4]}:(tensor<1x1x16x49x32xf32>) -> tensor<1x1x49x16x32xf32>
	%1023="ufront.reshape"(%1022){shape=[1, 1, 49, 512]}:(tensor<1x1x49x16x32xf32>) -> tensor<1x1x49x512xf32>
	%1024="ufront.linear"(%1023):(tensor<1x1x49x512xf32>) -> tensor<1x1x49x512xf32>
	%1025="ufront.dropout"(%1024){rate=0.0, seed=0}:(tensor<1x1x49x512xf32>) -> tensor<1x1x49x512xf32>
	%1026="ufront.call"(%1025){addargs=[('p', 0.18), ('mode', 'row'), ('training', False)], func=stochastic_depth}:(tensor<1x1x49x512xf32>) -> tensor<1x1x49x512xf32>
	%1027="ufront.add"(%999, %1026):(tensor<1x1x49x512xf32>, tensor<1x1x49x512xf32>) -> tensor<1x1x49x512xf32>
	%1028="ufront.layer_norm"(%1027){elementwise_affine=true, eps=0.00001, normalized_shape=[512]}:(tensor<1x1x49x512xf32>) -> tensor<1x1x49x512xf32>
	%1029="ufront.linear"(%1028):(tensor<1x1x49x512xf32>) -> tensor<1x1x49x2048xf32>
	%1030="ufront.gelu"(%1029):(tensor<1x1x49x2048xf32>) -> tensor<1x1x49x2048xf32>
	%1031="ufront.linear"(%1030):(tensor<1x1x49x2048xf32>) -> tensor<1x1x49x512xf32>
	%1032="ufront.dropout"(%1031){rate=0.0, seed=0}:(tensor<1x1x49x512xf32>) -> tensor<1x1x49x512xf32>
	%1033="ufront.call"(%1032){addargs=[('p', 0.18), ('mode', 'row'), ('training', False)], func=stochastic_depth}:(tensor<1x1x49x512xf32>) -> tensor<1x1x49x512xf32>
	%1034="ufront.add"(%1027, %1033):(tensor<1x1x49x512xf32>, tensor<1x1x49x512xf32>) -> tensor<1x1x49x512xf32>
	%1035="ufront.call"(%1034){addargs=[('arg2', -2), ('arg3', -3)], func=swapaxes}:(tensor<1x1x49x512xf32>) -> tensor<1x49x1x512xf32>
	%1036="ufront.reshape"(%1035){shape=[1, 7, 7, 1, 1, 512]}:(tensor<1x49x1x512xf32>) -> tensor<1x7x7x1x1x512xf32>
	%1037="ufront.transpose"(%1036){perms=[0, 5, 1, 3, 2, 4]}:(tensor<1x7x7x1x1x512xf32>) -> tensor<1x512x7x1x7x1xf32>
	%1038="ufront.reshape"(%1037){shape=[1, 512, 7, 7]}:(tensor<1x512x7x1x7x1xf32>) -> tensor<1x512x7x7xf32>
	%1039="ufront.identity"(%1038):(tensor<1x512x7x7xf32>) -> tensor<1x512x7x7xf32>
	%1040="ufront.batchnorm"(%1038){affine=true, eps=0.001, momentum=0.99, track_running_stats=true}:(tensor<1x512x7x7xf32>) -> tensor<1x512x7x7xf32>
	%1041="ufront.conv2d"(%1040){groups=1, kernel=[1, 1], pad=[0, 0], stride=[1, 1]}:(tensor<1x512x7x7xf32>) -> tensor<1x2048x7x7xf32>
	%1042="ufront.batchnorm"(%1041){affine=true, eps=0.001, momentum=0.99, track_running_stats=true}:(tensor<1x2048x7x7xf32>) -> tensor<1x2048x7x7xf32>
	%1043="ufront.gelu"(%1042):(tensor<1x2048x7x7xf32>) -> tensor<1x2048x7x7xf32>
	%1044="ufront.conv2d"(%1043){groups=2048, kernel=[3, 3], pad=[1, 1], stride=[1, 1]}:(tensor<1x2048x7x7xf32>) -> tensor<1x2048x7x7xf32>
	%1045="ufront.batchnorm"(%1044){affine=true, eps=0.001, momentum=0.99, track_running_stats=true}:(tensor<1x2048x7x7xf32>) -> tensor<1x2048x7x7xf32>
	%1046="ufront.gelu"(%1045):(tensor<1x2048x7x7xf32>) -> tensor<1x2048x7x7xf32>
	%1047="ufront.pool2d"(%1046){output_size=[1, 1], pool_type="POOL_ADAPTIVE"}:(tensor<1x2048x7x7xf32>) -> tensor<1x2048x1x1xf32>
	%1048="ufront.conv2d"(%1047){groups=1, kernel=[1, 1], pad=[0, 0], stride=[1, 1]}:(tensor<1x2048x1x1xf32>) -> tensor<1x128x1x1xf32>
	%1049="ufront.silu"(%1048):(tensor<1x128x1x1xf32>) -> tensor<1x128x1x1xf32>
	%1050="ufront.conv2d"(%1049){groups=1, kernel=[1, 1], pad=[0, 0], stride=[1, 1]}:(tensor<1x128x1x1xf32>) -> tensor<1x2048x1x1xf32>
	%1051="ufront.sigmoid"(%1050):(tensor<1x2048x1x1xf32>) -> tensor<1x2048x1x1xf32>
	%1052="ufront.multiply"(%1051, %1046):(tensor<1x2048x1x1xf32>, tensor<1x2048x7x7xf32>) -> tensor<1x2048x7x7xf32>
	%1053="ufront.conv2d"(%1052){groups=1, kernel=[1, 1], pad=[0, 0], stride=[1, 1]}:(tensor<1x2048x7x7xf32>) -> tensor<1x512x7x7xf32>
	%1054="ufront.call"(%1053){addargs=[('p', 0.2), ('mode', 'row'), ('training', False)], func=stochastic_depth}:(tensor<1x512x7x7xf32>) -> tensor<1x512x7x7xf32>
	%1055="ufront.add"(%1039, %1054):(tensor<1x512x7x7xf32>, tensor<1x512x7x7xf32>) -> tensor<1x512x7x7xf32>
	%1056="ufront.reshape"(%1055){shape=[1, 512, 1, 7, 1, 7]}:(tensor<1x512x7x7xf32>) -> tensor<1x512x1x7x1x7xf32>
	%1057="ufront.transpose"(%1056){perms=[0, 2, 4, 3, 5, 1]}:(tensor<1x512x1x7x1x7xf32>) -> tensor<1x1x1x7x7x512xf32>
	%1058="ufront.reshape"(%1057){shape=[1, 1, 49, 512]}:(tensor<1x1x1x7x7x512xf32>) -> tensor<1x1x49x512xf32>
	%1059="ufront.identity"(%1058):(tensor<1x1x49x512xf32>) -> tensor<1x1x49x512xf32>
	%1060="ufront.layer_norm"(%1059){elementwise_affine=true, eps=0.00001, normalized_shape=[512]}:(tensor<1x1x49x512xf32>) -> tensor<1x1x49x512xf32>
	%1061="ufront.linear"(%1060):(tensor<1x1x49x512xf32>) -> tensor<1x1x49x1536xf32>
	%1062, %1063, %1064="ufront.chunk"(%1061){axis=-1, sizes=3}:(tensor<1x1x49x1536xf32>) -> (tensor<1x1x49x512xf32>, tensor<1x1x49x512xf32>, tensor<1x1x49x512xf32>)
	%1065="ufront.reshape"(%1062){shape=[1, 1, 49, 16, 32]}:(tensor<1x1x49x512xf32>) -> tensor<1x1x49x16x32xf32>
	%1066="ufront.transpose"(%1065){perms=[0, 1, 3, 2, 4]}:(tensor<1x1x49x16x32xf32>) -> tensor<1x1x16x49x32xf32>
	%1067="ufront.reshape"(%1063){shape=[1, 1, 49, 16, 32]}:(tensor<1x1x49x512xf32>) -> tensor<1x1x49x16x32xf32>
	%1068="ufront.transpose"(%1067){perms=[0, 1, 3, 2, 4]}:(tensor<1x1x49x16x32xf32>) -> tensor<1x1x16x49x32xf32>
	%1069="ufront.reshape"(%1064){shape=[1, 1, 49, 16, 32]}:(tensor<1x1x49x512xf32>) -> tensor<1x1x49x16x32xf32>
	%1070="ufront.transpose"(%1069){perms=[0, 1, 3, 2, 4]}:(tensor<1x1x49x16x32xf32>) -> tensor<1x1x16x49x32xf32>
	%1071="ufront.smultiply"(%1068){scalar=0.04419417382415922}:(tensor<1x1x16x49x32xf32>) -> tensor<1x1x16x49x32xf32>
	%1072="ufront.call"(%1066, %1071){addargs=[('arg1', 'B G H I D, B G H J D -> B G H I J')], func=einsum}:(tensor<1x1x16x49x32xf32>, tensor<1x1x16x49x32xf32>) -> tensor<1x1x16x49x49xf32>
	%1073="ufront.parameter"(%blocks.3.layers.1.layers.window_attention.attn_layer.1.relative_position_bias_table){dtype="Float", initializer="…", requires_grad=true}:(tensor<169x16xf32>) -> tensor<169x16xf32>
	%1074="ufront.tensor"(%_tensor_constant20){dtype="Int64", initializer="…", requires_grad=false}:(tensor<2401xf32>) -> tensor<2401xf32>
	%1075="ufront.slice"(%1073, %1074){output_shape=[2401, 16]}:(tensor<169x16xf32>, tensor<2401xf32>) -> tensor<2401x16xf32>
	%1076="ufront.reshape"(%1075){shape=[49, 49, 16]}:(tensor<2401x16xf32>) -> tensor<49x49x16xf32>
	%1077="ufront.transpose"(%1076){perms=[2, 0, 1]}:(tensor<49x49x16xf32>) -> tensor<16x49x49xf32>
	%1078="ufront.reshape"(%1077){shape=[1, 16, 49, 49]}:(tensor<16x49x49xf32>) -> tensor<1x16x49x49xf32>
	%1079="ufront.add"(%1072, %1078):(tensor<1x1x16x49x49xf32>, tensor<1x16x49x49xf32>) -> tensor<1x1x16x49x49xf32>
	%1080="ufront.softmax"(%1079):(tensor<1x1x16x49x49xf32>) -> tensor<1x1x16x49x49xf32>
	%1081="ufront.call"(%1080, %1070){addargs=[('arg1', 'B G H I J, B G H J D -> B G H I D')], func=einsum}:(tensor<1x1x16x49x49xf32>, tensor<1x1x16x49x32xf32>) -> tensor<1x1x16x49x32xf32>
	%1082="ufront.transpose"(%1081){perms=[0, 1, 3, 2, 4]}:(tensor<1x1x16x49x32xf32>) -> tensor<1x1x49x16x32xf32>
	%1083="ufront.reshape"(%1082){shape=[1, 1, 49, 512]}:(tensor<1x1x49x16x32xf32>) -> tensor<1x1x49x512xf32>
	%1084="ufront.linear"(%1083):(tensor<1x1x49x512xf32>) -> tensor<1x1x49x512xf32>
	%1085="ufront.dropout"(%1084){rate=0.0, seed=0}:(tensor<1x1x49x512xf32>) -> tensor<1x1x49x512xf32>
	%1086="ufront.call"(%1085){addargs=[('p', 0.2), ('mode', 'row'), ('training', False)], func=stochastic_depth}:(tensor<1x1x49x512xf32>) -> tensor<1x1x49x512xf32>
	%1087="ufront.add"(%1059, %1086):(tensor<1x1x49x512xf32>, tensor<1x1x49x512xf32>) -> tensor<1x1x49x512xf32>
	%1088="ufront.layer_norm"(%1087){elementwise_affine=true, eps=0.00001, normalized_shape=[512]}:(tensor<1x1x49x512xf32>) -> tensor<1x1x49x512xf32>
	%1089="ufront.linear"(%1088):(tensor<1x1x49x512xf32>) -> tensor<1x1x49x2048xf32>
	%1090="ufront.gelu"(%1089):(tensor<1x1x49x2048xf32>) -> tensor<1x1x49x2048xf32>
	%1091="ufront.linear"(%1090):(tensor<1x1x49x2048xf32>) -> tensor<1x1x49x512xf32>
	%1092="ufront.dropout"(%1091){rate=0.0, seed=0}:(tensor<1x1x49x512xf32>) -> tensor<1x1x49x512xf32>
	%1093="ufront.call"(%1092){addargs=[('p', 0.2), ('mode', 'row'), ('training', False)], func=stochastic_depth}:(tensor<1x1x49x512xf32>) -> tensor<1x1x49x512xf32>
	%1094="ufront.add"(%1087, %1093):(tensor<1x1x49x512xf32>, tensor<1x1x49x512xf32>) -> tensor<1x1x49x512xf32>
	%1095="ufront.identity"(%1094):(tensor<1x1x49x512xf32>) -> tensor<1x1x49x512xf32>
	%1096="ufront.reshape"(%1095){shape=[1, 1, 1, 7, 7, 512]}:(tensor<1x1x49x512xf32>) -> tensor<1x1x1x7x7x512xf32>
	%1097="ufront.transpose"(%1096){perms=[0, 5, 1, 3, 2, 4]}:(tensor<1x1x1x7x7x512xf32>) -> tensor<1x512x1x7x1x7xf32>
	%1098="ufront.reshape"(%1097){shape=[1, 512, 7, 7]}:(tensor<1x512x1x7x1x7xf32>) -> tensor<1x512x7x7xf32>
	%1099="ufront.reshape"(%1098){shape=[1, 512, 7, 1, 7, 1]}:(tensor<1x512x7x7xf32>) -> tensor<1x512x7x1x7x1xf32>
	%1100="ufront.transpose"(%1099){perms=[0, 2, 4, 3, 5, 1]}:(tensor<1x512x7x1x7x1xf32>) -> tensor<1x7x7x1x1x512xf32>
	%1101="ufront.reshape"(%1100){shape=[1, 49, 1, 512]}:(tensor<1x7x7x1x1x512xf32>) -> tensor<1x49x1x512xf32>
	%1102="ufront.call"(%1101){addargs=[('arg2', -2), ('arg3', -3)], func=swapaxes}:(tensor<1x49x1x512xf32>) -> tensor<1x1x49x512xf32>
	%1103="ufront.layer_norm"(%1102){elementwise_affine=true, eps=0.00001, normalized_shape=[512]}:(tensor<1x1x49x512xf32>) -> tensor<1x1x49x512xf32>
	%1104="ufront.linear"(%1103):(tensor<1x1x49x512xf32>) -> tensor<1x1x49x1536xf32>
	%1105, %1106, %1107="ufront.chunk"(%1104){axis=-1, sizes=3}:(tensor<1x1x49x1536xf32>) -> (tensor<1x1x49x512xf32>, tensor<1x1x49x512xf32>, tensor<1x1x49x512xf32>)
	%1108="ufront.reshape"(%1105){shape=[1, 1, 49, 16, 32]}:(tensor<1x1x49x512xf32>) -> tensor<1x1x49x16x32xf32>
	%1109="ufront.transpose"(%1108){perms=[0, 1, 3, 2, 4]}:(tensor<1x1x49x16x32xf32>) -> tensor<1x1x16x49x32xf32>
	%1110="ufront.reshape"(%1106){shape=[1, 1, 49, 16, 32]}:(tensor<1x1x49x512xf32>) -> tensor<1x1x49x16x32xf32>
	%1111="ufront.transpose"(%1110){perms=[0, 1, 3, 2, 4]}:(tensor<1x1x49x16x32xf32>) -> tensor<1x1x16x49x32xf32>
	%1112="ufront.reshape"(%1107){shape=[1, 1, 49, 16, 32]}:(tensor<1x1x49x512xf32>) -> tensor<1x1x49x16x32xf32>
	%1113="ufront.transpose"(%1112){perms=[0, 1, 3, 2, 4]}:(tensor<1x1x49x16x32xf32>) -> tensor<1x1x16x49x32xf32>
	%1114="ufront.smultiply"(%1111){scalar=0.04419417382415922}:(tensor<1x1x16x49x32xf32>) -> tensor<1x1x16x49x32xf32>
	%1115="ufront.call"(%1109, %1114){addargs=[('arg1', 'B G H I D, B G H J D -> B G H I J')], func=einsum}:(tensor<1x1x16x49x32xf32>, tensor<1x1x16x49x32xf32>) -> tensor<1x1x16x49x49xf32>
	%1116="ufront.parameter"(%blocks.3.layers.1.layers.grid_attention.attn_layer.1.relative_position_bias_table){dtype="Float", initializer="…", requires_grad=true}:(tensor<169x16xf32>) -> tensor<169x16xf32>
	%1117="ufront.tensor"(%_tensor_constant21){dtype="Int64", initializer="…", requires_grad=false}:(tensor<2401xf32>) -> tensor<2401xf32>
	%1118="ufront.slice"(%1116, %1117){output_shape=[2401, 16]}:(tensor<169x16xf32>, tensor<2401xf32>) -> tensor<2401x16xf32>
	%1119="ufront.reshape"(%1118){shape=[49, 49, 16]}:(tensor<2401x16xf32>) -> tensor<49x49x16xf32>
	%1120="ufront.transpose"(%1119){perms=[2, 0, 1]}:(tensor<49x49x16xf32>) -> tensor<16x49x49xf32>
	%1121="ufront.reshape"(%1120){shape=[1, 16, 49, 49]}:(tensor<16x49x49xf32>) -> tensor<1x16x49x49xf32>
	%1122="ufront.add"(%1115, %1121):(tensor<1x1x16x49x49xf32>, tensor<1x16x49x49xf32>) -> tensor<1x1x16x49x49xf32>
	%1123="ufront.softmax"(%1122):(tensor<1x1x16x49x49xf32>) -> tensor<1x1x16x49x49xf32>
	%1124="ufront.call"(%1123, %1113){addargs=[('arg1', 'B G H I J, B G H J D -> B G H I D')], func=einsum}:(tensor<1x1x16x49x49xf32>, tensor<1x1x16x49x32xf32>) -> tensor<1x1x16x49x32xf32>
	%1125="ufront.transpose"(%1124){perms=[0, 1, 3, 2, 4]}:(tensor<1x1x16x49x32xf32>) -> tensor<1x1x49x16x32xf32>
	%1126="ufront.reshape"(%1125){shape=[1, 1, 49, 512]}:(tensor<1x1x49x16x32xf32>) -> tensor<1x1x49x512xf32>
	%1127="ufront.linear"(%1126):(tensor<1x1x49x512xf32>) -> tensor<1x1x49x512xf32>
	%1128="ufront.dropout"(%1127){rate=0.0, seed=0}:(tensor<1x1x49x512xf32>) -> tensor<1x1x49x512xf32>
	%1129="ufront.call"(%1128){addargs=[('p', 0.2), ('mode', 'row'), ('training', False)], func=stochastic_depth}:(tensor<1x1x49x512xf32>) -> tensor<1x1x49x512xf32>
	%1130="ufront.add"(%1102, %1129):(tensor<1x1x49x512xf32>, tensor<1x1x49x512xf32>) -> tensor<1x1x49x512xf32>
	%1131="ufront.layer_norm"(%1130){elementwise_affine=true, eps=0.00001, normalized_shape=[512]}:(tensor<1x1x49x512xf32>) -> tensor<1x1x49x512xf32>
	%1132="ufront.linear"(%1131):(tensor<1x1x49x512xf32>) -> tensor<1x1x49x2048xf32>
	%1133="ufront.gelu"(%1132):(tensor<1x1x49x2048xf32>) -> tensor<1x1x49x2048xf32>
	%1134="ufront.linear"(%1133):(tensor<1x1x49x2048xf32>) -> tensor<1x1x49x512xf32>
	%1135="ufront.dropout"(%1134){rate=0.0, seed=0}:(tensor<1x1x49x512xf32>) -> tensor<1x1x49x512xf32>
	%1136="ufront.call"(%1135){addargs=[('p', 0.2), ('mode', 'row'), ('training', False)], func=stochastic_depth}:(tensor<1x1x49x512xf32>) -> tensor<1x1x49x512xf32>
	%1137="ufront.add"(%1130, %1136):(tensor<1x1x49x512xf32>, tensor<1x1x49x512xf32>) -> tensor<1x1x49x512xf32>
	%1138="ufront.call"(%1137){addargs=[('arg2', -2), ('arg3', -3)], func=swapaxes}:(tensor<1x1x49x512xf32>) -> tensor<1x49x1x512xf32>
	%1139="ufront.reshape"(%1138){shape=[1, 7, 7, 1, 1, 512]}:(tensor<1x49x1x512xf32>) -> tensor<1x7x7x1x1x512xf32>
	%1140="ufront.transpose"(%1139){perms=[0, 5, 1, 3, 2, 4]}:(tensor<1x7x7x1x1x512xf32>) -> tensor<1x512x7x1x7x1xf32>
	%1141="ufront.reshape"(%1140){shape=[1, 512, 7, 7]}:(tensor<1x512x7x1x7x1xf32>) -> tensor<1x512x7x7xf32>
	%1142="ufront.pool2d"(%1141){output_size=[1, 1], pool_type="POOL_ADAPTIVE"}:(tensor<1x512x7x7xf32>) -> tensor<1x512x1x1xf32>
	%1143="ufront.flat"(%1142){end_dim=-1, start_dim=1}:(tensor<1x512x1x1xf32>) -> tensor<1x512xf32>
	%1144="ufront.layer_norm"(%1143){elementwise_affine=true, eps=0.00001, normalized_shape=[512]}:(tensor<1x512xf32>) -> tensor<1x512xf32>
	%1145="ufront.linear"(%1144):(tensor<1x512xf32>) -> tensor<1x512xf32>
	%1146="ufront.tanh"(%1145):(tensor<1x512xf32>) -> tensor<1x512xf32>
	%1147="ufront.linear"(%1146):(tensor<1x512xf32>) -> tensor<1x1000xf32>
	return %1147: tensor<1x1000xf32>
}